// -----// IR Dump After {anonymous}::FuncOpLoweringPass () //----- //
#map = affine_map<(d0, d1) -> (d0, d1)>
module {
  func.func @main() {
    %0 = "ta.index_label"() : () -> !ta.indexlabel
    %1 = "ta.index_label"() : () -> !ta.indexlabel
    %2 = "ta.dense_tensor_decl"() <{format = "Dense"}> : () -> tensor<1024x1024xf64>
    %3 = "ta.dense_tensor_decl"() <{format = "Dense"}> : () -> tensor<1024x1024xf64>
    %4 = "ta.dense_tensor_decl"() <{format = "Dense"}> : () -> tensor<1024x1024xf64>
    "ta.fill"(%2) <{value = 2.200000e+00 : f64}> : (tensor<1024x1024xf64>) -> ()
    "ta.fill"(%3) <{value = 3.400000e+00 : f64}> : (tensor<1024x1024xf64>) -> ()
    "ta.fill"(%4) <{value = 0.000000e+00 : f64}> : (tensor<1024x1024xf64>) -> ()
    %5 = "ta.add"(%2, %3, %0, %1, %0, %1, %0, %1) <{MaskType = "none", formats = ["Dense", "Dense", "Dense"], indexing_maps = [#map, #map, #map], semiring = "noop_plusxy"}> : (tensor<1024x1024xf64>, tensor<1024x1024xf64>, !ta.indexlabel, !ta.indexlabel, !ta.indexlabel, !ta.indexlabel, !ta.indexlabel, !ta.indexlabel) -> tensor<1024x1024xf64>
    "ta.set_op"(%5, %4) : (tensor<1024x1024xf64>, tensor<1024x1024xf64>) -> ()
    "ta.print"(%4) : (tensor<1024x1024xf64>) -> ()
    return
  }
}


// -----// IR Dump After {anonymous}::TensorAlgebraCheckImplicitTensorDeclPass () //----- //
func.func @main() {
  %0 = "ta.index_label"() : () -> !ta.indexlabel
  %1 = "ta.index_label"() : () -> !ta.indexlabel
  %2 = "ta.dense_tensor_decl"() <{format = "Dense"}> : () -> tensor<1024x1024xf64>
  %3 = "ta.dense_tensor_decl"() <{format = "Dense"}> : () -> tensor<1024x1024xf64>
  %4 = "ta.dense_tensor_decl"() <{format = "Dense"}> : () -> tensor<1024x1024xf64>
  "ta.fill"(%2) <{value = 2.200000e+00 : f64}> : (tensor<1024x1024xf64>) -> ()
  "ta.fill"(%3) <{value = 3.400000e+00 : f64}> : (tensor<1024x1024xf64>) -> ()
  "ta.fill"(%4) <{value = 0.000000e+00 : f64}> : (tensor<1024x1024xf64>) -> ()
  %5 = "ta.add"(%2, %3, %0, %1, %0, %1, %0, %1) <{MaskType = "none", formats = ["Dense", "Dense", "Dense"], indexing_maps = [affine_map<(d0, d1) -> (d0, d1)>, affine_map<(d0, d1) -> (d0, d1)>, affine_map<(d0, d1) -> (d0, d1)>], semiring = "noop_plusxy"}> : (tensor<1024x1024xf64>, tensor<1024x1024xf64>, !ta.indexlabel, !ta.indexlabel, !ta.indexlabel, !ta.indexlabel, !ta.indexlabel, !ta.indexlabel) -> tensor<1024x1024xf64>
  "ta.set_op"(%5, %4) : (tensor<1024x1024xf64>, tensor<1024x1024xf64>) -> ()
  "ta.print"(%4) : (tensor<1024x1024xf64>) -> ()
  return
}

// -----// IR Dump After {anonymous}::LowerTensorAlgebraToIndexTreePass () //----- //
func.func @main() {
  %0 = "ta.index_label"() : () -> !ta.indexlabel
  %1 = "ta.index_label"() : () -> !ta.indexlabel
  %2 = "ta.dense_tensor_decl"() <{format = "Dense"}> : () -> tensor<1024x1024xf64>
  %3 = "ta.dense_tensor_decl"() <{format = "Dense"}> : () -> tensor<1024x1024xf64>
  %4 = "ta.dense_tensor_decl"() <{format = "Dense"}> : () -> tensor<1024x1024xf64>
  "ta.fill"(%2) <{value = 2.200000e+00 : f64}> : (tensor<1024x1024xf64>) -> ()
  "ta.fill"(%3) <{value = 3.400000e+00 : f64}> : (tensor<1024x1024xf64>) -> ()
  "ta.fill"(%4) <{value = 0.000000e+00 : f64}> : (tensor<1024x1024xf64>) -> ()
  %5 = "it.ComputeRHS"(%2, %3) <{allBlocks = [["UNK", "UNK"], ["UNK", "UNK"]], allFormats = [["D", "D"], ["D", "D"]], allPerms = [[0, 1], [0, 1]]}> : (tensor<1024x1024xf64>, tensor<1024x1024xf64>) -> tensor<*xf64>
  %6 = "it.ComputeLHS"(%4) <{allBlocks = [["UNK", "UNK"]], allFormats = [["D", "D"]], allPerms = [[0, 1]]}> : (tensor<1024x1024xf64>) -> tensor<*xf64>
  %7 = "it.Compute"(%5, %6) <{MaskType = "none", comp_worksp_opt = false, semiring = "noop_plusxy"}> : (tensor<*xf64>, tensor<*xf64>) -> i64
  %8 = "it.Indices"(%7) <{indices = [1], iterator_type = "parallel"}> : (i64) -> i64
  %9 = "it.Indices"(%8) <{indices = [0], iterator_type = "parallel"}> : (i64) -> i64
  %10 = "it.itree"(%9) : (i64) -> i64
  "ta.print"(%4) : (tensor<1024x1024xf64>) -> ()
  return
}

// -----// IR Dump After {anonymous}::SparseTensorDeclLoweringPass () //----- //
func.func @main() {
  %0 = "ta.index_label"() : () -> !ta.indexlabel
  %1 = "ta.index_label"() : () -> !ta.indexlabel
  %2 = "ta.dense_tensor_decl"() <{format = "Dense"}> : () -> tensor<1024x1024xf64>
  %3 = "ta.dense_tensor_decl"() <{format = "Dense"}> : () -> tensor<1024x1024xf64>
  %4 = "ta.dense_tensor_decl"() <{format = "Dense"}> : () -> tensor<1024x1024xf64>
  "ta.fill"(%2) <{value = 2.200000e+00 : f64}> : (tensor<1024x1024xf64>) -> ()
  "ta.fill"(%3) <{value = 3.400000e+00 : f64}> : (tensor<1024x1024xf64>) -> ()
  "ta.fill"(%4) <{value = 0.000000e+00 : f64}> : (tensor<1024x1024xf64>) -> ()
  %5 = "it.ComputeRHS"(%2, %3) <{allBlocks = [["UNK", "UNK"], ["UNK", "UNK"]], allFormats = [["D", "D"], ["D", "D"]], allPerms = [[0, 1], [0, 1]]}> : (tensor<1024x1024xf64>, tensor<1024x1024xf64>) -> tensor<*xf64>
  %6 = "it.ComputeLHS"(%4) <{allBlocks = [["UNK", "UNK"]], allFormats = [["D", "D"]], allPerms = [[0, 1]]}> : (tensor<1024x1024xf64>) -> tensor<*xf64>
  %7 = "it.Compute"(%5, %6) <{MaskType = "none", comp_worksp_opt = false, semiring = "noop_plusxy"}> : (tensor<*xf64>, tensor<*xf64>) -> i64
  %8 = "it.Indices"(%7) <{indices = [1], iterator_type = "parallel"}> : (i64) -> i64
  %9 = "it.Indices"(%8) <{indices = [0], iterator_type = "parallel"}> : (i64) -> i64
  %10 = "it.itree"(%9) : (i64) -> i64
  "ta.print"(%4) : (tensor<1024x1024xf64>) -> ()
  return
}

// -----// IR Dump After {anonymous}::DenseTensorDeclLoweringPass () //----- //
func.func @main() {
  %0 = "ta.index_label"() : () -> !ta.indexlabel
  %1 = "ta.index_label"() : () -> !ta.indexlabel
  %alloc = memref.alloc() {alignment = 32 : i64} : memref<1024x1024xf64>
  %2 = bufferization.to_tensor %alloc : memref<1024x1024xf64>
  %alloc_0 = memref.alloc() {alignment = 32 : i64} : memref<1024x1024xf64>
  %3 = bufferization.to_tensor %alloc_0 : memref<1024x1024xf64>
  %alloc_1 = memref.alloc() {alignment = 32 : i64} : memref<1024x1024xf64>
  %4 = bufferization.to_tensor %alloc_1 : memref<1024x1024xf64>
  "ta.fill"(%2) <{value = 2.200000e+00 : f64}> : (tensor<1024x1024xf64>) -> ()
  "ta.fill"(%3) <{value = 3.400000e+00 : f64}> : (tensor<1024x1024xf64>) -> ()
  "ta.fill"(%4) <{value = 0.000000e+00 : f64}> : (tensor<1024x1024xf64>) -> ()
  %5 = "it.ComputeRHS"(%2, %3) <{allBlocks = [["UNK", "UNK"], ["UNK", "UNK"]], allFormats = [["D", "D"], ["D", "D"]], allPerms = [[0, 1], [0, 1]]}> : (tensor<1024x1024xf64>, tensor<1024x1024xf64>) -> tensor<*xf64>
  %6 = "it.ComputeLHS"(%4) <{allBlocks = [["UNK", "UNK"]], allFormats = [["D", "D"]], allPerms = [[0, 1]]}> : (tensor<1024x1024xf64>) -> tensor<*xf64>
  %7 = "it.Compute"(%5, %6) <{MaskType = "none", comp_worksp_opt = false, semiring = "noop_plusxy"}> : (tensor<*xf64>, tensor<*xf64>) -> i64
  %8 = "it.Indices"(%7) <{indices = [1], iterator_type = "parallel"}> : (i64) -> i64
  %9 = "it.Indices"(%8) <{indices = [0], iterator_type = "parallel"}> : (i64) -> i64
  %10 = "it.itree"(%9) : (i64) -> i64
  "ta.print"(%4) : (tensor<1024x1024xf64>) -> ()
  return
}

// -----// IR Dump After {anonymous}::TensorFillLoweringPass () //----- //
func.func @main() {
  %0 = "ta.index_label"() : () -> !ta.indexlabel
  %1 = "ta.index_label"() : () -> !ta.indexlabel
  %alloc = memref.alloc() {alignment = 32 : i64} : memref<1024x1024xf64>
  %2 = bufferization.to_tensor %alloc : memref<1024x1024xf64>
  %alloc_0 = memref.alloc() {alignment = 32 : i64} : memref<1024x1024xf64>
  %3 = bufferization.to_tensor %alloc_0 : memref<1024x1024xf64>
  %alloc_1 = memref.alloc() {alignment = 32 : i64} : memref<1024x1024xf64>
  %4 = bufferization.to_tensor %alloc_1 : memref<1024x1024xf64>
  %cst = arith.constant 2.200000e+00 : f64
  linalg.fill ins(%cst : f64) outs(%alloc : memref<1024x1024xf64>)
  %cst_2 = arith.constant 3.400000e+00 : f64
  linalg.fill ins(%cst_2 : f64) outs(%alloc_0 : memref<1024x1024xf64>)
  %cst_3 = arith.constant 0.000000e+00 : f64
  linalg.fill ins(%cst_3 : f64) outs(%alloc_1 : memref<1024x1024xf64>)
  %5 = "it.ComputeRHS"(%2, %3) <{allBlocks = [["UNK", "UNK"], ["UNK", "UNK"]], allFormats = [["D", "D"], ["D", "D"]], allPerms = [[0, 1], [0, 1]]}> : (tensor<1024x1024xf64>, tensor<1024x1024xf64>) -> tensor<*xf64>
  %6 = "it.ComputeLHS"(%4) <{allBlocks = [["UNK", "UNK"]], allFormats = [["D", "D"]], allPerms = [[0, 1]]}> : (tensor<1024x1024xf64>) -> tensor<*xf64>
  %7 = "it.Compute"(%5, %6) <{MaskType = "none", comp_worksp_opt = false, semiring = "noop_plusxy"}> : (tensor<*xf64>, tensor<*xf64>) -> i64
  %8 = "it.Indices"(%7) <{indices = [1], iterator_type = "parallel"}> : (i64) -> i64
  %9 = "it.Indices"(%8) <{indices = [0], iterator_type = "parallel"}> : (i64) -> i64
  %10 = "it.itree"(%9) : (i64) -> i64
  "ta.print"(%4) : (tensor<1024x1024xf64>) -> ()
  return
}

// -----// IR Dump After {anonymous}::DenseTensorDeclLoweringPass () //----- //
func.func @main() {
  %0 = "ta.index_label"() : () -> !ta.indexlabel
  %1 = "ta.index_label"() : () -> !ta.indexlabel
  %alloc = memref.alloc() {alignment = 32 : i64} : memref<1024x1024xf64>
  %2 = bufferization.to_tensor %alloc : memref<1024x1024xf64>
  %alloc_0 = memref.alloc() {alignment = 32 : i64} : memref<1024x1024xf64>
  %3 = bufferization.to_tensor %alloc_0 : memref<1024x1024xf64>
  %alloc_1 = memref.alloc() {alignment = 32 : i64} : memref<1024x1024xf64>
  %4 = bufferization.to_tensor %alloc_1 : memref<1024x1024xf64>
  %cst = arith.constant 2.200000e+00 : f64
  linalg.fill ins(%cst : f64) outs(%alloc : memref<1024x1024xf64>)
  %cst_2 = arith.constant 3.400000e+00 : f64
  linalg.fill ins(%cst_2 : f64) outs(%alloc_0 : memref<1024x1024xf64>)
  %cst_3 = arith.constant 0.000000e+00 : f64
  linalg.fill ins(%cst_3 : f64) outs(%alloc_1 : memref<1024x1024xf64>)
  %5 = "it.ComputeRHS"(%2, %3) <{allBlocks = [["UNK", "UNK"], ["UNK", "UNK"]], allFormats = [["D", "D"], ["D", "D"]], allPerms = [[0, 1], [0, 1]]}> : (tensor<1024x1024xf64>, tensor<1024x1024xf64>) -> tensor<*xf64>
  %6 = "it.ComputeLHS"(%4) <{allBlocks = [["UNK", "UNK"]], allFormats = [["D", "D"]], allPerms = [[0, 1]]}> : (tensor<1024x1024xf64>) -> tensor<*xf64>
  %7 = "it.Compute"(%5, %6) <{MaskType = "none", comp_worksp_opt = false, semiring = "noop_plusxy"}> : (tensor<*xf64>, tensor<*xf64>) -> i64
  %8 = "it.Indices"(%7) <{indices = [1], iterator_type = "parallel"}> : (i64) -> i64
  %9 = "it.Indices"(%8) <{indices = [0], iterator_type = "parallel"}> : (i64) -> i64
  %10 = "it.itree"(%9) : (i64) -> i64
  "ta.print"(%4) : (tensor<1024x1024xf64>) -> ()
  return
}

// -----// IR Dump After {anonymous}::SparseTempOutputTensorDeclLoweringPass () //----- //
func.func @main() {
  %0 = "ta.index_label"() : () -> !ta.indexlabel
  %1 = "ta.index_label"() : () -> !ta.indexlabel
  %alloc = memref.alloc() {alignment = 32 : i64} : memref<1024x1024xf64>
  %2 = bufferization.to_tensor %alloc : memref<1024x1024xf64>
  %alloc_0 = memref.alloc() {alignment = 32 : i64} : memref<1024x1024xf64>
  %3 = bufferization.to_tensor %alloc_0 : memref<1024x1024xf64>
  %alloc_1 = memref.alloc() {alignment = 32 : i64} : memref<1024x1024xf64>
  %4 = bufferization.to_tensor %alloc_1 : memref<1024x1024xf64>
  %cst = arith.constant 2.200000e+00 : f64
  linalg.fill ins(%cst : f64) outs(%alloc : memref<1024x1024xf64>)
  %cst_2 = arith.constant 3.400000e+00 : f64
  linalg.fill ins(%cst_2 : f64) outs(%alloc_0 : memref<1024x1024xf64>)
  %cst_3 = arith.constant 0.000000e+00 : f64
  linalg.fill ins(%cst_3 : f64) outs(%alloc_1 : memref<1024x1024xf64>)
  %5 = "it.ComputeRHS"(%2, %3) <{allBlocks = [["UNK", "UNK"], ["UNK", "UNK"]], allFormats = [["D", "D"], ["D", "D"]], allPerms = [[0, 1], [0, 1]]}> : (tensor<1024x1024xf64>, tensor<1024x1024xf64>) -> tensor<*xf64>
  %6 = "it.ComputeLHS"(%4) <{allBlocks = [["UNK", "UNK"]], allFormats = [["D", "D"]], allPerms = [[0, 1]]}> : (tensor<1024x1024xf64>) -> tensor<*xf64>
  %7 = "it.Compute"(%5, %6) <{MaskType = "none", comp_worksp_opt = false, semiring = "noop_plusxy"}> : (tensor<*xf64>, tensor<*xf64>) -> i64
  %8 = "it.Indices"(%7) <{indices = [1], iterator_type = "parallel"}> : (i64) -> i64
  %9 = "it.Indices"(%8) <{indices = [0], iterator_type = "parallel"}> : (i64) -> i64
  %10 = "it.itree"(%9) : (i64) -> i64
  "ta.print"(%4) : (tensor<1024x1024xf64>) -> ()
  return
}

// -----// IR Dump After {anonymous}::SparseOutputTensorDeclLoweringPass () //----- //
func.func @main() {
  %0 = "ta.index_label"() : () -> !ta.indexlabel
  %1 = "ta.index_label"() : () -> !ta.indexlabel
  %alloc = memref.alloc() {alignment = 32 : i64} : memref<1024x1024xf64>
  %2 = bufferization.to_tensor %alloc : memref<1024x1024xf64>
  %alloc_0 = memref.alloc() {alignment = 32 : i64} : memref<1024x1024xf64>
  %3 = bufferization.to_tensor %alloc_0 : memref<1024x1024xf64>
  %alloc_1 = memref.alloc() {alignment = 32 : i64} : memref<1024x1024xf64>
  %4 = bufferization.to_tensor %alloc_1 : memref<1024x1024xf64>
  %cst = arith.constant 2.200000e+00 : f64
  linalg.fill ins(%cst : f64) outs(%alloc : memref<1024x1024xf64>)
  %cst_2 = arith.constant 3.400000e+00 : f64
  linalg.fill ins(%cst_2 : f64) outs(%alloc_0 : memref<1024x1024xf64>)
  %cst_3 = arith.constant 0.000000e+00 : f64
  linalg.fill ins(%cst_3 : f64) outs(%alloc_1 : memref<1024x1024xf64>)
  %5 = "it.ComputeRHS"(%2, %3) <{allBlocks = [["UNK", "UNK"], ["UNK", "UNK"]], allFormats = [["D", "D"], ["D", "D"]], allPerms = [[0, 1], [0, 1]]}> : (tensor<1024x1024xf64>, tensor<1024x1024xf64>) -> tensor<*xf64>
  %6 = "it.ComputeLHS"(%4) <{allBlocks = [["UNK", "UNK"]], allFormats = [["D", "D"]], allPerms = [[0, 1]]}> : (tensor<1024x1024xf64>) -> tensor<*xf64>
  %7 = "it.Compute"(%5, %6) <{MaskType = "none", comp_worksp_opt = false, semiring = "noop_plusxy"}> : (tensor<*xf64>, tensor<*xf64>) -> i64
  %8 = "it.Indices"(%7) <{indices = [1], iterator_type = "parallel"}> : (i64) -> i64
  %9 = "it.Indices"(%8) <{indices = [0], iterator_type = "parallel"}> : (i64) -> i64
  %10 = "it.itree"(%9) : (i64) -> i64
  "ta.print"(%4) : (tensor<1024x1024xf64>) -> ()
  return
}

// -----// IR Dump After {anonymous}::DimOpLoweringPass () //----- //
func.func @main() {
  %0 = "ta.index_label"() : () -> !ta.indexlabel
  %1 = "ta.index_label"() : () -> !ta.indexlabel
  %alloc = memref.alloc() {alignment = 32 : i64} : memref<1024x1024xf64>
  %2 = bufferization.to_tensor %alloc : memref<1024x1024xf64>
  %alloc_0 = memref.alloc() {alignment = 32 : i64} : memref<1024x1024xf64>
  %3 = bufferization.to_tensor %alloc_0 : memref<1024x1024xf64>
  %alloc_1 = memref.alloc() {alignment = 32 : i64} : memref<1024x1024xf64>
  %4 = bufferization.to_tensor %alloc_1 : memref<1024x1024xf64>
  %cst = arith.constant 2.200000e+00 : f64
  linalg.fill ins(%cst : f64) outs(%alloc : memref<1024x1024xf64>)
  %cst_2 = arith.constant 3.400000e+00 : f64
  linalg.fill ins(%cst_2 : f64) outs(%alloc_0 : memref<1024x1024xf64>)
  %cst_3 = arith.constant 0.000000e+00 : f64
  linalg.fill ins(%cst_3 : f64) outs(%alloc_1 : memref<1024x1024xf64>)
  %5 = "it.ComputeRHS"(%2, %3) <{allBlocks = [["UNK", "UNK"], ["UNK", "UNK"]], allFormats = [["D", "D"], ["D", "D"]], allPerms = [[0, 1], [0, 1]]}> : (tensor<1024x1024xf64>, tensor<1024x1024xf64>) -> tensor<*xf64>
  %6 = "it.ComputeLHS"(%4) <{allBlocks = [["UNK", "UNK"]], allFormats = [["D", "D"]], allPerms = [[0, 1]]}> : (tensor<1024x1024xf64>) -> tensor<*xf64>
  %7 = "it.Compute"(%5, %6) <{MaskType = "none", comp_worksp_opt = false, semiring = "noop_plusxy"}> : (tensor<*xf64>, tensor<*xf64>) -> i64
  %8 = "it.Indices"(%7) <{indices = [1], iterator_type = "parallel"}> : (i64) -> i64
  %9 = "it.Indices"(%8) <{indices = [0], iterator_type = "parallel"}> : (i64) -> i64
  %10 = "it.itree"(%9) : (i64) -> i64
  "ta.print"(%4) : (tensor<1024x1024xf64>) -> ()
  return
}

// -----// IR Dump After {anonymous}::TensorFillLoweringPass () //----- //
func.func @main() {
  %0 = "ta.index_label"() : () -> !ta.indexlabel
  %1 = "ta.index_label"() : () -> !ta.indexlabel
  %alloc = memref.alloc() {alignment = 32 : i64} : memref<1024x1024xf64>
  %2 = bufferization.to_tensor %alloc : memref<1024x1024xf64>
  %alloc_0 = memref.alloc() {alignment = 32 : i64} : memref<1024x1024xf64>
  %3 = bufferization.to_tensor %alloc_0 : memref<1024x1024xf64>
  %alloc_1 = memref.alloc() {alignment = 32 : i64} : memref<1024x1024xf64>
  %4 = bufferization.to_tensor %alloc_1 : memref<1024x1024xf64>
  %cst = arith.constant 2.200000e+00 : f64
  linalg.fill ins(%cst : f64) outs(%alloc : memref<1024x1024xf64>)
  %cst_2 = arith.constant 3.400000e+00 : f64
  linalg.fill ins(%cst_2 : f64) outs(%alloc_0 : memref<1024x1024xf64>)
  %cst_3 = arith.constant 0.000000e+00 : f64
  linalg.fill ins(%cst_3 : f64) outs(%alloc_1 : memref<1024x1024xf64>)
  %5 = "it.ComputeRHS"(%2, %3) <{allBlocks = [["UNK", "UNK"], ["UNK", "UNK"]], allFormats = [["D", "D"], ["D", "D"]], allPerms = [[0, 1], [0, 1]]}> : (tensor<1024x1024xf64>, tensor<1024x1024xf64>) -> tensor<*xf64>
  %6 = "it.ComputeLHS"(%4) <{allBlocks = [["UNK", "UNK"]], allFormats = [["D", "D"]], allPerms = [[0, 1]]}> : (tensor<1024x1024xf64>) -> tensor<*xf64>
  %7 = "it.Compute"(%5, %6) <{MaskType = "none", comp_worksp_opt = false, semiring = "noop_plusxy"}> : (tensor<*xf64>, tensor<*xf64>) -> i64
  %8 = "it.Indices"(%7) <{indices = [1], iterator_type = "parallel"}> : (i64) -> i64
  %9 = "it.Indices"(%8) <{indices = [0], iterator_type = "parallel"}> : (i64) -> i64
  %10 = "it.itree"(%9) : (i64) -> i64
  "ta.print"(%4) : (tensor<1024x1024xf64>) -> ()
  return
}

// -----// IR Dump After {anonymous}::PCToLoopsLoweringPass () //----- //
func.func @main() {
  %0 = "ta.index_label"() : () -> !ta.indexlabel
  %1 = "ta.index_label"() : () -> !ta.indexlabel
  %alloc = memref.alloc() {alignment = 32 : i64} : memref<1024x1024xf64>
  %2 = bufferization.to_tensor %alloc : memref<1024x1024xf64>
  %alloc_0 = memref.alloc() {alignment = 32 : i64} : memref<1024x1024xf64>
  %3 = bufferization.to_tensor %alloc_0 : memref<1024x1024xf64>
  %alloc_1 = memref.alloc() {alignment = 32 : i64} : memref<1024x1024xf64>
  %4 = bufferization.to_tensor %alloc_1 : memref<1024x1024xf64>
  %cst = arith.constant 2.200000e+00 : f64
  linalg.fill ins(%cst : f64) outs(%alloc : memref<1024x1024xf64>)
  %cst_2 = arith.constant 3.400000e+00 : f64
  linalg.fill ins(%cst_2 : f64) outs(%alloc_0 : memref<1024x1024xf64>)
  %cst_3 = arith.constant 0.000000e+00 : f64
  linalg.fill ins(%cst_3 : f64) outs(%alloc_1 : memref<1024x1024xf64>)
  %5 = "it.ComputeRHS"(%2, %3) <{allBlocks = [["UNK", "UNK"], ["UNK", "UNK"]], allFormats = [["D", "D"], ["D", "D"]], allPerms = [[0, 1], [0, 1]]}> : (tensor<1024x1024xf64>, tensor<1024x1024xf64>) -> tensor<*xf64>
  %6 = "it.ComputeLHS"(%4) <{allBlocks = [["UNK", "UNK"]], allFormats = [["D", "D"]], allPerms = [[0, 1]]}> : (tensor<1024x1024xf64>) -> tensor<*xf64>
  %7 = "it.Compute"(%5, %6) <{MaskType = "none", comp_worksp_opt = false, semiring = "noop_plusxy"}> : (tensor<*xf64>, tensor<*xf64>) -> i64
  %8 = "it.Indices"(%7) <{indices = [1], iterator_type = "parallel"}> : (i64) -> i64
  %9 = "it.Indices"(%8) <{indices = [0], iterator_type = "parallel"}> : (i64) -> i64
  %10 = "it.itree"(%9) : (i64) -> i64
  "ta.print"(%4) : (tensor<1024x1024xf64>) -> ()
  return
}

// -----// IR Dump After {anonymous}::LowerTensorAlgebraToSCFPass () //----- //
func.func @main() {
  %0 = "ta.index_label"() : () -> !ta.indexlabel
  %1 = "ta.index_label"() : () -> !ta.indexlabel
  %alloc = memref.alloc() {alignment = 32 : i64} : memref<1024x1024xf64>
  %2 = bufferization.to_tensor %alloc : memref<1024x1024xf64>
  %alloc_0 = memref.alloc() {alignment = 32 : i64} : memref<1024x1024xf64>
  %3 = bufferization.to_tensor %alloc_0 : memref<1024x1024xf64>
  %alloc_1 = memref.alloc() {alignment = 32 : i64} : memref<1024x1024xf64>
  %4 = bufferization.to_tensor %alloc_1 : memref<1024x1024xf64>
  %cst = arith.constant 2.200000e+00 : f64
  linalg.fill ins(%cst : f64) outs(%alloc : memref<1024x1024xf64>)
  %cst_2 = arith.constant 3.400000e+00 : f64
  linalg.fill ins(%cst_2 : f64) outs(%alloc_0 : memref<1024x1024xf64>)
  %cst_3 = arith.constant 0.000000e+00 : f64
  linalg.fill ins(%cst_3 : f64) outs(%alloc_1 : memref<1024x1024xf64>)
  %5 = "it.ComputeRHS"(%2, %3) <{allBlocks = [["UNK", "UNK"], ["UNK", "UNK"]], allFormats = [["D", "D"], ["D", "D"]], allPerms = [[0, 1], [0, 1]]}> : (tensor<1024x1024xf64>, tensor<1024x1024xf64>) -> tensor<*xf64>
  %6 = "it.ComputeLHS"(%4) <{allBlocks = [["UNK", "UNK"]], allFormats = [["D", "D"]], allPerms = [[0, 1]]}> : (tensor<1024x1024xf64>) -> tensor<*xf64>
  %7 = "it.Compute"(%5, %6) <{MaskType = "none", comp_worksp_opt = false, semiring = "noop_plusxy"}> : (tensor<*xf64>, tensor<*xf64>) -> i64
  %8 = "it.Indices"(%7) <{indices = [1], iterator_type = "parallel"}> : (i64) -> i64
  %9 = "it.Indices"(%8) <{indices = [0], iterator_type = "parallel"}> : (i64) -> i64
  %10 = "it.itree"(%9) : (i64) -> i64
  "ta.print"(%4) : (tensor<1024x1024xf64>) -> ()
  return
}

// -----// IR Dump After {anonymous}::LowerIndexTreeToSCFPass () //----- //
func.func @main() {
  %0 = "ta.index_label"() : () -> !ta.indexlabel
  %1 = "ta.index_label"() : () -> !ta.indexlabel
  %alloc = memref.alloc() {alignment = 32 : i64} : memref<1024x1024xf64>
  %2 = bufferization.to_tensor %alloc : memref<1024x1024xf64>
  %alloc_0 = memref.alloc() {alignment = 32 : i64} : memref<1024x1024xf64>
  %3 = bufferization.to_tensor %alloc_0 : memref<1024x1024xf64>
  %alloc_1 = memref.alloc() {alignment = 32 : i64} : memref<1024x1024xf64>
  %4 = bufferization.to_tensor %alloc_1 : memref<1024x1024xf64>
  %cst = arith.constant 2.200000e+00 : f64
  linalg.fill ins(%cst : f64) outs(%alloc : memref<1024x1024xf64>)
  %cst_2 = arith.constant 3.400000e+00 : f64
  linalg.fill ins(%cst_2 : f64) outs(%alloc_0 : memref<1024x1024xf64>)
  %cst_3 = arith.constant 0.000000e+00 : f64
  linalg.fill ins(%cst_3 : f64) outs(%alloc_1 : memref<1024x1024xf64>)
  %c0 = arith.constant 0 : index
  %c1 = arith.constant 1 : index
  %c0_4 = arith.constant 0 : index
  %dim = tensor.dim %2, %c0_4 : tensor<1024x1024xf64>
  scf.parallel (%arg0) = (%c0) to (%dim) step (%c1) {
    %c0_5 = arith.constant 0 : index
    %c1_6 = arith.constant 1 : index
    %c1_7 = arith.constant 1 : index
    %dim_8 = tensor.dim %2, %c1_7 : tensor<1024x1024xf64>
    scf.parallel (%arg1) = (%c0_5) to (%dim_8) step (%c1_6) {
      %cst_9 = arith.constant 0.000000e+00 : f64
      %5 = memref.load %alloc[%arg0, %arg1] : memref<1024x1024xf64>
      %6 = memref.load %alloc_0[%arg0, %arg1] : memref<1024x1024xf64>
      %7 = memref.load %alloc_1[%arg0, %arg1] : memref<1024x1024xf64>
      %8 = arith.addf %5, %6 : f64
      memref.store %8, %alloc_1[%arg0, %arg1] : memref<1024x1024xf64>
      scf.reduce 
    }
    scf.reduce 
  }
  "ta.print"(%4) : (tensor<1024x1024xf64>) -> ()
  return
}

// -----// IR Dump After TensorBufferize (tensor-bufferize) //----- //
func.func @main() {
  %0 = "ta.index_label"() : () -> !ta.indexlabel
  %1 = "ta.index_label"() : () -> !ta.indexlabel
  %alloc = memref.alloc() {alignment = 32 : i64} : memref<1024x1024xf64>
  %alloc_0 = memref.alloc() {alignment = 32 : i64} : memref<1024x1024xf64>
  %alloc_1 = memref.alloc() {alignment = 32 : i64} : memref<1024x1024xf64>
  %2 = bufferization.to_tensor %alloc_1 : memref<1024x1024xf64>
  %cst = arith.constant 2.200000e+00 : f64
  linalg.fill ins(%cst : f64) outs(%alloc : memref<1024x1024xf64>)
  %cst_2 = arith.constant 3.400000e+00 : f64
  linalg.fill ins(%cst_2 : f64) outs(%alloc_0 : memref<1024x1024xf64>)
  %cst_3 = arith.constant 0.000000e+00 : f64
  linalg.fill ins(%cst_3 : f64) outs(%alloc_1 : memref<1024x1024xf64>)
  %c0 = arith.constant 0 : index
  %c1 = arith.constant 1 : index
  %c0_4 = arith.constant 0 : index
  %dim = memref.dim %alloc, %c0_4 : memref<1024x1024xf64>
  scf.parallel (%arg0) = (%c0) to (%dim) step (%c1) {
    %c0_5 = arith.constant 0 : index
    %c1_6 = arith.constant 1 : index
    %c1_7 = arith.constant 1 : index
    %dim_8 = memref.dim %alloc, %c1_7 : memref<1024x1024xf64>
    scf.parallel (%arg1) = (%c0_5) to (%dim_8) step (%c1_6) {
      %cst_9 = arith.constant 0.000000e+00 : f64
      %3 = memref.load %alloc[%arg0, %arg1] : memref<1024x1024xf64>
      %4 = memref.load %alloc_0[%arg0, %arg1] : memref<1024x1024xf64>
      %5 = memref.load %alloc_1[%arg0, %arg1] : memref<1024x1024xf64>
      %6 = arith.addf %3, %4 : f64
      memref.store %6, %alloc_1[%arg0, %arg1] : memref<1024x1024xf64>
      scf.reduce 
    }
    scf.reduce 
  }
  "ta.print"(%2) : (tensor<1024x1024xf64>) -> ()
  return
}

// -----// IR Dump After {anonymous}::STCRemoveDeadOpsPass () //----- //
func.func @main() {
  %alloc = memref.alloc() {alignment = 32 : i64} : memref<1024x1024xf64>
  %alloc_0 = memref.alloc() {alignment = 32 : i64} : memref<1024x1024xf64>
  %alloc_1 = memref.alloc() {alignment = 32 : i64} : memref<1024x1024xf64>
  %0 = bufferization.to_tensor %alloc_1 : memref<1024x1024xf64>
  %cst = arith.constant 2.200000e+00 : f64
  linalg.fill ins(%cst : f64) outs(%alloc : memref<1024x1024xf64>)
  %cst_2 = arith.constant 3.400000e+00 : f64
  linalg.fill ins(%cst_2 : f64) outs(%alloc_0 : memref<1024x1024xf64>)
  %cst_3 = arith.constant 0.000000e+00 : f64
  linalg.fill ins(%cst_3 : f64) outs(%alloc_1 : memref<1024x1024xf64>)
  %c0 = arith.constant 0 : index
  %c1 = arith.constant 1 : index
  %c0_4 = arith.constant 0 : index
  %dim = memref.dim %alloc, %c0_4 : memref<1024x1024xf64>
  scf.parallel (%arg0) = (%c0) to (%dim) step (%c1) {
    %c0_5 = arith.constant 0 : index
    %c1_6 = arith.constant 1 : index
    %c1_7 = arith.constant 1 : index
    %dim_8 = memref.dim %alloc, %c1_7 : memref<1024x1024xf64>
    scf.parallel (%arg1) = (%c0_5) to (%dim_8) step (%c1_6) {
      %cst_9 = arith.constant 0.000000e+00 : f64
      %1 = memref.load %alloc[%arg0, %arg1] : memref<1024x1024xf64>
      %2 = memref.load %alloc_0[%arg0, %arg1] : memref<1024x1024xf64>
      %3 = memref.load %alloc_1[%arg0, %arg1] : memref<1024x1024xf64>
      %4 = arith.addf %1, %2 : f64
      memref.store %4, %alloc_1[%arg0, %arg1] : memref<1024x1024xf64>
      scf.reduce 
    }
    scf.reduce 
  }
  "ta.print"(%0) : (tensor<1024x1024xf64>) -> ()
  return
}

// -----// IR Dump After {anonymous}::LateLoweringPass () //----- //
func.func @main() {
  %alloc = memref.alloc() {alignment = 32 : i64} : memref<1024x1024xf64>
  %alloc_0 = memref.alloc() {alignment = 32 : i64} : memref<1024x1024xf64>
  %alloc_1 = memref.alloc() {alignment = 32 : i64} : memref<1024x1024xf64>
  %0 = bufferization.to_tensor %alloc_1 : memref<1024x1024xf64>
  %cst = arith.constant 2.200000e+00 : f64
  linalg.fill ins(%cst : f64) outs(%alloc : memref<1024x1024xf64>)
  %cst_2 = arith.constant 3.400000e+00 : f64
  linalg.fill ins(%cst_2 : f64) outs(%alloc_0 : memref<1024x1024xf64>)
  %cst_3 = arith.constant 0.000000e+00 : f64
  linalg.fill ins(%cst_3 : f64) outs(%alloc_1 : memref<1024x1024xf64>)
  %c0 = arith.constant 0 : index
  %c1 = arith.constant 1 : index
  %c0_4 = arith.constant 0 : index
  %dim = memref.dim %alloc, %c0_4 : memref<1024x1024xf64>
  scf.parallel (%arg0) = (%c0) to (%dim) step (%c1) {
    %c0_5 = arith.constant 0 : index
    %c1_6 = arith.constant 1 : index
    %c1_7 = arith.constant 1 : index
    %dim_8 = memref.dim %alloc, %c1_7 : memref<1024x1024xf64>
    scf.parallel (%arg1) = (%c0_5) to (%dim_8) step (%c1_6) {
      %cst_9 = arith.constant 0.000000e+00 : f64
      %1 = memref.load %alloc[%arg0, %arg1] : memref<1024x1024xf64>
      %2 = memref.load %alloc_0[%arg0, %arg1] : memref<1024x1024xf64>
      %3 = memref.load %alloc_1[%arg0, %arg1] : memref<1024x1024xf64>
      %4 = arith.addf %1, %2 : f64
      memref.store %4, %alloc_1[%arg0, %arg1] : memref<1024x1024xf64>
      scf.reduce 
    }
    scf.reduce 
  }
  %cast = memref.cast %alloc_1 : memref<1024x1024xf64> to memref<*xf64>
  call @comet_print_memref_f64(%cast) : (memref<*xf64>) -> ()
  return
}

// -----// IR Dump After FuncBufferize (func-bufferize) //----- //
module {
  func.func @main() {
    %alloc = memref.alloc() {alignment = 32 : i64} : memref<1024x1024xf64>
    %alloc_0 = memref.alloc() {alignment = 32 : i64} : memref<1024x1024xf64>
    %alloc_1 = memref.alloc() {alignment = 32 : i64} : memref<1024x1024xf64>
    %0 = bufferization.to_tensor %alloc_1 : memref<1024x1024xf64>
    %cst = arith.constant 2.200000e+00 : f64
    linalg.fill ins(%cst : f64) outs(%alloc : memref<1024x1024xf64>)
    %cst_2 = arith.constant 3.400000e+00 : f64
    linalg.fill ins(%cst_2 : f64) outs(%alloc_0 : memref<1024x1024xf64>)
    %cst_3 = arith.constant 0.000000e+00 : f64
    linalg.fill ins(%cst_3 : f64) outs(%alloc_1 : memref<1024x1024xf64>)
    %c0 = arith.constant 0 : index
    %c1 = arith.constant 1 : index
    %c0_4 = arith.constant 0 : index
    %dim = memref.dim %alloc, %c0_4 : memref<1024x1024xf64>
    scf.parallel (%arg0) = (%c0) to (%dim) step (%c1) {
      %c0_5 = arith.constant 0 : index
      %c1_6 = arith.constant 1 : index
      %c1_7 = arith.constant 1 : index
      %dim_8 = memref.dim %alloc, %c1_7 : memref<1024x1024xf64>
      scf.parallel (%arg1) = (%c0_5) to (%dim_8) step (%c1_6) {
        %cst_9 = arith.constant 0.000000e+00 : f64
        %1 = memref.load %alloc[%arg0, %arg1] : memref<1024x1024xf64>
        %2 = memref.load %alloc_0[%arg0, %arg1] : memref<1024x1024xf64>
        %3 = memref.load %alloc_1[%arg0, %arg1] : memref<1024x1024xf64>
        %4 = arith.addf %1, %2 : f64
        memref.store %4, %alloc_1[%arg0, %arg1] : memref<1024x1024xf64>
        scf.reduce 
      }
      scf.reduce 
    }
    %cast = memref.cast %alloc_1 : memref<1024x1024xf64> to memref<*xf64>
    call @comet_print_memref_f64(%cast) : (memref<*xf64>) -> ()
    return
  }
  func.func private @comet_sort_index(memref<*xindex>, index, index)
  func.func private @comet_print_memref_f64(memref<*xf64>)
}


// -----// IR Dump After LinalgLowerToLoops (convert-linalg-to-loops) //----- //
module {
  func.func @main() {
    %c1024 = arith.constant 1024 : index
    %c1 = arith.constant 1 : index
    %c0 = arith.constant 0 : index
    %cst = arith.constant 0.000000e+00 : f64
    %cst_0 = arith.constant 3.400000e+00 : f64
    %cst_1 = arith.constant 2.200000e+00 : f64
    %alloc = memref.alloc() {alignment = 32 : i64} : memref<1024x1024xf64>
    %alloc_2 = memref.alloc() {alignment = 32 : i64} : memref<1024x1024xf64>
    %alloc_3 = memref.alloc() {alignment = 32 : i64} : memref<1024x1024xf64>
    scf.for %arg0 = %c0 to %c1024 step %c1 {
      scf.for %arg1 = %c0 to %c1024 step %c1 {
        memref.store %cst_1, %alloc[%arg0, %arg1] : memref<1024x1024xf64>
      }
    }
    scf.for %arg0 = %c0 to %c1024 step %c1 {
      scf.for %arg1 = %c0 to %c1024 step %c1 {
        memref.store %cst_0, %alloc_2[%arg0, %arg1] : memref<1024x1024xf64>
      }
    }
    scf.for %arg0 = %c0 to %c1024 step %c1 {
      scf.for %arg1 = %c0 to %c1024 step %c1 {
        memref.store %cst, %alloc_3[%arg0, %arg1] : memref<1024x1024xf64>
      }
    }
    scf.parallel (%arg0) = (%c0) to (%c1024) step (%c1) {
      scf.parallel (%arg1) = (%c0) to (%c1024) step (%c1) {
        %0 = memref.load %alloc[%arg0, %arg1] : memref<1024x1024xf64>
        %1 = memref.load %alloc_2[%arg0, %arg1] : memref<1024x1024xf64>
        %2 = arith.addf %0, %1 : f64
        memref.store %2, %alloc_3[%arg0, %arg1] : memref<1024x1024xf64>
        scf.reduce 
      }
      scf.reduce 
    }
    %cast = memref.cast %alloc_3 : memref<1024x1024xf64> to memref<*xf64>
    call @comet_print_memref_f64(%cast) : (memref<*xf64>) -> ()
    return
  }
  func.func private @comet_sort_index(memref<*xindex>, index, index)
  func.func private @comet_print_memref_f64(memref<*xf64>)
}


// -----// IR Dump After CometParallelLoopsToGpu (comet-parallel-loops-to-gpu) //----- //
func.func private @comet_sort_index(memref<*xindex>, index, index)

// -----// IR Dump After CometParallelLoopsToGpu (comet-parallel-loops-to-gpu) //----- //
func.func private @comet_print_memref_f64(memref<*xf64>)

// -----// IR Dump After CometParallelLoopsToGpu (comet-parallel-loops-to-gpu) //----- //
func.func @main() {
  %c1024 = arith.constant 1024 : index
  %c1 = arith.constant 1 : index
  %c0 = arith.constant 0 : index
  %cst = arith.constant 0.000000e+00 : f64
  %cst_0 = arith.constant 3.400000e+00 : f64
  %cst_1 = arith.constant 2.200000e+00 : f64
  %alloc = memref.alloc() {alignment = 32 : i64} : memref<1024x1024xf64>
  %c1_2 = arith.constant 1 : index
  %dim = memref.dim %alloc, %c1_2 : memref<1024x1024xf64>
  %c1_3 = arith.constant 1 : index
  %dim_4 = memref.dim %alloc, %c1_3 : memref<1024x1024xf64>
  %collapse_shape = memref.collapse_shape %alloc [[0, 1]] : memref<1024x1024xf64> into memref<1048576xf64>
  %alloc_5 = memref.alloc() {alignment = 32 : i64} : memref<1024x1024xf64>
  %c1_6 = arith.constant 1 : index
  %dim_7 = memref.dim %alloc_5, %c1_6 : memref<1024x1024xf64>
  %c1_8 = arith.constant 1 : index
  %dim_9 = memref.dim %alloc_5, %c1_8 : memref<1024x1024xf64>
  %collapse_shape_10 = memref.collapse_shape %alloc_5 [[0, 1]] : memref<1024x1024xf64> into memref<1048576xf64>
  %alloc_11 = memref.alloc() {alignment = 32 : i64} : memref<1024x1024xf64>
  %c1_12 = arith.constant 1 : index
  %dim_13 = memref.dim %alloc_11, %c1_12 : memref<1024x1024xf64>
  %c1_14 = arith.constant 1 : index
  %dim_15 = memref.dim %alloc_11, %c1_14 : memref<1024x1024xf64>
  %collapse_shape_16 = memref.collapse_shape %alloc_11 [[0, 1]] : memref<1024x1024xf64> into memref<1048576xf64>
  %0 = arith.subi %c1024, %c0 : index
  %c0_17 = arith.constant 0 : index
  scf.for %arg0 = %c0_17 to %0 step %c1 {
    %7 = affine.apply affine_map<(d0)[s0] -> (d0 + s0)>(%arg0)[%c0]
    %8 = arith.subi %c1024, %c0 : index
    %c0_21 = arith.constant 0 : index
    scf.for %arg1 = %c0_21 to %8 step %c1 {
      %9 = affine.apply affine_map<(d0)[s0] -> (d0 + s0)>(%arg1)[%c0]
      %10 = affine.apply affine_map<(d0, d1)[s0] -> (d1 + d0 * s0)>(%7, %9)[%dim_4]
      memref.store %cst_1, %collapse_shape[%10] : memref<1048576xf64>
    }
  }
  %1 = arith.subi %c1024, %c0 : index
  %c0_18 = arith.constant 0 : index
  scf.for %arg0 = %c0_18 to %1 step %c1 {
    %7 = affine.apply affine_map<(d0)[s0] -> (d0 + s0)>(%arg0)[%c0]
    %8 = arith.subi %c1024, %c0 : index
    %c0_21 = arith.constant 0 : index
    scf.for %arg1 = %c0_21 to %8 step %c1 {
      %9 = affine.apply affine_map<(d0)[s0] -> (d0 + s0)>(%arg1)[%c0]
      %10 = affine.apply affine_map<(d0, d1)[s0] -> (d1 + d0 * s0)>(%7, %9)[%dim_9]
      memref.store %cst_0, %collapse_shape_10[%10] : memref<1048576xf64>
    }
  }
  %2 = arith.subi %c1024, %c0 : index
  %c0_19 = arith.constant 0 : index
  scf.for %arg0 = %c0_19 to %2 step %c1 {
    %7 = affine.apply affine_map<(d0)[s0] -> (d0 + s0)>(%arg0)[%c0]
    %8 = arith.subi %c1024, %c0 : index
    %c0_21 = arith.constant 0 : index
    scf.for %arg1 = %c0_21 to %8 step %c1 {
      %9 = affine.apply affine_map<(d0)[s0] -> (d0 + s0)>(%arg1)[%c0]
      %10 = affine.apply affine_map<(d0, d1)[s0] -> (d1 + d0 * s0)>(%7, %9)[%dim_15]
      memref.store %cst, %collapse_shape_16[%10] : memref<1048576xf64>
    }
  }
  %c8 = arith.constant 8 : index
  %c1_20 = arith.constant 1 : index
  %3 = arith.subi %c1024, %c0 : index
  %4 = arith.subi %c8, %c1_20 : index
  %5 = arith.addi %3, %4 : index
  %6 = arith.divsi %5, %c8 : index
  scf.parallel (%arg0) = (%c0) to (%6) step (%c1_20) {
    scf.parallel (%arg1) = (%c0) to (%c8) step (%c1_20) {
      %7 = affine.apply affine_map<(d0)[s0, s1, s2] -> (d0 * s0 + s1 + s2)>(%arg0)[%c8, %arg1, %c0]
      %8 = arith.minui %7, %c1024 {GuardY} : index
      %c32 = arith.constant 32 : index
      %c1_21 = arith.constant 1 : index
      %9 = arith.subi %c1024, %c0 : index
      %10 = arith.subi %c32, %c1_21 : index
      %11 = arith.addi %9, %10 : index
      %12 = arith.divsi %11, %c32 : index
      scf.parallel (%arg2) = (%c0) to (%12) step (%c1_21) {
        scf.parallel (%arg3) = (%c0) to (%c32) step (%c1_21) {
          %13 = affine.apply affine_map<(d0)[s0, s1, s2] -> (d0 * s0 + s1 + s2)>(%arg2)[%c32, %arg3, %c0]
          %14 = arith.minui %13, %c1024 {GuardX} : index
          %15 = affine.apply affine_map<(d0, d1)[s0] -> (d1 + d0 * s0)>(%8, %14)[%dim]
          %16 = memref.load %collapse_shape[%15] : memref<1048576xf64>
          %17 = affine.apply affine_map<(d0, d1)[s0] -> (d1 + d0 * s0)>(%8, %14)[%dim_7]
          %18 = memref.load %collapse_shape_10[%17] : memref<1048576xf64>
          %19 = arith.addf %16, %18 : f64
          %20 = affine.apply affine_map<(d0, d1)[s0] -> (d1 + d0 * s0)>(%8, %14)[%dim_13]
          memref.store %19, %collapse_shape_16[%20] : memref<1048576xf64>
          scf.reduce 
        } {mapping = [#gpu.loop_dim_map<processor = thread_x, map = (d0) -> (d0), bound = (d0) -> (d0)>], parallelDim = "dimX_block"}
        scf.reduce 
      } {mapping = [#gpu.loop_dim_map<processor = block_x, map = (d0) -> (d0), bound = (d0) -> (d0)>], parallelDim = "dimX_grid"}
      scf.reduce 
    } {mapping = [#gpu.loop_dim_map<processor = thread_y, map = (d0) -> (d0), bound = (d0) -> (d0)>], parallelDim = "dimY_block"}
    scf.reduce 
  } {mapping = [#gpu.loop_dim_map<processor = block_y, map = (d0) -> (d0), bound = (d0) -> (d0)>], parallelDim = "dimY_grid"}
  %cast = memref.cast %alloc_11 : memref<1024x1024xf64> to memref<*xf64>
  call @comet_print_memref_f64(%cast) : (memref<*xf64>) -> ()
  return
}

// -----// IR Dump After LoopInvariantCodeMotion (loop-invariant-code-motion) //----- //
#map = affine_map<(d0)[s0] -> (d0 + s0)>
#map1 = affine_map<(d0, d1)[s0] -> (d1 + d0 * s0)>
#map2 = affine_map<(d0)[s0, s1, s2] -> (d0 * s0 + s1 + s2)>
module {
  func.func @main() {
    %c1024 = arith.constant 1024 : index
    %c1 = arith.constant 1 : index
    %c0 = arith.constant 0 : index
    %cst = arith.constant 0.000000e+00 : f64
    %cst_0 = arith.constant 3.400000e+00 : f64
    %cst_1 = arith.constant 2.200000e+00 : f64
    %alloc = memref.alloc() {alignment = 32 : i64} : memref<1024x1024xf64>
    %c1_2 = arith.constant 1 : index
    %dim = memref.dim %alloc, %c1_2 : memref<1024x1024xf64>
    %c1_3 = arith.constant 1 : index
    %dim_4 = memref.dim %alloc, %c1_3 : memref<1024x1024xf64>
    %collapse_shape = memref.collapse_shape %alloc [[0, 1]] : memref<1024x1024xf64> into memref<1048576xf64>
    %alloc_5 = memref.alloc() {alignment = 32 : i64} : memref<1024x1024xf64>
    %c1_6 = arith.constant 1 : index
    %dim_7 = memref.dim %alloc_5, %c1_6 : memref<1024x1024xf64>
    %c1_8 = arith.constant 1 : index
    %dim_9 = memref.dim %alloc_5, %c1_8 : memref<1024x1024xf64>
    %collapse_shape_10 = memref.collapse_shape %alloc_5 [[0, 1]] : memref<1024x1024xf64> into memref<1048576xf64>
    %alloc_11 = memref.alloc() {alignment = 32 : i64} : memref<1024x1024xf64>
    %c1_12 = arith.constant 1 : index
    %dim_13 = memref.dim %alloc_11, %c1_12 : memref<1024x1024xf64>
    %c1_14 = arith.constant 1 : index
    %dim_15 = memref.dim %alloc_11, %c1_14 : memref<1024x1024xf64>
    %collapse_shape_16 = memref.collapse_shape %alloc_11 [[0, 1]] : memref<1024x1024xf64> into memref<1048576xf64>
    %0 = arith.subi %c1024, %c0 : index
    %c0_17 = arith.constant 0 : index
    %1 = arith.subi %c1024, %c0 : index
    %c0_18 = arith.constant 0 : index
    scf.for %arg0 = %c0_17 to %0 step %c1 {
      %14 = affine.apply #map(%arg0)[%c0]
      scf.for %arg1 = %c0_18 to %1 step %c1 {
        %15 = affine.apply #map(%arg1)[%c0]
        %16 = affine.apply #map1(%14, %15)[%dim_4]
        memref.store %cst_1, %collapse_shape[%16] : memref<1048576xf64>
      }
    }
    %2 = arith.subi %c1024, %c0 : index
    %c0_19 = arith.constant 0 : index
    %3 = arith.subi %c1024, %c0 : index
    %c0_20 = arith.constant 0 : index
    scf.for %arg0 = %c0_19 to %2 step %c1 {
      %14 = affine.apply #map(%arg0)[%c0]
      scf.for %arg1 = %c0_20 to %3 step %c1 {
        %15 = affine.apply #map(%arg1)[%c0]
        %16 = affine.apply #map1(%14, %15)[%dim_9]
        memref.store %cst_0, %collapse_shape_10[%16] : memref<1048576xf64>
      }
    }
    %4 = arith.subi %c1024, %c0 : index
    %c0_21 = arith.constant 0 : index
    %5 = arith.subi %c1024, %c0 : index
    %c0_22 = arith.constant 0 : index
    scf.for %arg0 = %c0_21 to %4 step %c1 {
      %14 = affine.apply #map(%arg0)[%c0]
      scf.for %arg1 = %c0_22 to %5 step %c1 {
        %15 = affine.apply #map(%arg1)[%c0]
        %16 = affine.apply #map1(%14, %15)[%dim_15]
        memref.store %cst, %collapse_shape_16[%16] : memref<1048576xf64>
      }
    }
    %c8 = arith.constant 8 : index
    %c1_23 = arith.constant 1 : index
    %6 = arith.subi %c1024, %c0 : index
    %7 = arith.subi %c8, %c1_23 : index
    %8 = arith.addi %6, %7 : index
    %9 = arith.divsi %8, %c8 : index
    %c32 = arith.constant 32 : index
    %c1_24 = arith.constant 1 : index
    %10 = arith.subi %c1024, %c0 : index
    %11 = arith.subi %c32, %c1_24 : index
    %12 = arith.addi %10, %11 : index
    %13 = arith.divsi %12, %c32 : index
    scf.parallel (%arg0) = (%c0) to (%9) step (%c1_23) {
      scf.parallel (%arg1) = (%c0) to (%c8) step (%c1_23) {
        %14 = affine.apply #map2(%arg0)[%c8, %arg1, %c0]
        %15 = arith.minui %14, %c1024 {GuardY} : index
        scf.parallel (%arg2) = (%c0) to (%13) step (%c1_24) {
          scf.parallel (%arg3) = (%c0) to (%c32) step (%c1_24) {
            %16 = affine.apply #map2(%arg2)[%c32, %arg3, %c0]
            %17 = arith.minui %16, %c1024 {GuardX} : index
            %18 = affine.apply #map1(%15, %17)[%dim]
            %19 = memref.load %collapse_shape[%18] : memref<1048576xf64>
            %20 = affine.apply #map1(%15, %17)[%dim_7]
            %21 = memref.load %collapse_shape_10[%20] : memref<1048576xf64>
            %22 = arith.addf %19, %21 : f64
            %23 = affine.apply #map1(%15, %17)[%dim_13]
            memref.store %22, %collapse_shape_16[%23] : memref<1048576xf64>
            scf.reduce 
          } {mapping = [#gpu.loop_dim_map<processor = thread_x, map = (d0) -> (d0), bound = (d0) -> (d0)>], parallelDim = "dimX_block"}
          scf.reduce 
        } {mapping = [#gpu.loop_dim_map<processor = block_x, map = (d0) -> (d0), bound = (d0) -> (d0)>], parallelDim = "dimX_grid"}
        scf.reduce 
      } {mapping = [#gpu.loop_dim_map<processor = thread_y, map = (d0) -> (d0), bound = (d0) -> (d0)>], parallelDim = "dimY_block"}
      scf.reduce 
    } {mapping = [#gpu.loop_dim_map<processor = block_y, map = (d0) -> (d0), bound = (d0) -> (d0)>], parallelDim = "dimY_grid"}
    %cast = memref.cast %alloc_11 : memref<1024x1024xf64> to memref<*xf64>
    call @comet_print_memref_f64(%cast) : (memref<*xf64>) -> ()
    return
  }
  func.func private @comet_sort_index(memref<*xindex>, index, index)
  func.func private @comet_print_memref_f64(memref<*xf64>)
}


// -----// IR Dump After ConvertParallelLoopToGpu (convert-parallel-loops-to-gpu) //----- //
#map = affine_map<(d0)[s0] -> (d0 + s0)>
#map1 = affine_map<(d0, d1)[s0] -> (d1 + d0 * s0)>
#map2 = affine_map<(d0)[s0, s1] -> ((d0 - s0) ceildiv s1)>
#map3 = affine_map<(d0)[s0, s1] -> (d0 * s0 + s1)>
#map4 = affine_map<(d0)[s0, s1, s2] -> (d0 * s0 + s1 + s2)>
module {
  func.func @main() {
    %c1024 = arith.constant 1024 : index
    %c1 = arith.constant 1 : index
    %c0 = arith.constant 0 : index
    %cst = arith.constant 0.000000e+00 : f64
    %cst_0 = arith.constant 3.400000e+00 : f64
    %cst_1 = arith.constant 2.200000e+00 : f64
    %alloc = memref.alloc() {alignment = 32 : i64} : memref<1024x1024xf64>
    %c1_2 = arith.constant 1 : index
    %dim = memref.dim %alloc, %c1_2 : memref<1024x1024xf64>
    %c1_3 = arith.constant 1 : index
    %dim_4 = memref.dim %alloc, %c1_3 : memref<1024x1024xf64>
    %collapse_shape = memref.collapse_shape %alloc [[0, 1]] : memref<1024x1024xf64> into memref<1048576xf64>
    %alloc_5 = memref.alloc() {alignment = 32 : i64} : memref<1024x1024xf64>
    %c1_6 = arith.constant 1 : index
    %dim_7 = memref.dim %alloc_5, %c1_6 : memref<1024x1024xf64>
    %c1_8 = arith.constant 1 : index
    %dim_9 = memref.dim %alloc_5, %c1_8 : memref<1024x1024xf64>
    %collapse_shape_10 = memref.collapse_shape %alloc_5 [[0, 1]] : memref<1024x1024xf64> into memref<1048576xf64>
    %alloc_11 = memref.alloc() {alignment = 32 : i64} : memref<1024x1024xf64>
    %c1_12 = arith.constant 1 : index
    %dim_13 = memref.dim %alloc_11, %c1_12 : memref<1024x1024xf64>
    %c1_14 = arith.constant 1 : index
    %dim_15 = memref.dim %alloc_11, %c1_14 : memref<1024x1024xf64>
    %collapse_shape_16 = memref.collapse_shape %alloc_11 [[0, 1]] : memref<1024x1024xf64> into memref<1048576xf64>
    %0 = arith.subi %c1024, %c0 : index
    %c0_17 = arith.constant 0 : index
    %1 = arith.subi %c1024, %c0 : index
    %c0_18 = arith.constant 0 : index
    scf.for %arg0 = %c0_17 to %0 step %c1 {
      %18 = affine.apply #map(%arg0)[%c0]
      scf.for %arg1 = %c0_18 to %1 step %c1 {
        %19 = affine.apply #map(%arg1)[%c0]
        %20 = affine.apply #map1(%18, %19)[%dim_4]
        memref.store %cst_1, %collapse_shape[%20] : memref<1048576xf64>
      }
    }
    %2 = arith.subi %c1024, %c0 : index
    %c0_19 = arith.constant 0 : index
    %3 = arith.subi %c1024, %c0 : index
    %c0_20 = arith.constant 0 : index
    scf.for %arg0 = %c0_19 to %2 step %c1 {
      %18 = affine.apply #map(%arg0)[%c0]
      scf.for %arg1 = %c0_20 to %3 step %c1 {
        %19 = affine.apply #map(%arg1)[%c0]
        %20 = affine.apply #map1(%18, %19)[%dim_9]
        memref.store %cst_0, %collapse_shape_10[%20] : memref<1048576xf64>
      }
    }
    %4 = arith.subi %c1024, %c0 : index
    %c0_21 = arith.constant 0 : index
    %5 = arith.subi %c1024, %c0 : index
    %c0_22 = arith.constant 0 : index
    scf.for %arg0 = %c0_21 to %4 step %c1 {
      %18 = affine.apply #map(%arg0)[%c0]
      scf.for %arg1 = %c0_22 to %5 step %c1 {
        %19 = affine.apply #map(%arg1)[%c0]
        %20 = affine.apply #map1(%18, %19)[%dim_15]
        memref.store %cst, %collapse_shape_16[%20] : memref<1048576xf64>
      }
    }
    %c8 = arith.constant 8 : index
    %c1_23 = arith.constant 1 : index
    %6 = arith.subi %c1024, %c0 : index
    %7 = arith.subi %c8, %c1_23 : index
    %8 = arith.addi %6, %7 : index
    %9 = arith.divsi %8, %c8 : index
    %c32 = arith.constant 32 : index
    %c1_24 = arith.constant 1 : index
    %10 = arith.subi %c1024, %c0 : index
    %11 = arith.subi %c32, %c1_24 : index
    %12 = arith.addi %10, %11 : index
    %13 = arith.divsi %12, %c32 : index
    %c1_25 = arith.constant 1 : index
    %14 = affine.apply #map2(%9)[%c0, %c1_23]
    %15 = affine.apply #map2(%c8)[%c0, %c1_23]
    %16 = affine.apply #map2(%13)[%c0, %c1_24]
    %17 = affine.apply #map2(%c32)[%c0, %c1_24]
    gpu.launch blocks(%arg0, %arg1, %arg2) in (%arg6 = %16, %arg7 = %14, %arg8 = %c1_25) threads(%arg3, %arg4, %arg5) in (%arg9 = %17, %arg10 = %15, %arg11 = %c1_25) {
      %18 = affine.apply #map3(%arg1)[%c1_23, %c0]
      %19 = affine.apply #map3(%arg4)[%c1_23, %c0]
      %20 = affine.apply #map4(%18)[%c8, %19, %c0]
      %21 = arith.minui %20, %c1024 {GuardY} : index
      %22 = affine.apply #map3(%arg0)[%c1_24, %c0]
      %23 = affine.apply #map3(%arg3)[%c1_24, %c0]
      %24 = affine.apply #map4(%22)[%c32, %23, %c0]
      %25 = arith.minui %24, %c1024 {GuardX} : index
      %26 = affine.apply #map1(%21, %25)[%dim]
      %27 = memref.load %collapse_shape[%26] : memref<1048576xf64>
      %28 = affine.apply #map1(%21, %25)[%dim_7]
      %29 = memref.load %collapse_shape_10[%28] : memref<1048576xf64>
      %30 = arith.addf %27, %29 : f64
      %31 = affine.apply #map1(%21, %25)[%dim_13]
      memref.store %30, %collapse_shape_16[%31] : memref<1048576xf64>
      gpu.terminator
    } {SCFToGPU_visited, parallelDim = "dimX_block"}
    %cast = memref.cast %alloc_11 : memref<1024x1024xf64> to memref<*xf64>
    call @comet_print_memref_f64(%cast) : (memref<*xf64>) -> ()
    return
  }
  func.func private @comet_sort_index(memref<*xindex>, index, index)
  func.func private @comet_print_memref_f64(memref<*xf64>)
}


// -----// IR Dump After LoopInvariantCodeMotion (loop-invariant-code-motion) //----- //
#map = affine_map<(d0)[s0] -> (d0 + s0)>
#map1 = affine_map<(d0, d1)[s0] -> (d1 + d0 * s0)>
#map2 = affine_map<(d0)[s0, s1] -> ((d0 - s0) ceildiv s1)>
#map3 = affine_map<(d0)[s0, s1] -> (d0 * s0 + s1)>
#map4 = affine_map<(d0)[s0, s1, s2] -> (d0 * s0 + s1 + s2)>
module {
  func.func @main() {
    %c1024 = arith.constant 1024 : index
    %c1 = arith.constant 1 : index
    %c0 = arith.constant 0 : index
    %cst = arith.constant 0.000000e+00 : f64
    %cst_0 = arith.constant 3.400000e+00 : f64
    %cst_1 = arith.constant 2.200000e+00 : f64
    %alloc = memref.alloc() {alignment = 32 : i64} : memref<1024x1024xf64>
    %c1_2 = arith.constant 1 : index
    %dim = memref.dim %alloc, %c1_2 : memref<1024x1024xf64>
    %c1_3 = arith.constant 1 : index
    %dim_4 = memref.dim %alloc, %c1_3 : memref<1024x1024xf64>
    %collapse_shape = memref.collapse_shape %alloc [[0, 1]] : memref<1024x1024xf64> into memref<1048576xf64>
    %alloc_5 = memref.alloc() {alignment = 32 : i64} : memref<1024x1024xf64>
    %c1_6 = arith.constant 1 : index
    %dim_7 = memref.dim %alloc_5, %c1_6 : memref<1024x1024xf64>
    %c1_8 = arith.constant 1 : index
    %dim_9 = memref.dim %alloc_5, %c1_8 : memref<1024x1024xf64>
    %collapse_shape_10 = memref.collapse_shape %alloc_5 [[0, 1]] : memref<1024x1024xf64> into memref<1048576xf64>
    %alloc_11 = memref.alloc() {alignment = 32 : i64} : memref<1024x1024xf64>
    %c1_12 = arith.constant 1 : index
    %dim_13 = memref.dim %alloc_11, %c1_12 : memref<1024x1024xf64>
    %c1_14 = arith.constant 1 : index
    %dim_15 = memref.dim %alloc_11, %c1_14 : memref<1024x1024xf64>
    %collapse_shape_16 = memref.collapse_shape %alloc_11 [[0, 1]] : memref<1024x1024xf64> into memref<1048576xf64>
    %0 = arith.subi %c1024, %c0 : index
    %c0_17 = arith.constant 0 : index
    %1 = arith.subi %c1024, %c0 : index
    %c0_18 = arith.constant 0 : index
    scf.for %arg0 = %c0_17 to %0 step %c1 {
      %18 = affine.apply #map(%arg0)[%c0]
      scf.for %arg1 = %c0_18 to %1 step %c1 {
        %19 = affine.apply #map(%arg1)[%c0]
        %20 = affine.apply #map1(%18, %19)[%dim_4]
        memref.store %cst_1, %collapse_shape[%20] : memref<1048576xf64>
      }
    }
    %2 = arith.subi %c1024, %c0 : index
    %c0_19 = arith.constant 0 : index
    %3 = arith.subi %c1024, %c0 : index
    %c0_20 = arith.constant 0 : index
    scf.for %arg0 = %c0_19 to %2 step %c1 {
      %18 = affine.apply #map(%arg0)[%c0]
      scf.for %arg1 = %c0_20 to %3 step %c1 {
        %19 = affine.apply #map(%arg1)[%c0]
        %20 = affine.apply #map1(%18, %19)[%dim_9]
        memref.store %cst_0, %collapse_shape_10[%20] : memref<1048576xf64>
      }
    }
    %4 = arith.subi %c1024, %c0 : index
    %c0_21 = arith.constant 0 : index
    %5 = arith.subi %c1024, %c0 : index
    %c0_22 = arith.constant 0 : index
    scf.for %arg0 = %c0_21 to %4 step %c1 {
      %18 = affine.apply #map(%arg0)[%c0]
      scf.for %arg1 = %c0_22 to %5 step %c1 {
        %19 = affine.apply #map(%arg1)[%c0]
        %20 = affine.apply #map1(%18, %19)[%dim_15]
        memref.store %cst, %collapse_shape_16[%20] : memref<1048576xf64>
      }
    }
    %c8 = arith.constant 8 : index
    %c1_23 = arith.constant 1 : index
    %6 = arith.subi %c1024, %c0 : index
    %7 = arith.subi %c8, %c1_23 : index
    %8 = arith.addi %6, %7 : index
    %9 = arith.divsi %8, %c8 : index
    %c32 = arith.constant 32 : index
    %c1_24 = arith.constant 1 : index
    %10 = arith.subi %c1024, %c0 : index
    %11 = arith.subi %c32, %c1_24 : index
    %12 = arith.addi %10, %11 : index
    %13 = arith.divsi %12, %c32 : index
    %c1_25 = arith.constant 1 : index
    %14 = affine.apply #map2(%9)[%c0, %c1_23]
    %15 = affine.apply #map2(%c8)[%c0, %c1_23]
    %16 = affine.apply #map2(%13)[%c0, %c1_24]
    %17 = affine.apply #map2(%c32)[%c0, %c1_24]
    gpu.launch blocks(%arg0, %arg1, %arg2) in (%arg6 = %16, %arg7 = %14, %arg8 = %c1_25) threads(%arg3, %arg4, %arg5) in (%arg9 = %17, %arg10 = %15, %arg11 = %c1_25) {
      %18 = affine.apply #map3(%arg1)[%c1_23, %c0]
      %19 = affine.apply #map3(%arg4)[%c1_23, %c0]
      %20 = affine.apply #map4(%18)[%c8, %19, %c0]
      %21 = arith.minui %20, %c1024 {GuardY} : index
      %22 = affine.apply #map3(%arg0)[%c1_24, %c0]
      %23 = affine.apply #map3(%arg3)[%c1_24, %c0]
      %24 = affine.apply #map4(%22)[%c32, %23, %c0]
      %25 = arith.minui %24, %c1024 {GuardX} : index
      %26 = affine.apply #map1(%21, %25)[%dim]
      %27 = memref.load %collapse_shape[%26] : memref<1048576xf64>
      %28 = affine.apply #map1(%21, %25)[%dim_7]
      %29 = memref.load %collapse_shape_10[%28] : memref<1048576xf64>
      %30 = arith.addf %27, %29 : f64
      %31 = affine.apply #map1(%21, %25)[%dim_13]
      memref.store %30, %collapse_shape_16[%31] : memref<1048576xf64>
      gpu.terminator
    } {SCFToGPU_visited, parallelDim = "dimX_block"}
    %cast = memref.cast %alloc_11 : memref<1024x1024xf64> to memref<*xf64>
    call @comet_print_memref_f64(%cast) : (memref<*xf64>) -> ()
    return
  }
  func.func private @comet_sort_index(memref<*xindex>, index, index)
  func.func private @comet_print_memref_f64(memref<*xf64>)
}


// -----// IR Dump After GpuKernelOutlining (gpu-kernel-outlining) //----- //
#map = affine_map<(d0)[s0] -> (d0 + s0)>
#map1 = affine_map<(d0, d1)[s0] -> (d1 + d0 * s0)>
#map2 = affine_map<(d0)[s0, s1] -> ((d0 - s0) ceildiv s1)>
#map3 = affine_map<(d0)[s0, s1] -> (d0 * s0 + s1)>
#map4 = affine_map<(d0)[s0, s1, s2] -> (d0 * s0 + s1 + s2)>
module attributes {gpu.container_module} {
  func.func @main() {
    %c1024 = arith.constant 1024 : index
    %c1 = arith.constant 1 : index
    %c0 = arith.constant 0 : index
    %cst = arith.constant 0.000000e+00 : f64
    %cst_0 = arith.constant 3.400000e+00 : f64
    %cst_1 = arith.constant 2.200000e+00 : f64
    %alloc = memref.alloc() {alignment = 32 : i64} : memref<1024x1024xf64>
    %c1_2 = arith.constant 1 : index
    %dim = memref.dim %alloc, %c1_2 : memref<1024x1024xf64>
    %c1_3 = arith.constant 1 : index
    %dim_4 = memref.dim %alloc, %c1_3 : memref<1024x1024xf64>
    %collapse_shape = memref.collapse_shape %alloc [[0, 1]] : memref<1024x1024xf64> into memref<1048576xf64>
    %alloc_5 = memref.alloc() {alignment = 32 : i64} : memref<1024x1024xf64>
    %c1_6 = arith.constant 1 : index
    %dim_7 = memref.dim %alloc_5, %c1_6 : memref<1024x1024xf64>
    %c1_8 = arith.constant 1 : index
    %dim_9 = memref.dim %alloc_5, %c1_8 : memref<1024x1024xf64>
    %collapse_shape_10 = memref.collapse_shape %alloc_5 [[0, 1]] : memref<1024x1024xf64> into memref<1048576xf64>
    %alloc_11 = memref.alloc() {alignment = 32 : i64} : memref<1024x1024xf64>
    %c1_12 = arith.constant 1 : index
    %dim_13 = memref.dim %alloc_11, %c1_12 : memref<1024x1024xf64>
    %c1_14 = arith.constant 1 : index
    %dim_15 = memref.dim %alloc_11, %c1_14 : memref<1024x1024xf64>
    %collapse_shape_16 = memref.collapse_shape %alloc_11 [[0, 1]] : memref<1024x1024xf64> into memref<1048576xf64>
    %0 = arith.subi %c1024, %c0 : index
    %c0_17 = arith.constant 0 : index
    %1 = arith.subi %c1024, %c0 : index
    %c0_18 = arith.constant 0 : index
    scf.for %arg0 = %c0_17 to %0 step %c1 {
      %18 = affine.apply #map(%arg0)[%c0]
      scf.for %arg1 = %c0_18 to %1 step %c1 {
        %19 = affine.apply #map(%arg1)[%c0]
        %20 = affine.apply #map1(%18, %19)[%dim_4]
        memref.store %cst_1, %collapse_shape[%20] : memref<1048576xf64>
      }
    }
    %2 = arith.subi %c1024, %c0 : index
    %c0_19 = arith.constant 0 : index
    %3 = arith.subi %c1024, %c0 : index
    %c0_20 = arith.constant 0 : index
    scf.for %arg0 = %c0_19 to %2 step %c1 {
      %18 = affine.apply #map(%arg0)[%c0]
      scf.for %arg1 = %c0_20 to %3 step %c1 {
        %19 = affine.apply #map(%arg1)[%c0]
        %20 = affine.apply #map1(%18, %19)[%dim_9]
        memref.store %cst_0, %collapse_shape_10[%20] : memref<1048576xf64>
      }
    }
    %4 = arith.subi %c1024, %c0 : index
    %c0_21 = arith.constant 0 : index
    %5 = arith.subi %c1024, %c0 : index
    %c0_22 = arith.constant 0 : index
    scf.for %arg0 = %c0_21 to %4 step %c1 {
      %18 = affine.apply #map(%arg0)[%c0]
      scf.for %arg1 = %c0_22 to %5 step %c1 {
        %19 = affine.apply #map(%arg1)[%c0]
        %20 = affine.apply #map1(%18, %19)[%dim_15]
        memref.store %cst, %collapse_shape_16[%20] : memref<1048576xf64>
      }
    }
    %c8 = arith.constant 8 : index
    %c1_23 = arith.constant 1 : index
    %6 = arith.subi %c1024, %c0 : index
    %7 = arith.subi %c8, %c1_23 : index
    %8 = arith.addi %6, %7 : index
    %9 = arith.divsi %8, %c8 : index
    %c32 = arith.constant 32 : index
    %c1_24 = arith.constant 1 : index
    %10 = arith.subi %c1024, %c0 : index
    %11 = arith.subi %c32, %c1_24 : index
    %12 = arith.addi %10, %11 : index
    %13 = arith.divsi %12, %c32 : index
    %c1_25 = arith.constant 1 : index
    %14 = affine.apply #map2(%9)[%c0, %c1_23]
    %15 = affine.apply #map2(%c8)[%c0, %c1_23]
    %16 = affine.apply #map2(%13)[%c0, %c1_24]
    %17 = affine.apply #map2(%c32)[%c0, %c1_24]
    gpu.launch_func  @main_kernel::@main_kernel blocks in (%16, %14, %c1_25) threads in (%17, %15, %c1_25)  args(%c1_23 : index, %c0 : index, %c8 : index, %c1024 : index, %c1_24 : index, %c32 : index, %dim : index, %collapse_shape : memref<1048576xf64>, %dim_7 : index, %collapse_shape_10 : memref<1048576xf64>, %dim_13 : index, %collapse_shape_16 : memref<1048576xf64>)
    %cast = memref.cast %alloc_11 : memref<1024x1024xf64> to memref<*xf64>
    call @comet_print_memref_f64(%cast) : (memref<*xf64>) -> ()
    return
  }
  gpu.module @main_kernel {
    gpu.func @main_kernel(%arg0: index, %arg1: index, %arg2: index, %arg3: index, %arg4: index, %arg5: index, %arg6: index, %arg7: memref<1048576xf64>, %arg8: index, %arg9: memref<1048576xf64>, %arg10: index, %arg11: memref<1048576xf64>) kernel {
      %0 = gpu.block_id  x
      %1 = gpu.block_id  y
      %2 = gpu.block_id  z
      %3 = gpu.thread_id  x
      %4 = gpu.thread_id  y
      %5 = gpu.thread_id  z
      %6 = gpu.grid_dim  x
      %7 = gpu.grid_dim  y
      %8 = gpu.grid_dim  z
      %9 = gpu.block_dim  x
      %10 = gpu.block_dim  y
      %11 = gpu.block_dim  z
      cf.br ^bb1
    ^bb1:  // pred: ^bb0
      %12 = affine.apply #map3(%1)[%arg0, %arg1]
      %13 = affine.apply #map3(%4)[%arg0, %arg1]
      %14 = affine.apply #map4(%12)[%arg2, %13, %arg1]
      %15 = arith.minui %14, %arg3 {GuardY} : index
      %16 = affine.apply #map3(%0)[%arg4, %arg1]
      %17 = affine.apply #map3(%3)[%arg4, %arg1]
      %18 = affine.apply #map4(%16)[%arg5, %17, %arg1]
      %19 = arith.minui %18, %arg3 {GuardX} : index
      %20 = affine.apply #map1(%15, %19)[%arg6]
      %21 = memref.load %arg7[%20] : memref<1048576xf64>
      %22 = affine.apply #map1(%15, %19)[%arg8]
      %23 = memref.load %arg9[%22] : memref<1048576xf64>
      %24 = arith.addf %21, %23 : f64
      %25 = affine.apply #map1(%15, %19)[%arg10]
      memref.store %24, %arg11[%25] : memref<1048576xf64>
      gpu.return
    }
  }
  func.func private @comet_sort_index(memref<*xindex>, index, index)
  func.func private @comet_print_memref_f64(memref<*xf64>)
}


// -----// IR Dump After Canonicalizer (canonicalize) //----- //
#map = affine_map<(d0, d1) -> (d0 * 1024 + d1)>
#map1 = affine_map<(d0, d1)[s0, s1, s2] -> (d1 * s2 + s1 * 2 + (d0 * s2 + s1) * s0)>
#map2 = affine_map<(d0, d1)[s0] -> (d1 + d0 * s0)>
module attributes {gpu.container_module} {
  func.func @main() {
    %c128 = arith.constant 128 : index
    %c32 = arith.constant 32 : index
    %c8 = arith.constant 8 : index
    %c1024 = arith.constant 1024 : index
    %c1 = arith.constant 1 : index
    %c0 = arith.constant 0 : index
    %cst = arith.constant 0.000000e+00 : f64
    %cst_0 = arith.constant 3.400000e+00 : f64
    %cst_1 = arith.constant 2.200000e+00 : f64
    %alloc = memref.alloc() {alignment = 32 : i64} : memref<1024x1024xf64>
    %collapse_shape = memref.collapse_shape %alloc [[0, 1]] : memref<1024x1024xf64> into memref<1048576xf64>
    %alloc_2 = memref.alloc() {alignment = 32 : i64} : memref<1024x1024xf64>
    %collapse_shape_3 = memref.collapse_shape %alloc_2 [[0, 1]] : memref<1024x1024xf64> into memref<1048576xf64>
    %alloc_4 = memref.alloc() {alignment = 32 : i64} : memref<1024x1024xf64>
    %collapse_shape_5 = memref.collapse_shape %alloc_4 [[0, 1]] : memref<1024x1024xf64> into memref<1048576xf64>
    scf.for %arg0 = %c0 to %c1024 step %c1 {
      scf.for %arg1 = %c0 to %c1024 step %c1 {
        %0 = affine.apply #map(%arg0, %arg1)
        memref.store %cst_1, %collapse_shape[%0] : memref<1048576xf64>
      }
    }
    scf.for %arg0 = %c0 to %c1024 step %c1 {
      scf.for %arg1 = %c0 to %c1024 step %c1 {
        %0 = affine.apply #map(%arg0, %arg1)
        memref.store %cst_0, %collapse_shape_3[%0] : memref<1048576xf64>
      }
    }
    scf.for %arg0 = %c0 to %c1024 step %c1 {
      scf.for %arg1 = %c0 to %c1024 step %c1 {
        %0 = affine.apply #map(%arg0, %arg1)
        memref.store %cst, %collapse_shape_5[%0] : memref<1048576xf64>
      }
    }
    gpu.launch_func  @main_kernel::@main_kernel blocks in (%c32, %c128, %c1) threads in (%c32, %c8, %c1)  args(%c1 : index, %c0 : index, %c8 : index, %c1024 : index, %c1 : index, %c32 : index, %c1024 : index, %collapse_shape : memref<1048576xf64>, %c1024 : index, %collapse_shape_3 : memref<1048576xf64>, %c1024 : index, %collapse_shape_5 : memref<1048576xf64>)
    %cast = memref.cast %alloc_4 : memref<1024x1024xf64> to memref<*xf64>
    call @comet_print_memref_f64(%cast) : (memref<*xf64>) -> ()
    return
  }
  #map = affine_map<(d0, d1) -> (d0 * 1024 + d1)>
#map1 = affine_map<(d0, d1)[s0, s1, s2] -> (d1 * s2 + s1 * 2 + (d0 * s2 + s1) * s0)>
#map2 = affine_map<(d0, d1)[s0] -> (d1 + d0 * s0)>
  gpu.module @main_kernel {
    gpu.func @main_kernel(%arg0: index, %arg1: index, %arg2: index, %arg3: index, %arg4: index, %arg5: index, %arg6: index, %arg7: memref<1048576xf64>, %arg8: index, %arg9: memref<1048576xf64>, %arg10: index, %arg11: memref<1048576xf64>) kernel {
      %0 = gpu.block_id  x
      %1 = gpu.block_id  y
      %2 = gpu.thread_id  x
      %3 = gpu.thread_id  y
      %4 = affine.apply #map1(%1, %3)[%arg2, %arg1, %arg0]
      %5 = arith.minui %4, %arg3 {GuardY} : index
      %6 = affine.apply #map1(%0, %2)[%arg5, %arg1, %arg4]
      %7 = arith.minui %6, %arg3 {GuardX} : index
      %8 = affine.apply #map2(%5, %7)[%arg6]
      %9 = memref.load %arg7[%8] : memref<1048576xf64>
      %10 = affine.apply #map2(%5, %7)[%arg8]
      %11 = memref.load %arg9[%10] : memref<1048576xf64>
      %12 = arith.addf %9, %11 : f64
      %13 = affine.apply #map2(%5, %7)[%arg10]
      memref.store %12, %arg11[%13] : memref<1048576xf64>
      gpu.return
    }
  }
  func.func private @comet_sort_index(memref<*xindex>, index, index)
  func.func private @comet_print_memref_f64(memref<*xf64>)
}


// -----// IR Dump After ConvertGpuKernelToTritonPass (convert-gpu-kernel-to-triton) //----- //
#map = affine_map<(d0, d1) -> (d0 * 1024 + d1)>
module attributes {gpu.container_module} {
  func.func @main() {
    %c128 = arith.constant 128 : index
    %c32 = arith.constant 32 : index
    %c8 = arith.constant 8 : index
    %c1024 = arith.constant 1024 : index
    %c1 = arith.constant 1 : index
    %c0 = arith.constant 0 : index
    %cst = arith.constant 0.000000e+00 : f64
    %cst_0 = arith.constant 3.400000e+00 : f64
    %cst_1 = arith.constant 2.200000e+00 : f64
    %alloc = memref.alloc() {alignment = 32 : i64} : memref<1024x1024xf64>
    %collapse_shape = memref.collapse_shape %alloc [[0, 1]] : memref<1024x1024xf64> into memref<1048576xf64>
    %alloc_2 = memref.alloc() {alignment = 32 : i64} : memref<1024x1024xf64>
    %collapse_shape_3 = memref.collapse_shape %alloc_2 [[0, 1]] : memref<1024x1024xf64> into memref<1048576xf64>
    %alloc_4 = memref.alloc() {alignment = 32 : i64} : memref<1024x1024xf64>
    %collapse_shape_5 = memref.collapse_shape %alloc_4 [[0, 1]] : memref<1024x1024xf64> into memref<1048576xf64>
    scf.for %arg0 = %c0 to %c1024 step %c1 {
      scf.for %arg1 = %c0 to %c1024 step %c1 {
        %0 = affine.apply #map(%arg0, %arg1)
        memref.store %cst_1, %collapse_shape[%0] : memref<1048576xf64>
      }
    }
    scf.for %arg0 = %c0 to %c1024 step %c1 {
      scf.for %arg1 = %c0 to %c1024 step %c1 {
        %0 = affine.apply #map(%arg0, %arg1)
        memref.store %cst_0, %collapse_shape_3[%0] : memref<1048576xf64>
      }
    }
    scf.for %arg0 = %c0 to %c1024 step %c1 {
      scf.for %arg1 = %c0 to %c1024 step %c1 {
        %0 = affine.apply #map(%arg0, %arg1)
        memref.store %cst, %collapse_shape_5[%0] : memref<1048576xf64>
      }
    }
    gpu.launch_func  @main_kernel::@main_kernel blocks in (%c32, %c128, %c1) threads in (%c32, %c8, %c1)  args(%c1024 : index, %c1024 : index, %collapse_shape : memref<1048576xf64>, %c1024 : index, %collapse_shape_3 : memref<1048576xf64>, %c1024 : index, %collapse_shape_5 : memref<1048576xf64>) {checked}
    %cast = memref.cast %alloc_4 : memref<1024x1024xf64> to memref<*xf64>
    call @comet_print_memref_f64(%cast) : (memref<*xf64>) -> ()
    return
  }
  gpu.module @main_kernel {
    gpu.func @main_kernel(%arg0: index, %arg1: index, %arg2: memref<1048576xf64>, %arg3: index, %arg4: memref<1048576xf64>, %arg5: index, %arg6: memref<1048576xf64>) kernel attributes {block_size_x = 32 : index, block_size_y = 8 : index, copied} {
      gpu.return
    }
  }
  func.func private @comet_print_memref_f64(memref<*xf64>)
  tt.func @main_kernel0(%arg0: i32, %arg1: i32, %arg2: i32, %arg3: i32, %arg4: !tt.ptr<f64, 1>, %arg5: i32, %arg6: !tt.ptr<f64, 1>, %arg7: i32, %arg8: !tt.ptr<f64, 1>) attributes {block_size_x = 32 : index, block_size_y = 8 : index, origin = "main_kernel::main_kernel"} {
    %c8_i32 = arith.constant 8 : i32
    %c32_i32 = arith.constant 32 : i32
    %c0_i32 = arith.constant 0 : i32
    %0 = tt.get_num_programs {axis = 1 : i32} : i32
    %1 = tt.get_num_programs {axis = 0 : i32} : i32
    %2 = tt.get_program_id y : i32
    %3 = tt.get_program_id x : i32
    %4 = arith.subi %arg0, %2 : i32
    %5 = arith.subi %arg1, %3 : i32
    %6 = tt.make_range {end = 32 : i32, start = 0 : i32} : tensor<32xi32>
    %7 = tt.expand_dims %6 {axis = 0 : i32} : (tensor<32xi32>) -> tensor<1x32xi32>
    %8 = tt.splat %arg2 : (i32) -> tensor<1x32xi32>
    %9 = arith.muli %3, %c32_i32 : i32
    %10 = tt.splat %9 : (i32) -> tensor<1x32xi32>
    %11 = arith.addi %7, %10 : tensor<1x32xi32>
    %12 = tt.make_range {end = 8 : i32, start = 0 : i32} : tensor<8xi32>
    %13 = tt.expand_dims %12 {axis = 1 : i32} : (tensor<8xi32>) -> tensor<8x1xi32>
    %14 = tt.splat %arg2 : (i32) -> tensor<8x1xi32>
    %15 = arith.muli %2, %c8_i32 : i32
    %16 = tt.splat %15 : (i32) -> tensor<8x1xi32>
    %17 = arith.addi %13, %16 : tensor<8x1xi32>
    %18 = tt.splat %arg3 : (i32) -> tensor<8x1xi32>
    %19 = tt.splat %arg4 : (!tt.ptr<f64, 1>) -> tensor<8x32x!tt.ptr<f64, 1>>
    %20 = tt.splat %arg5 : (i32) -> tensor<8x1xi32>
    %21 = tt.splat %arg6 : (!tt.ptr<f64, 1>) -> tensor<8x32x!tt.ptr<f64, 1>>
    %22 = tt.splat %arg7 : (i32) -> tensor<8x1xi32>
    %23 = tt.splat %arg8 : (!tt.ptr<f64, 1>) -> tensor<8x32x!tt.ptr<f64, 1>>
    scf.for %arg9 = %c0_i32 to %4 step %0  : i32 {
      %24 = arith.muli %arg9, %c8_i32 : i32
      %25 = tt.splat %24 : (i32) -> tensor<8x1xi32>
      %26 = arith.addi %17, %25 : tensor<8x1xi32>
      %27 = arith.cmpi slt, %26, %14 : tensor<8x1xi32>
      %28 = tt.broadcast %27 : (tensor<8x1xi1>) -> tensor<8x32xi1>
      %29 = arith.muli %26, %18 : tensor<8x1xi32>
      %30 = tt.broadcast %29 : (tensor<8x1xi32>) -> tensor<8x32xi32>
      %31 = arith.muli %26, %20 : tensor<8x1xi32>
      %32 = tt.broadcast %31 : (tensor<8x1xi32>) -> tensor<8x32xi32>
      %33 = arith.muli %26, %22 : tensor<8x1xi32>
      %34 = tt.broadcast %33 : (tensor<8x1xi32>) -> tensor<8x32xi32>
      scf.for %arg10 = %c0_i32 to %5 step %1  : i32 {
        %35 = arith.muli %arg10, %c32_i32 : i32
        %36 = tt.splat %35 : (i32) -> tensor<1x32xi32>
        %37 = arith.addi %11, %36 : tensor<1x32xi32>
        %38 = arith.cmpi slt, %37, %8 : tensor<1x32xi32>
        %39 = tt.broadcast %38 : (tensor<1x32xi1>) -> tensor<8x32xi1>
        %40 = arith.andi %39, %28 : tensor<8x32xi1>
        %41 = tt.broadcast %37 : (tensor<1x32xi32>) -> tensor<8x32xi32>
        %42 = arith.addi %41, %30 : tensor<8x32xi32>
        %43 = tt.addptr %19, %42 : tensor<8x32x!tt.ptr<f64, 1>>, tensor<8x32xi32>
        %44 = tt.load %43, %40 {cache = 1 : i32, evict = 1 : i32, isVolatile = false} : tensor<8x32xf64>
        %45 = arith.addi %41, %32 : tensor<8x32xi32>
        %46 = tt.addptr %21, %45 : tensor<8x32x!tt.ptr<f64, 1>>, tensor<8x32xi32>
        %47 = tt.load %46, %40 {cache = 1 : i32, evict = 1 : i32, isVolatile = false} : tensor<8x32xf64>
        %48 = arith.addf %44, %47 : tensor<8x32xf64>
        %49 = arith.addi %41, %34 : tensor<8x32xi32>
        %50 = tt.addptr %23, %49 : tensor<8x32x!tt.ptr<f64, 1>>, tensor<8x32xi32>
        tt.store %50, %48, %40 {cache = 1 : i32, evict = 1 : i32} : tensor<8x32xf64>
      } {programs_loop_x}
    } {programs_loop_y}
    tt.return
  }
}


// -----// IR Dump After LowerTritonDeviceToCuda (lower-triton-device-to-cuda) //----- //
#map = affine_map<(d0, d1) -> (d0 * 1024 + d1)>
module attributes {gpu.container_module, "triton_gpu.compute-capability" = 70 : i32, "triton_gpu.num-ctas" = 1 : i32, "triton_gpu.num-warps" = 4 : i32, triton_gpu.shared = 0 : i32, "triton_gpu.threads-per-warp" = 32 : i32} {
  llvm.mlir.global internal @ptx("//\0A// Generated by LLVM NVPTX Back-End\0A//\0A\0A.version 6.0\0A.target sm_70\0A.address_size 64\0A\0A\09// .globl\09main_kernel0\0A.extern .shared .align 1 .b8 global_smem[];\0A\0A.visible .entry main_kernel0(\0A\09.param .u32 main_kernel0_param_0,\0A\09.param .u32 main_kernel0_param_1,\0A\09.param .u32 main_kernel0_param_2,\0A\09.param .u32 main_kernel0_param_3,\0A\09.param .u64 main_kernel0_param_4,\0A\09.param .u32 main_kernel0_param_5,\0A\09.param .u64 main_kernel0_param_6,\0A\09.param .u32 main_kernel0_param_7,\0A\09.param .u64 main_kernel0_param_8\0A)\0A.maxntid 128, 1, 1\0A{\0A\09.reg .pred \09%p<12>;\0A\09.reg .b32 \09%r<73>;\0A\09.reg .b64 \09%rd<22>;\0A\09.reg .f64 \09%fd<7>;\0A\0A\09ld.param.u64 \09%rd3, [main_kernel0_param_8];\0A\09ld.param.u64 \09%rd2, [main_kernel0_param_6];\0A\09ld.param.u64 \09%rd1, [main_kernel0_param_4];\0A\09ld.param.u32 \09%r37, [main_kernel0_param_2];\0A\09ld.param.u32 \09%r43, [main_kernel0_param_0];\0A\09ld.param.u32 \09%r44, [main_kernel0_param_1];\0A\09mov.u32 \09%r45, %tid.x;\0A\09and.b32  \09%r46, %r45, 31;\0A\09ld.param.u32 \09%r47, [main_kernel0_param_3];\0A\09bfe.u32 \09%r48, %r45, 5, 2;\0A\09// begin inline asm\0A\09mov.u32 %r38, %nctaid.y;\0A\09// end inline asm\0A\09ld.param.u32 \09%r49, [main_kernel0_param_5];\0A\09// begin inline asm\0A\09mov.u32 %r39, %nctaid.x;\0A\09// end inline asm\0A\09ld.param.u32 \09%r50, [main_kernel0_param_7];\0A\09// begin inline asm\0A\09mov.u32 %r40, %ctaid.y;\0A\09// end inline asm\0A\09// begin inline asm\0A\09mov.u32 %r41, %ctaid.x;\0A\09// end inline asm\0A\09sub.s32 \09%r3, %r43, %r40;\0A\09sub.s32 \09%r4, %r44, %r41;\0A\09shl.b32 \09%r51, %r41, 5;\0A\09shl.b32 \09%r52, %r40, 3;\0A\09or.b32  \09%r5, %r48, %r52;\0A\09or.b32  \09%r53, %r5, 4;\0A\09mul.lo.s32 \09%r69, %r50, %r53;\0A\09mul.lo.s32 \09%r54, %r38, %r50;\0A\09shl.b32 \09%r7, %r54, 3;\0A\09or.b32  \09%r8, %r51, %r46;\0A\09shl.b32 \09%r9, %r39, 5;\0A\09mul.lo.s32 \09%r68, %r50, %r5;\0A\09mul.lo.s32 \09%r67, %r49, %r53;\0A\09mul.lo.s32 \09%r55, %r38, %r49;\0A\09shl.b32 \09%r12, %r55, 3;\0A\09mul.lo.s32 \09%r66, %r49, %r5;\0A\09mul.lo.s32 \09%r65, %r47, %r53;\0A\09mul.lo.s32 \09%r56, %r38, %r47;\0A\09shl.b32 \09%r15, %r56, 3;\0A\09mul.lo.s32 \09%r64, %r47, %r5;\0A\09mov.b32 \09%r70, 0;\0A\09bra.uni \09$L__BB0_1;\0A$L__BB0_5:\0A\09add.s32 \09%r70, %r70, %r38;\0A\09add.s32 \09%r69, %r69, %r7;\0A\09add.s32 \09%r68, %r68, %r7;\0A\09add.s32 \09%r67, %r67, %r12;\0A\09add.s32 \09%r66, %r66, %r12;\0A\09add.s32 \09%r65, %r65, %r15;\0A\09add.s32 \09%r64, %r64, %r15;\0A$L__BB0_1:\0A\09setp.ge.s32 \09%p1, %r70, %r3;\0A\09@%p1 bra \09$L__BB0_6;\0A\09mad.lo.s32 \09%r24, %r70, 8, %r5;\0A\09add.s32 \09%r25, %r24, 4;\0A\09mov.b32 \09%r72, 0;\0A\09setp.lt.s32 \09%p9, %r25, %r37;\0A\09setp.lt.s32 \09%p10, %r24, %r37;\0A\09mov.u32 \09%r71, %r8;\0A$L__BB0_3:\0A\09setp.ge.s32 \09%p2, %r72, %r4;\0A\09@%p2 bra \09$L__BB0_5;\0A\09setp.lt.s32 \09%p11, %r71, %r37;\0A\09and.pred  \09%p3, %p11, %p10;\0A\09and.pred  \09%p4, %p11, %p9;\0A\09add.s32 \09%r58, %r64, %r71;\0A\09add.s32 \09%r59, %r65, %r71;\0A\09mul.wide.s32 \09%rd16, %r58, 8;\0A\09add.s64 \09%rd5, %rd1, %rd16;\0A\09mul.wide.s32 \09%rd17, %r59, 8;\0A\09add.s64 \09%rd7, %rd1, %rd17;\0A\09// begin inline asm\0A\09mov.u64 %rd4, 0x0;\0A\09@%p3 ld.global.b64 { %rd4 }, [ %rd5 + 0 ];\0A\09// end inline asm\0A\09mov.b64 \09%fd1, %rd4;\0A\09// begin inline asm\0A\09mov.u64 %rd6, 0x0;\0A\09@%p4 ld.global.b64 { %rd6 }, [ %rd7 + 0 ];\0A\09// end inline asm\0A\09mov.b64 \09%fd2, %rd6;\0A\09add.s32 \09%r60, %r66, %r71;\0A\09add.s32 \09%r61, %r67, %r71;\0A\09mul.wide.s32 \09%rd18, %r60, 8;\0A\09add.s64 \09%rd9, %rd2, %rd18;\0A\09mul.wide.s32 \09%rd19, %r61, 8;\0A\09add.s64 \09%rd11, %rd2, %rd19;\0A\09// begin inline asm\0A\09mov.u64 %rd8, 0x0;\0A\09@%p3 ld.global.b64 { %rd8 }, [ %rd9 + 0 ];\0A\09// end inline asm\0A\09mov.b64 \09%fd3, %rd8;\0A\09// begin inline asm\0A\09mov.u64 %rd10, 0x0;\0A\09@%p4 ld.global.b64 { %rd10 }, [ %rd11 + 0 ];\0A\09// end inline asm\0A\09mov.b64 \09%fd4, %rd10;\0A\09add.rn.f64 \09%fd5, %fd1, %fd3;\0A\09add.rn.f64 \09%fd6, %fd2, %fd4;\0A\09add.s32 \09%r62, %r68, %r71;\0A\09add.s32 \09%r63, %r69, %r71;\0A\09mul.wide.s32 \09%rd20, %r62, 8;\0A\09add.s64 \09%rd13, %rd3, %rd20;\0A\09mul.wide.s32 \09%rd21, %r63, 8;\0A\09add.s64 \09%rd15, %rd3, %rd21;\0A\09mov.b64 \09%rd12, %fd5;\0A\09// begin inline asm\0A\09@%p3 st.global.b64 [ %rd13 + 0 ], { %rd12 };\0A\09// end inline asm\0A\09mov.b64 \09%rd14, %fd6;\0A\09// begin inline asm\0A\09@%p4 st.global.b64 [ %rd15 + 0 ], { %rd14 };\0A\09// end inline asm\0A\09add.s32 \09%r72, %r72, %r39;\0A\09add.s32 \09%r71, %r71, %r9;\0A\09bra.uni \09$L__BB0_3;\0A$L__BB0_6:\0A\09ret;\0A\0A}\0A") {addr_space = 0 : i32, alignment = 32 : i64}
  func.func @main() {
    %c128 = arith.constant 128 : index
    %c32 = arith.constant 32 : index
    %c8 = arith.constant 8 : index
    %c1024 = arith.constant 1024 : index
    %c1 = arith.constant 1 : index
    %c0 = arith.constant 0 : index
    %cst = arith.constant 0.000000e+00 : f64
    %cst_0 = arith.constant 3.400000e+00 : f64
    %cst_1 = arith.constant 2.200000e+00 : f64
    %alloc = memref.alloc() {alignment = 32 : i64} : memref<1024x1024xf64>
    %collapse_shape = memref.collapse_shape %alloc [[0, 1]] : memref<1024x1024xf64> into memref<1048576xf64>
    %alloc_2 = memref.alloc() {alignment = 32 : i64} : memref<1024x1024xf64>
    %collapse_shape_3 = memref.collapse_shape %alloc_2 [[0, 1]] : memref<1024x1024xf64> into memref<1048576xf64>
    %alloc_4 = memref.alloc() {alignment = 32 : i64} : memref<1024x1024xf64>
    %collapse_shape_5 = memref.collapse_shape %alloc_4 [[0, 1]] : memref<1024x1024xf64> into memref<1048576xf64>
    scf.for %arg0 = %c0 to %c1024 step %c1 {
      scf.for %arg1 = %c0 to %c1024 step %c1 {
        %0 = affine.apply #map(%arg0, %arg1)
        memref.store %cst_1, %collapse_shape[%0] : memref<1048576xf64>
      }
    }
    scf.for %arg0 = %c0 to %c1024 step %c1 {
      scf.for %arg1 = %c0 to %c1024 step %c1 {
        %0 = affine.apply #map(%arg0, %arg1)
        memref.store %cst_0, %collapse_shape_3[%0] : memref<1048576xf64>
      }
    }
    scf.for %arg0 = %c0 to %c1024 step %c1 {
      scf.for %arg1 = %c0 to %c1024 step %c1 {
        %0 = affine.apply #map(%arg0, %arg1)
        memref.store %cst, %collapse_shape_5[%0] : memref<1048576xf64>
      }
    }
    gpu.launch_func  @main_kernel::@main_kernel blocks in (%c32, %c128, %c1) threads in (%c32, %c8, %c1)  args(%c1024 : index, %c1024 : index, %collapse_shape : memref<1048576xf64>, %c1024 : index, %collapse_shape_3 : memref<1048576xf64>, %c1024 : index, %collapse_shape_5 : memref<1048576xf64>) {checked}
    %cast = memref.cast %alloc_4 : memref<1024x1024xf64> to memref<*xf64>
    call @comet_print_memref_f64(%cast) : (memref<*xf64>) -> ()
    return
  }
  gpu.module @main_kernel {
    gpu.func @main_kernel(%arg0: index, %arg1: index, %arg2: memref<1048576xf64>, %arg3: index, %arg4: memref<1048576xf64>, %arg5: index, %arg6: memref<1048576xf64>) kernel attributes {block_size_x = 32 : index, block_size_y = 8 : index, copied} {
      gpu.return
    }
  }
  func.func private @comet_print_memref_f64(memref<*xf64>)
  tt.func @main_kernel0(%arg0: i32, %arg1: i32, %arg2: i32, %arg3: i32, %arg4: !tt.ptr<f64, 1>, %arg5: i32, %arg6: !tt.ptr<f64, 1>, %arg7: i32, %arg8: !tt.ptr<f64, 1>) attributes {block_size_x = 32 : index, block_size_y = 8 : index, origin = "main_kernel::main_kernel"} {
    %c8_i32 = arith.constant 8 : i32
    %c32_i32 = arith.constant 32 : i32
    %c0_i32 = arith.constant 0 : i32
    %0 = tt.get_num_programs {axis = 1 : i32} : i32
    %1 = tt.get_num_programs {axis = 0 : i32} : i32
    %2 = tt.get_program_id y : i32
    %3 = tt.get_program_id x : i32
    %4 = arith.subi %arg0, %2 : i32
    %5 = arith.subi %arg1, %3 : i32
    %6 = tt.make_range {end = 32 : i32, start = 0 : i32} : tensor<32xi32>
    %7 = tt.expand_dims %6 {axis = 0 : i32} : (tensor<32xi32>) -> tensor<1x32xi32>
    %8 = tt.splat %arg2 : (i32) -> tensor<1x32xi32>
    %9 = arith.muli %3, %c32_i32 : i32
    %10 = tt.splat %9 : (i32) -> tensor<1x32xi32>
    %11 = arith.addi %7, %10 : tensor<1x32xi32>
    %12 = tt.make_range {end = 8 : i32, start = 0 : i32} : tensor<8xi32>
    %13 = tt.expand_dims %12 {axis = 1 : i32} : (tensor<8xi32>) -> tensor<8x1xi32>
    %14 = tt.splat %arg2 : (i32) -> tensor<8x1xi32>
    %15 = arith.muli %2, %c8_i32 : i32
    %16 = tt.splat %15 : (i32) -> tensor<8x1xi32>
    %17 = arith.addi %13, %16 : tensor<8x1xi32>
    %18 = tt.splat %arg3 : (i32) -> tensor<8x1xi32>
    %19 = tt.splat %arg4 : (!tt.ptr<f64, 1>) -> tensor<8x32x!tt.ptr<f64, 1>>
    %20 = tt.splat %arg5 : (i32) -> tensor<8x1xi32>
    %21 = tt.splat %arg6 : (!tt.ptr<f64, 1>) -> tensor<8x32x!tt.ptr<f64, 1>>
    %22 = tt.splat %arg7 : (i32) -> tensor<8x1xi32>
    %23 = tt.splat %arg8 : (!tt.ptr<f64, 1>) -> tensor<8x32x!tt.ptr<f64, 1>>
    scf.for %arg9 = %c0_i32 to %4 step %0  : i32 {
      %24 = arith.muli %arg9, %c8_i32 : i32
      %25 = tt.splat %24 : (i32) -> tensor<8x1xi32>
      %26 = arith.addi %17, %25 : tensor<8x1xi32>
      %27 = arith.cmpi slt, %26, %14 : tensor<8x1xi32>
      %28 = tt.broadcast %27 : (tensor<8x1xi1>) -> tensor<8x32xi1>
      %29 = arith.muli %26, %18 : tensor<8x1xi32>
      %30 = tt.broadcast %29 : (tensor<8x1xi32>) -> tensor<8x32xi32>
      %31 = arith.muli %26, %20 : tensor<8x1xi32>
      %32 = tt.broadcast %31 : (tensor<8x1xi32>) -> tensor<8x32xi32>
      %33 = arith.muli %26, %22 : tensor<8x1xi32>
      %34 = tt.broadcast %33 : (tensor<8x1xi32>) -> tensor<8x32xi32>
      scf.for %arg10 = %c0_i32 to %5 step %1  : i32 {
        %35 = arith.muli %arg10, %c32_i32 : i32
        %36 = tt.splat %35 : (i32) -> tensor<1x32xi32>
        %37 = arith.addi %11, %36 : tensor<1x32xi32>
        %38 = arith.cmpi slt, %37, %8 : tensor<1x32xi32>
        %39 = tt.broadcast %38 : (tensor<1x32xi1>) -> tensor<8x32xi1>
        %40 = arith.andi %39, %28 : tensor<8x32xi1>
        %41 = tt.broadcast %37 : (tensor<1x32xi32>) -> tensor<8x32xi32>
        %42 = arith.addi %41, %30 : tensor<8x32xi32>
        %43 = tt.addptr %19, %42 : tensor<8x32x!tt.ptr<f64, 1>>, tensor<8x32xi32>
        %44 = tt.load %43, %40 {cache = 1 : i32, evict = 1 : i32, isVolatile = false} : tensor<8x32xf64>
        %45 = arith.addi %41, %32 : tensor<8x32xi32>
        %46 = tt.addptr %21, %45 : tensor<8x32x!tt.ptr<f64, 1>>, tensor<8x32xi32>
        %47 = tt.load %46, %40 {cache = 1 : i32, evict = 1 : i32, isVolatile = false} : tensor<8x32xf64>
        %48 = arith.addf %44, %47 : tensor<8x32xf64>
        %49 = arith.addi %41, %34 : tensor<8x32xi32>
        %50 = tt.addptr %23, %49 : tensor<8x32x!tt.ptr<f64, 1>>, tensor<8x32xi32>
        tt.store %50, %48, %40 {cache = 1 : i32, evict = 1 : i32} : tensor<8x32xf64>
      } {programs_loop_x}
    } {programs_loop_y}
    tt.return
  }
}


// -----// IR Dump After LowerHostToCuda (lower-gpu-host-to-cuda) //----- //
#map = affine_map<(d0, d1) -> (d0 * 1024 + d1)>
module attributes {gpu.container_module, "triton_gpu.compute-capability" = 70 : i32, "triton_gpu.num-ctas" = 1 : i32, "triton_gpu.num-warps" = 4 : i32, triton_gpu.shared = 0 : i32, "triton_gpu.threads-per-warp" = 32 : i32} {
  llvm.mlir.global private constant @main_kernel0_str("main_kernel0") {addr_space = 0 : i32}
  llvm.mlir.global internal @ptx("//\0A// Generated by LLVM NVPTX Back-End\0A//\0A\0A.version 6.0\0A.target sm_70\0A.address_size 64\0A\0A\09// .globl\09main_kernel0\0A.extern .shared .align 1 .b8 global_smem[];\0A\0A.visible .entry main_kernel0(\0A\09.param .u32 main_kernel0_param_0,\0A\09.param .u32 main_kernel0_param_1,\0A\09.param .u32 main_kernel0_param_2,\0A\09.param .u32 main_kernel0_param_3,\0A\09.param .u64 main_kernel0_param_4,\0A\09.param .u32 main_kernel0_param_5,\0A\09.param .u64 main_kernel0_param_6,\0A\09.param .u32 main_kernel0_param_7,\0A\09.param .u64 main_kernel0_param_8\0A)\0A.maxntid 128, 1, 1\0A{\0A\09.reg .pred \09%p<12>;\0A\09.reg .b32 \09%r<73>;\0A\09.reg .b64 \09%rd<22>;\0A\09.reg .f64 \09%fd<7>;\0A\0A\09ld.param.u64 \09%rd3, [main_kernel0_param_8];\0A\09ld.param.u64 \09%rd2, [main_kernel0_param_6];\0A\09ld.param.u64 \09%rd1, [main_kernel0_param_4];\0A\09ld.param.u32 \09%r37, [main_kernel0_param_2];\0A\09ld.param.u32 \09%r43, [main_kernel0_param_0];\0A\09ld.param.u32 \09%r44, [main_kernel0_param_1];\0A\09mov.u32 \09%r45, %tid.x;\0A\09and.b32  \09%r46, %r45, 31;\0A\09ld.param.u32 \09%r47, [main_kernel0_param_3];\0A\09bfe.u32 \09%r48, %r45, 5, 2;\0A\09// begin inline asm\0A\09mov.u32 %r38, %nctaid.y;\0A\09// end inline asm\0A\09ld.param.u32 \09%r49, [main_kernel0_param_5];\0A\09// begin inline asm\0A\09mov.u32 %r39, %nctaid.x;\0A\09// end inline asm\0A\09ld.param.u32 \09%r50, [main_kernel0_param_7];\0A\09// begin inline asm\0A\09mov.u32 %r40, %ctaid.y;\0A\09// end inline asm\0A\09// begin inline asm\0A\09mov.u32 %r41, %ctaid.x;\0A\09// end inline asm\0A\09sub.s32 \09%r3, %r43, %r40;\0A\09sub.s32 \09%r4, %r44, %r41;\0A\09shl.b32 \09%r51, %r41, 5;\0A\09shl.b32 \09%r52, %r40, 3;\0A\09or.b32  \09%r5, %r48, %r52;\0A\09or.b32  \09%r53, %r5, 4;\0A\09mul.lo.s32 \09%r69, %r50, %r53;\0A\09mul.lo.s32 \09%r54, %r38, %r50;\0A\09shl.b32 \09%r7, %r54, 3;\0A\09or.b32  \09%r8, %r51, %r46;\0A\09shl.b32 \09%r9, %r39, 5;\0A\09mul.lo.s32 \09%r68, %r50, %r5;\0A\09mul.lo.s32 \09%r67, %r49, %r53;\0A\09mul.lo.s32 \09%r55, %r38, %r49;\0A\09shl.b32 \09%r12, %r55, 3;\0A\09mul.lo.s32 \09%r66, %r49, %r5;\0A\09mul.lo.s32 \09%r65, %r47, %r53;\0A\09mul.lo.s32 \09%r56, %r38, %r47;\0A\09shl.b32 \09%r15, %r56, 3;\0A\09mul.lo.s32 \09%r64, %r47, %r5;\0A\09mov.b32 \09%r70, 0;\0A\09bra.uni \09$L__BB0_1;\0A$L__BB0_5:\0A\09add.s32 \09%r70, %r70, %r38;\0A\09add.s32 \09%r69, %r69, %r7;\0A\09add.s32 \09%r68, %r68, %r7;\0A\09add.s32 \09%r67, %r67, %r12;\0A\09add.s32 \09%r66, %r66, %r12;\0A\09add.s32 \09%r65, %r65, %r15;\0A\09add.s32 \09%r64, %r64, %r15;\0A$L__BB0_1:\0A\09setp.ge.s32 \09%p1, %r70, %r3;\0A\09@%p1 bra \09$L__BB0_6;\0A\09mad.lo.s32 \09%r24, %r70, 8, %r5;\0A\09add.s32 \09%r25, %r24, 4;\0A\09mov.b32 \09%r72, 0;\0A\09setp.lt.s32 \09%p9, %r25, %r37;\0A\09setp.lt.s32 \09%p10, %r24, %r37;\0A\09mov.u32 \09%r71, %r8;\0A$L__BB0_3:\0A\09setp.ge.s32 \09%p2, %r72, %r4;\0A\09@%p2 bra \09$L__BB0_5;\0A\09setp.lt.s32 \09%p11, %r71, %r37;\0A\09and.pred  \09%p3, %p11, %p10;\0A\09and.pred  \09%p4, %p11, %p9;\0A\09add.s32 \09%r58, %r64, %r71;\0A\09add.s32 \09%r59, %r65, %r71;\0A\09mul.wide.s32 \09%rd16, %r58, 8;\0A\09add.s64 \09%rd5, %rd1, %rd16;\0A\09mul.wide.s32 \09%rd17, %r59, 8;\0A\09add.s64 \09%rd7, %rd1, %rd17;\0A\09// begin inline asm\0A\09mov.u64 %rd4, 0x0;\0A\09@%p3 ld.global.b64 { %rd4 }, [ %rd5 + 0 ];\0A\09// end inline asm\0A\09mov.b64 \09%fd1, %rd4;\0A\09// begin inline asm\0A\09mov.u64 %rd6, 0x0;\0A\09@%p4 ld.global.b64 { %rd6 }, [ %rd7 + 0 ];\0A\09// end inline asm\0A\09mov.b64 \09%fd2, %rd6;\0A\09add.s32 \09%r60, %r66, %r71;\0A\09add.s32 \09%r61, %r67, %r71;\0A\09mul.wide.s32 \09%rd18, %r60, 8;\0A\09add.s64 \09%rd9, %rd2, %rd18;\0A\09mul.wide.s32 \09%rd19, %r61, 8;\0A\09add.s64 \09%rd11, %rd2, %rd19;\0A\09// begin inline asm\0A\09mov.u64 %rd8, 0x0;\0A\09@%p3 ld.global.b64 { %rd8 }, [ %rd9 + 0 ];\0A\09// end inline asm\0A\09mov.b64 \09%fd3, %rd8;\0A\09// begin inline asm\0A\09mov.u64 %rd10, 0x0;\0A\09@%p4 ld.global.b64 { %rd10 }, [ %rd11 + 0 ];\0A\09// end inline asm\0A\09mov.b64 \09%fd4, %rd10;\0A\09add.rn.f64 \09%fd5, %fd1, %fd3;\0A\09add.rn.f64 \09%fd6, %fd2, %fd4;\0A\09add.s32 \09%r62, %r68, %r71;\0A\09add.s32 \09%r63, %r69, %r71;\0A\09mul.wide.s32 \09%rd20, %r62, 8;\0A\09add.s64 \09%rd13, %rd3, %rd20;\0A\09mul.wide.s32 \09%rd21, %r63, 8;\0A\09add.s64 \09%rd15, %rd3, %rd21;\0A\09mov.b64 \09%rd12, %fd5;\0A\09// begin inline asm\0A\09@%p3 st.global.b64 [ %rd13 + 0 ], { %rd12 };\0A\09// end inline asm\0A\09mov.b64 \09%rd14, %fd6;\0A\09// begin inline asm\0A\09@%p4 st.global.b64 [ %rd15 + 0 ], { %rd14 };\0A\09// end inline asm\0A\09add.s32 \09%r72, %r72, %r39;\0A\09add.s32 \09%r71, %r71, %r9;\0A\09bra.uni \09$L__BB0_3;\0A$L__BB0_6:\0A\09ret;\0A\0A}\0A") {addr_space = 0 : i32, alignment = 32 : i64}
  func.func @main() {
    %0 = llvm.mlir.addressof @ptx : !llvm.ptr
    call @cudaSetModuleImage(%0) : (!llvm.ptr) -> ()
    %c128 = arith.constant 128 : index
    %c32 = arith.constant 32 : index
    %c8 = arith.constant 8 : index
    %c1024 = arith.constant 1024 : index
    %c1 = arith.constant 1 : index
    %c0 = arith.constant 0 : index
    %cst = arith.constant 0.000000e+00 : f64
    %cst_0 = arith.constant 3.400000e+00 : f64
    %cst_1 = arith.constant 2.200000e+00 : f64
    %alloc = memref.alloc() {alignment = 32 : i64} : memref<1024x1024xf64>
    %collapse_shape = memref.collapse_shape %alloc [[0, 1]] : memref<1024x1024xf64> into memref<1048576xf64>
    %c1048576 = arith.constant 1048576 : index
    %1 = call @cudaMallocF64(%c1048576) : (index) -> index
    %alloc_2 = memref.alloc() {alignment = 32 : i64} : memref<1024x1024xf64>
    %collapse_shape_3 = memref.collapse_shape %alloc_2 [[0, 1]] : memref<1024x1024xf64> into memref<1048576xf64>
    %c1048576_4 = arith.constant 1048576 : index
    %2 = call @cudaMallocF64(%c1048576_4) : (index) -> index
    %alloc_5 = memref.alloc() {alignment = 32 : i64} : memref<1024x1024xf64>
    %collapse_shape_6 = memref.collapse_shape %alloc_5 [[0, 1]] : memref<1024x1024xf64> into memref<1048576xf64>
    %c1048576_7 = arith.constant 1048576 : index
    %3 = call @cudaMallocF64(%c1048576_7) : (index) -> index
    scf.for %arg0 = %c0 to %c1024 step %c1 {
      scf.for %arg1 = %c0 to %c1024 step %c1 {
        %6 = affine.apply #map(%arg0, %arg1)
        memref.store %cst_1, %collapse_shape[%6] : memref<1048576xf64>
      }
    }
    scf.for %arg0 = %c0 to %c1024 step %c1 {
      scf.for %arg1 = %c0 to %c1024 step %c1 {
        %6 = affine.apply #map(%arg0, %arg1)
        memref.store %cst_0, %collapse_shape_3[%6] : memref<1048576xf64>
      }
    }
    scf.for %arg0 = %c0 to %c1024 step %c1 {
      scf.for %arg1 = %c0 to %c1024 step %c1 {
        %6 = affine.apply #map(%arg0, %arg1)
        memref.store %cst, %collapse_shape_6[%6] : memref<1048576xf64>
      }
    }
    %c0_i32 = arith.constant 0 : i32
    %c0_8 = arith.constant 0 : index
    %c1_9 = arith.constant 1 : index
    %cast = memref.cast %collapse_shape : memref<1048576xf64> to memref<?xf64>
    call @cudaMemcpyF64(%1, %cast, %c0_8) : (index, memref<?xf64>, index) -> ()
    %c0_10 = arith.constant 0 : index
    %c1_11 = arith.constant 1 : index
    %cast_12 = memref.cast %collapse_shape_3 : memref<1048576xf64> to memref<?xf64>
    call @cudaMemcpyF64(%2, %cast_12, %c0_10) : (index, memref<?xf64>, index) -> ()
    %c0_13 = arith.constant 0 : index
    %c1_14 = arith.constant 1 : index
    %cast_15 = memref.cast %collapse_shape_6 : memref<1048576xf64> to memref<?xf64>
    call @cudaMemcpyF64(%3, %cast_15, %c0_13) : (index, memref<?xf64>, index) -> ()
    %c0_16 = arith.constant 0 : index
    %alloca = memref.alloca() : memref<1xindex>
    memref.store %c128, %alloca[%c0_16] : memref<1xindex>
    %intptr = memref.extract_aligned_pointer_as_index %alloca : memref<1xindex> -> index
    %alloca_17 = memref.alloca() : memref<1xindex>
    memref.store %c32, %alloca_17[%c0_16] : memref<1xindex>
    %intptr_18 = memref.extract_aligned_pointer_as_index %alloca_17 : memref<1xindex> -> index
    %alloca_19 = memref.alloca() : memref<1xindex>
    memref.store %c1024, %alloca_19[%c0_16] : memref<1xindex>
    %intptr_20 = memref.extract_aligned_pointer_as_index %alloca_19 : memref<1xindex> -> index
    %alloca_21 = memref.alloca() : memref<1xindex>
    memref.store %c1024, %alloca_21[%c0_16] : memref<1xindex>
    %intptr_22 = memref.extract_aligned_pointer_as_index %alloca_21 : memref<1xindex> -> index
    %alloca_23 = memref.alloca() : memref<1xindex>
    memref.store %1, %alloca_23[%c0_16] : memref<1xindex>
    %intptr_24 = memref.extract_aligned_pointer_as_index %alloca_23 : memref<1xindex> -> index
    %alloca_25 = memref.alloca() : memref<1xindex>
    memref.store %c1024, %alloca_25[%c0_16] : memref<1xindex>
    %intptr_26 = memref.extract_aligned_pointer_as_index %alloca_25 : memref<1xindex> -> index
    %alloca_27 = memref.alloca() : memref<1xindex>
    memref.store %2, %alloca_27[%c0_16] : memref<1xindex>
    %intptr_28 = memref.extract_aligned_pointer_as_index %alloca_27 : memref<1xindex> -> index
    %alloca_29 = memref.alloca() : memref<1xindex>
    memref.store %c1024, %alloca_29[%c0_16] : memref<1xindex>
    %intptr_30 = memref.extract_aligned_pointer_as_index %alloca_29 : memref<1xindex> -> index
    %alloca_31 = memref.alloca() : memref<1xindex>
    memref.store %3, %alloca_31[%c0_16] : memref<1xindex>
    %intptr_32 = memref.extract_aligned_pointer_as_index %alloca_31 : memref<1xindex> -> index
    %alloca_33 = memref.alloca() : memref<9xindex>
    %cast_34 = memref.cast %alloca_33 : memref<9xindex> to memref<?xindex>
    %c0_35 = arith.constant 0 : index
    memref.store %intptr, %alloca_33[%c0_35] : memref<9xindex>
    %c1_36 = arith.constant 1 : index
    memref.store %intptr_18, %alloca_33[%c1_36] : memref<9xindex>
    %c2 = arith.constant 2 : index
    memref.store %intptr_20, %alloca_33[%c2] : memref<9xindex>
    %c3 = arith.constant 3 : index
    memref.store %intptr_22, %alloca_33[%c3] : memref<9xindex>
    %c4 = arith.constant 4 : index
    memref.store %intptr_24, %alloca_33[%c4] : memref<9xindex>
    %c5 = arith.constant 5 : index
    memref.store %intptr_26, %alloca_33[%c5] : memref<9xindex>
    %c6 = arith.constant 6 : index
    memref.store %intptr_28, %alloca_33[%c6] : memref<9xindex>
    %c7 = arith.constant 7 : index
    memref.store %intptr_30, %alloca_33[%c7] : memref<9xindex>
    %c8_37 = arith.constant 8 : index
    memref.store %intptr_32, %alloca_33[%c8_37] : memref<9xindex>
    %4 = llvm.mlir.addressof @main_kernel0_str : !llvm.ptr
    %5 = llvm.getelementptr %4[0, 0] : (!llvm.ptr) -> !llvm.ptr, !llvm.array<12 x i8>
    %c4_38 = arith.constant 4 : index
    %c32_39 = arith.constant 32 : index
    %c12 = arith.constant 12 : index
    call @cudaLaunchKernel(%c32, %c128, %c1, %c32, %c8, %c1, %cast_34, %5, %c12, %c0_i32, %c4_38, %c32_39) : (index, index, index, index, index, index, memref<?xindex>, !llvm.ptr, index, i32, index, index) -> ()
    %c0_40 = arith.constant 0 : index
    %c1_41 = arith.constant 1 : index
    %cast_42 = memref.cast %collapse_shape_6 : memref<1048576xf64> to memref<?xf64>
    call @cudaMemcpyF64(%3, %cast_42, %c1_41) : (index, memref<?xf64>, index) -> ()
    %c0_43 = arith.constant 0 : index
    %c1_44 = arith.constant 1 : index
    %cast_45 = memref.cast %collapse_shape_3 : memref<1048576xf64> to memref<?xf64>
    call @cudaMemcpyF64(%2, %cast_45, %c1_44) : (index, memref<?xf64>, index) -> ()
    %c0_46 = arith.constant 0 : index
    %c1_47 = arith.constant 1 : index
    %cast_48 = memref.cast %collapse_shape : memref<1048576xf64> to memref<?xf64>
    call @cudaMemcpyF64(%1, %cast_48, %c1_47) : (index, memref<?xf64>, index) -> ()
    %cast_49 = memref.cast %alloc_5 : memref<1024x1024xf64> to memref<*xf64>
    call @comet_print_memref_f64(%cast_49) : (memref<*xf64>) -> ()
    call @cudaFree(%1) : (index) -> ()
    call @cudaFree(%2) : (index) -> ()
    call @cudaFree(%3) : (index) -> ()
    return
  }
  func.func private @comet_print_memref_f64(memref<*xf64>)
  func.func private @cudaMallocI32(index) -> index
  func.func private @cudaMallocI64(index) -> index
  func.func private @cudaMallocF32(index) -> index
  func.func private @cudaMallocF64(index) -> index
  func.func private @cudaMemcpyI32(index, memref<?xi32>, index)
  func.func private @cudaMemcpyI64(index, memref<?xi64>, index)
  func.func private @cudaMemcpyIndex(index, memref<?xindex>, index)
  func.func private @cudaMemcpyF32(index, memref<?xf32>, index)
  func.func private @cudaMemcpyF64(index, memref<?xf64>, index)
  func.func private @cudaLaunchKernel(index, index, index, index, index, index, memref<?xindex>, !llvm.ptr, index, i32, index, index)
  func.func private @cudaSetModuleImage(!llvm.ptr)
  func.func private @cudaFree(index)
}


// -----// IR Dump After ConvertVectorToSCF (convert-vector-to-scf) //----- //
func.func private @comet_print_memref_f64(memref<*xf64>)

// -----// IR Dump After ConvertVectorToSCF (convert-vector-to-scf) //----- //
func.func private @cudaMallocI32(index) -> index

// -----// IR Dump After ConvertVectorToSCF (convert-vector-to-scf) //----- //
func.func private @cudaMallocF32(index) -> index

// -----// IR Dump After LinalgLowerToLoops (convert-linalg-to-loops) //----- //
func.func private @cudaMallocF32(index) -> index

// -----// IR Dump After ConvertVectorToSCF (convert-vector-to-scf) //----- //
func.func private @cudaMallocI64(index) -> index

// -----// IR Dump After ConvertVectorToSCF (convert-vector-to-scf) //----- //
func.func private @cudaMemcpyI32(index, memref<?xi32>, index)

// -----// IR Dump After LinalgLowerToLoops (convert-linalg-to-loops) //----- //
func.func private @cudaMemcpyI32(index, memref<?xi32>, index)

// -----// IR Dump After LinalgLowerToLoops (convert-linalg-to-loops) //----- //
func.func private @comet_print_memref_f64(memref<*xf64>)

// -----// IR Dump After ConvertVectorToSCF (convert-vector-to-scf) //----- //
func.func private @cudaMemcpyF64(index, memref<?xf64>, index)

// -----// IR Dump After LinalgLowerToLoops (convert-linalg-to-loops) //----- //
func.func private @cudaMemcpyF64(index, memref<?xf64>, index)

// -----// IR Dump After LinalgLowerToLoops (convert-linalg-to-loops) //----- //
func.func private @cudaMallocI32(index) -> index

// -----// IR Dump After ConvertVectorToSCF (convert-vector-to-scf) //----- //
func.func private @cudaMallocF64(index) -> index

// -----// IR Dump After LinalgLowerToLoops (convert-linalg-to-loops) //----- //
func.func private @cudaMallocI64(index) -> index

// -----// IR Dump After ConvertVectorToSCF (convert-vector-to-scf) //----- //
func.func private @cudaMemcpyF32(index, memref<?xf32>, index)

// -----// IR Dump After LinalgLowerToLoops (convert-linalg-to-loops) //----- //
func.func private @cudaMemcpyF32(index, memref<?xf32>, index)

// -----// IR Dump After ConvertVectorToSCF (convert-vector-to-scf) //----- //
func.func private @cudaFree(index)

// -----// IR Dump After LinalgLowerToLoops (convert-linalg-to-loops) //----- //
func.func private @cudaMallocF64(index) -> index

// -----// IR Dump After ConvertVectorToSCF (convert-vector-to-scf) //----- //
func.func private @cudaMemcpyI64(index, memref<?xi64>, index)

// -----// IR Dump After LinalgLowerToLoops (convert-linalg-to-loops) //----- //
func.func private @cudaMemcpyI64(index, memref<?xi64>, index)

// -----// IR Dump After ConvertVectorToSCF (convert-vector-to-scf) //----- //
func.func private @cudaLaunchKernel(index, index, index, index, index, index, memref<?xindex>, !llvm.ptr, index, i32, index, index)

// -----// IR Dump After ConvertVectorToSCF (convert-vector-to-scf) //----- //
func.func private @cudaSetModuleImage(!llvm.ptr)

// -----// IR Dump After LinalgLowerToLoops (convert-linalg-to-loops) //----- //
func.func private @cudaFree(index)

// -----// IR Dump After ConvertVectorToSCF (convert-vector-to-scf) //----- //
func.func @main() {
  %c12 = arith.constant 12 : index
  %c7 = arith.constant 7 : index
  %c6 = arith.constant 6 : index
  %c5 = arith.constant 5 : index
  %c4 = arith.constant 4 : index
  %c3 = arith.constant 3 : index
  %c2 = arith.constant 2 : index
  %c0_i32 = arith.constant 0 : i32
  %c1048576 = arith.constant 1048576 : index
  %cst = arith.constant 2.200000e+00 : f64
  %cst_0 = arith.constant 3.400000e+00 : f64
  %cst_1 = arith.constant 0.000000e+00 : f64
  %c0 = arith.constant 0 : index
  %c1 = arith.constant 1 : index
  %c1024 = arith.constant 1024 : index
  %c8 = arith.constant 8 : index
  %c32 = arith.constant 32 : index
  %c128 = arith.constant 128 : index
  %0 = llvm.mlir.addressof @ptx : !llvm.ptr
  call @cudaSetModuleImage(%0) : (!llvm.ptr) -> ()
  %alloc = memref.alloc() {alignment = 32 : i64} : memref<1024x1024xf64>
  %collapse_shape = memref.collapse_shape %alloc [[0, 1]] : memref<1024x1024xf64> into memref<1048576xf64>
  %1 = call @cudaMallocF64(%c1048576) : (index) -> index
  %alloc_2 = memref.alloc() {alignment = 32 : i64} : memref<1024x1024xf64>
  %collapse_shape_3 = memref.collapse_shape %alloc_2 [[0, 1]] : memref<1024x1024xf64> into memref<1048576xf64>
  %2 = call @cudaMallocF64(%c1048576) : (index) -> index
  %alloc_4 = memref.alloc() {alignment = 32 : i64} : memref<1024x1024xf64>
  %collapse_shape_5 = memref.collapse_shape %alloc_4 [[0, 1]] : memref<1024x1024xf64> into memref<1048576xf64>
  %3 = call @cudaMallocF64(%c1048576) : (index) -> index
  scf.for %arg0 = %c0 to %c1024 step %c1 {
    scf.for %arg1 = %c0 to %c1024 step %c1 {
      %6 = affine.apply affine_map<(d0, d1) -> (d0 * 1024 + d1)>(%arg0, %arg1)
      memref.store %cst, %collapse_shape[%6] : memref<1048576xf64>
    }
  }
  scf.for %arg0 = %c0 to %c1024 step %c1 {
    scf.for %arg1 = %c0 to %c1024 step %c1 {
      %6 = affine.apply affine_map<(d0, d1) -> (d0 * 1024 + d1)>(%arg0, %arg1)
      memref.store %cst_0, %collapse_shape_3[%6] : memref<1048576xf64>
    }
  }
  scf.for %arg0 = %c0 to %c1024 step %c1 {
    scf.for %arg1 = %c0 to %c1024 step %c1 {
      %6 = affine.apply affine_map<(d0, d1) -> (d0 * 1024 + d1)>(%arg0, %arg1)
      memref.store %cst_1, %collapse_shape_5[%6] : memref<1048576xf64>
    }
  }
  %cast = memref.cast %collapse_shape : memref<1048576xf64> to memref<?xf64>
  call @cudaMemcpyF64(%1, %cast, %c0) : (index, memref<?xf64>, index) -> ()
  %cast_6 = memref.cast %collapse_shape_3 : memref<1048576xf64> to memref<?xf64>
  call @cudaMemcpyF64(%2, %cast_6, %c0) : (index, memref<?xf64>, index) -> ()
  %cast_7 = memref.cast %collapse_shape_5 : memref<1048576xf64> to memref<?xf64>
  call @cudaMemcpyF64(%3, %cast_7, %c0) : (index, memref<?xf64>, index) -> ()
  %alloca = memref.alloca() : memref<1xindex>
  memref.store %c128, %alloca[%c0] : memref<1xindex>
  %intptr = memref.extract_aligned_pointer_as_index %alloca : memref<1xindex> -> index
  %alloca_8 = memref.alloca() : memref<1xindex>
  memref.store %c32, %alloca_8[%c0] : memref<1xindex>
  %intptr_9 = memref.extract_aligned_pointer_as_index %alloca_8 : memref<1xindex> -> index
  %alloca_10 = memref.alloca() : memref<1xindex>
  memref.store %c1024, %alloca_10[%c0] : memref<1xindex>
  %intptr_11 = memref.extract_aligned_pointer_as_index %alloca_10 : memref<1xindex> -> index
  %alloca_12 = memref.alloca() : memref<1xindex>
  memref.store %c1024, %alloca_12[%c0] : memref<1xindex>
  %intptr_13 = memref.extract_aligned_pointer_as_index %alloca_12 : memref<1xindex> -> index
  %alloca_14 = memref.alloca() : memref<1xindex>
  memref.store %1, %alloca_14[%c0] : memref<1xindex>
  %intptr_15 = memref.extract_aligned_pointer_as_index %alloca_14 : memref<1xindex> -> index
  %alloca_16 = memref.alloca() : memref<1xindex>
  memref.store %c1024, %alloca_16[%c0] : memref<1xindex>
  %intptr_17 = memref.extract_aligned_pointer_as_index %alloca_16 : memref<1xindex> -> index
  %alloca_18 = memref.alloca() : memref<1xindex>
  memref.store %2, %alloca_18[%c0] : memref<1xindex>
  %intptr_19 = memref.extract_aligned_pointer_as_index %alloca_18 : memref<1xindex> -> index
  %alloca_20 = memref.alloca() : memref<1xindex>
  memref.store %c1024, %alloca_20[%c0] : memref<1xindex>
  %intptr_21 = memref.extract_aligned_pointer_as_index %alloca_20 : memref<1xindex> -> index
  %alloca_22 = memref.alloca() : memref<1xindex>
  memref.store %3, %alloca_22[%c0] : memref<1xindex>
  %intptr_23 = memref.extract_aligned_pointer_as_index %alloca_22 : memref<1xindex> -> index
  %alloca_24 = memref.alloca() : memref<9xindex>
  %cast_25 = memref.cast %alloca_24 : memref<9xindex> to memref<?xindex>
  memref.store %intptr, %alloca_24[%c0] : memref<9xindex>
  memref.store %intptr_9, %alloca_24[%c1] : memref<9xindex>
  memref.store %intptr_11, %alloca_24[%c2] : memref<9xindex>
  memref.store %intptr_13, %alloca_24[%c3] : memref<9xindex>
  memref.store %intptr_15, %alloca_24[%c4] : memref<9xindex>
  memref.store %intptr_17, %alloca_24[%c5] : memref<9xindex>
  memref.store %intptr_19, %alloca_24[%c6] : memref<9xindex>
  memref.store %intptr_21, %alloca_24[%c7] : memref<9xindex>
  memref.store %intptr_23, %alloca_24[%c8] : memref<9xindex>
  %4 = llvm.mlir.addressof @main_kernel0_str : !llvm.ptr
  %5 = llvm.getelementptr %4[0, 0] : (!llvm.ptr) -> !llvm.ptr, !llvm.array<12 x i8>
  call @cudaLaunchKernel(%c32, %c128, %c1, %c32, %c8, %c1, %cast_25, %5, %c12, %c0_i32, %c4, %c32) : (index, index, index, index, index, index, memref<?xindex>, !llvm.ptr, index, i32, index, index) -> ()
  %cast_26 = memref.cast %collapse_shape_5 : memref<1048576xf64> to memref<?xf64>
  call @cudaMemcpyF64(%3, %cast_26, %c1) : (index, memref<?xf64>, index) -> ()
  %cast_27 = memref.cast %collapse_shape_3 : memref<1048576xf64> to memref<?xf64>
  call @cudaMemcpyF64(%2, %cast_27, %c1) : (index, memref<?xf64>, index) -> ()
  %cast_28 = memref.cast %collapse_shape : memref<1048576xf64> to memref<?xf64>
  call @cudaMemcpyF64(%1, %cast_28, %c1) : (index, memref<?xf64>, index) -> ()
  %cast_29 = memref.cast %alloc_4 : memref<1024x1024xf64> to memref<*xf64>
  call @comet_print_memref_f64(%cast_29) : (memref<*xf64>) -> ()
  call @cudaFree(%1) : (index) -> ()
  call @cudaFree(%2) : (index) -> ()
  call @cudaFree(%3) : (index) -> ()
  return
}

// -----// IR Dump After ConvertVectorToSCF (convert-vector-to-scf) //----- //
func.func private @cudaMemcpyIndex(index, memref<?xindex>, index)

// -----// IR Dump After LinalgLowerToLoops (convert-linalg-to-loops) //----- //
func.func private @cudaMemcpyIndex(index, memref<?xindex>, index)

// -----// IR Dump After LinalgLowerToLoops (convert-linalg-to-loops) //----- //
func.func private @cudaSetModuleImage(!llvm.ptr)

// -----// IR Dump After LinalgLowerToLoops (convert-linalg-to-loops) //----- //
func.func private @cudaLaunchKernel(index, index, index, index, index, index, memref<?xindex>, !llvm.ptr, index, i32, index, index)

// -----// IR Dump After LinalgLowerToLoops (convert-linalg-to-loops) //----- //
func.func @main() {
  %c12 = arith.constant 12 : index
  %c7 = arith.constant 7 : index
  %c6 = arith.constant 6 : index
  %c5 = arith.constant 5 : index
  %c4 = arith.constant 4 : index
  %c3 = arith.constant 3 : index
  %c2 = arith.constant 2 : index
  %c0_i32 = arith.constant 0 : i32
  %c1048576 = arith.constant 1048576 : index
  %cst = arith.constant 2.200000e+00 : f64
  %cst_0 = arith.constant 3.400000e+00 : f64
  %cst_1 = arith.constant 0.000000e+00 : f64
  %c0 = arith.constant 0 : index
  %c1 = arith.constant 1 : index
  %c1024 = arith.constant 1024 : index
  %c8 = arith.constant 8 : index
  %c32 = arith.constant 32 : index
  %c128 = arith.constant 128 : index
  %0 = llvm.mlir.addressof @ptx : !llvm.ptr
  call @cudaSetModuleImage(%0) : (!llvm.ptr) -> ()
  %alloc = memref.alloc() {alignment = 32 : i64} : memref<1024x1024xf64>
  %collapse_shape = memref.collapse_shape %alloc [[0, 1]] : memref<1024x1024xf64> into memref<1048576xf64>
  %1 = call @cudaMallocF64(%c1048576) : (index) -> index
  %alloc_2 = memref.alloc() {alignment = 32 : i64} : memref<1024x1024xf64>
  %collapse_shape_3 = memref.collapse_shape %alloc_2 [[0, 1]] : memref<1024x1024xf64> into memref<1048576xf64>
  %2 = call @cudaMallocF64(%c1048576) : (index) -> index
  %alloc_4 = memref.alloc() {alignment = 32 : i64} : memref<1024x1024xf64>
  %collapse_shape_5 = memref.collapse_shape %alloc_4 [[0, 1]] : memref<1024x1024xf64> into memref<1048576xf64>
  %3 = call @cudaMallocF64(%c1048576) : (index) -> index
  scf.for %arg0 = %c0 to %c1024 step %c1 {
    scf.for %arg1 = %c0 to %c1024 step %c1 {
      %6 = affine.apply affine_map<(d0, d1) -> (d0 * 1024 + d1)>(%arg0, %arg1)
      memref.store %cst, %collapse_shape[%6] : memref<1048576xf64>
    }
  }
  scf.for %arg0 = %c0 to %c1024 step %c1 {
    scf.for %arg1 = %c0 to %c1024 step %c1 {
      %6 = affine.apply affine_map<(d0, d1) -> (d0 * 1024 + d1)>(%arg0, %arg1)
      memref.store %cst_0, %collapse_shape_3[%6] : memref<1048576xf64>
    }
  }
  scf.for %arg0 = %c0 to %c1024 step %c1 {
    scf.for %arg1 = %c0 to %c1024 step %c1 {
      %6 = affine.apply affine_map<(d0, d1) -> (d0 * 1024 + d1)>(%arg0, %arg1)
      memref.store %cst_1, %collapse_shape_5[%6] : memref<1048576xf64>
    }
  }
  %cast = memref.cast %collapse_shape : memref<1048576xf64> to memref<?xf64>
  call @cudaMemcpyF64(%1, %cast, %c0) : (index, memref<?xf64>, index) -> ()
  %cast_6 = memref.cast %collapse_shape_3 : memref<1048576xf64> to memref<?xf64>
  call @cudaMemcpyF64(%2, %cast_6, %c0) : (index, memref<?xf64>, index) -> ()
  %cast_7 = memref.cast %collapse_shape_5 : memref<1048576xf64> to memref<?xf64>
  call @cudaMemcpyF64(%3, %cast_7, %c0) : (index, memref<?xf64>, index) -> ()
  %alloca = memref.alloca() : memref<1xindex>
  memref.store %c128, %alloca[%c0] : memref<1xindex>
  %intptr = memref.extract_aligned_pointer_as_index %alloca : memref<1xindex> -> index
  %alloca_8 = memref.alloca() : memref<1xindex>
  memref.store %c32, %alloca_8[%c0] : memref<1xindex>
  %intptr_9 = memref.extract_aligned_pointer_as_index %alloca_8 : memref<1xindex> -> index
  %alloca_10 = memref.alloca() : memref<1xindex>
  memref.store %c1024, %alloca_10[%c0] : memref<1xindex>
  %intptr_11 = memref.extract_aligned_pointer_as_index %alloca_10 : memref<1xindex> -> index
  %alloca_12 = memref.alloca() : memref<1xindex>
  memref.store %c1024, %alloca_12[%c0] : memref<1xindex>
  %intptr_13 = memref.extract_aligned_pointer_as_index %alloca_12 : memref<1xindex> -> index
  %alloca_14 = memref.alloca() : memref<1xindex>
  memref.store %1, %alloca_14[%c0] : memref<1xindex>
  %intptr_15 = memref.extract_aligned_pointer_as_index %alloca_14 : memref<1xindex> -> index
  %alloca_16 = memref.alloca() : memref<1xindex>
  memref.store %c1024, %alloca_16[%c0] : memref<1xindex>
  %intptr_17 = memref.extract_aligned_pointer_as_index %alloca_16 : memref<1xindex> -> index
  %alloca_18 = memref.alloca() : memref<1xindex>
  memref.store %2, %alloca_18[%c0] : memref<1xindex>
  %intptr_19 = memref.extract_aligned_pointer_as_index %alloca_18 : memref<1xindex> -> index
  %alloca_20 = memref.alloca() : memref<1xindex>
  memref.store %c1024, %alloca_20[%c0] : memref<1xindex>
  %intptr_21 = memref.extract_aligned_pointer_as_index %alloca_20 : memref<1xindex> -> index
  %alloca_22 = memref.alloca() : memref<1xindex>
  memref.store %3, %alloca_22[%c0] : memref<1xindex>
  %intptr_23 = memref.extract_aligned_pointer_as_index %alloca_22 : memref<1xindex> -> index
  %alloca_24 = memref.alloca() : memref<9xindex>
  %cast_25 = memref.cast %alloca_24 : memref<9xindex> to memref<?xindex>
  memref.store %intptr, %alloca_24[%c0] : memref<9xindex>
  memref.store %intptr_9, %alloca_24[%c1] : memref<9xindex>
  memref.store %intptr_11, %alloca_24[%c2] : memref<9xindex>
  memref.store %intptr_13, %alloca_24[%c3] : memref<9xindex>
  memref.store %intptr_15, %alloca_24[%c4] : memref<9xindex>
  memref.store %intptr_17, %alloca_24[%c5] : memref<9xindex>
  memref.store %intptr_19, %alloca_24[%c6] : memref<9xindex>
  memref.store %intptr_21, %alloca_24[%c7] : memref<9xindex>
  memref.store %intptr_23, %alloca_24[%c8] : memref<9xindex>
  %4 = llvm.mlir.addressof @main_kernel0_str : !llvm.ptr
  %5 = llvm.getelementptr %4[0, 0] : (!llvm.ptr) -> !llvm.ptr, !llvm.array<12 x i8>
  call @cudaLaunchKernel(%c32, %c128, %c1, %c32, %c8, %c1, %cast_25, %5, %c12, %c0_i32, %c4, %c32) : (index, index, index, index, index, index, memref<?xindex>, !llvm.ptr, index, i32, index, index) -> ()
  %cast_26 = memref.cast %collapse_shape_5 : memref<1048576xf64> to memref<?xf64>
  call @cudaMemcpyF64(%3, %cast_26, %c1) : (index, memref<?xf64>, index) -> ()
  %cast_27 = memref.cast %collapse_shape_3 : memref<1048576xf64> to memref<?xf64>
  call @cudaMemcpyF64(%2, %cast_27, %c1) : (index, memref<?xf64>, index) -> ()
  %cast_28 = memref.cast %collapse_shape : memref<1048576xf64> to memref<?xf64>
  call @cudaMemcpyF64(%1, %cast_28, %c1) : (index, memref<?xf64>, index) -> ()
  %cast_29 = memref.cast %alloc_4 : memref<1024x1024xf64> to memref<*xf64>
  call @comet_print_memref_f64(%cast_29) : (memref<*xf64>) -> ()
  call @cudaFree(%1) : (index) -> ()
  call @cudaFree(%2) : (index) -> ()
  call @cudaFree(%3) : (index) -> ()
  return
}

// -----// IR Dump After ConvertAffineToStandard (lower-affine) //----- //
module attributes {gpu.container_module, "triton_gpu.compute-capability" = 70 : i32, "triton_gpu.num-ctas" = 1 : i32, "triton_gpu.num-warps" = 4 : i32, triton_gpu.shared = 0 : i32, "triton_gpu.threads-per-warp" = 32 : i32} {
  llvm.mlir.global private constant @main_kernel0_str("main_kernel0") {addr_space = 0 : i32}
  llvm.mlir.global internal @ptx("//\0A// Generated by LLVM NVPTX Back-End\0A//\0A\0A.version 6.0\0A.target sm_70\0A.address_size 64\0A\0A\09// .globl\09main_kernel0\0A.extern .shared .align 1 .b8 global_smem[];\0A\0A.visible .entry main_kernel0(\0A\09.param .u32 main_kernel0_param_0,\0A\09.param .u32 main_kernel0_param_1,\0A\09.param .u32 main_kernel0_param_2,\0A\09.param .u32 main_kernel0_param_3,\0A\09.param .u64 main_kernel0_param_4,\0A\09.param .u32 main_kernel0_param_5,\0A\09.param .u64 main_kernel0_param_6,\0A\09.param .u32 main_kernel0_param_7,\0A\09.param .u64 main_kernel0_param_8\0A)\0A.maxntid 128, 1, 1\0A{\0A\09.reg .pred \09%p<12>;\0A\09.reg .b32 \09%r<73>;\0A\09.reg .b64 \09%rd<22>;\0A\09.reg .f64 \09%fd<7>;\0A\0A\09ld.param.u64 \09%rd3, [main_kernel0_param_8];\0A\09ld.param.u64 \09%rd2, [main_kernel0_param_6];\0A\09ld.param.u64 \09%rd1, [main_kernel0_param_4];\0A\09ld.param.u32 \09%r37, [main_kernel0_param_2];\0A\09ld.param.u32 \09%r43, [main_kernel0_param_0];\0A\09ld.param.u32 \09%r44, [main_kernel0_param_1];\0A\09mov.u32 \09%r45, %tid.x;\0A\09and.b32  \09%r46, %r45, 31;\0A\09ld.param.u32 \09%r47, [main_kernel0_param_3];\0A\09bfe.u32 \09%r48, %r45, 5, 2;\0A\09// begin inline asm\0A\09mov.u32 %r38, %nctaid.y;\0A\09// end inline asm\0A\09ld.param.u32 \09%r49, [main_kernel0_param_5];\0A\09// begin inline asm\0A\09mov.u32 %r39, %nctaid.x;\0A\09// end inline asm\0A\09ld.param.u32 \09%r50, [main_kernel0_param_7];\0A\09// begin inline asm\0A\09mov.u32 %r40, %ctaid.y;\0A\09// end inline asm\0A\09// begin inline asm\0A\09mov.u32 %r41, %ctaid.x;\0A\09// end inline asm\0A\09sub.s32 \09%r3, %r43, %r40;\0A\09sub.s32 \09%r4, %r44, %r41;\0A\09shl.b32 \09%r51, %r41, 5;\0A\09shl.b32 \09%r52, %r40, 3;\0A\09or.b32  \09%r5, %r48, %r52;\0A\09or.b32  \09%r53, %r5, 4;\0A\09mul.lo.s32 \09%r69, %r50, %r53;\0A\09mul.lo.s32 \09%r54, %r38, %r50;\0A\09shl.b32 \09%r7, %r54, 3;\0A\09or.b32  \09%r8, %r51, %r46;\0A\09shl.b32 \09%r9, %r39, 5;\0A\09mul.lo.s32 \09%r68, %r50, %r5;\0A\09mul.lo.s32 \09%r67, %r49, %r53;\0A\09mul.lo.s32 \09%r55, %r38, %r49;\0A\09shl.b32 \09%r12, %r55, 3;\0A\09mul.lo.s32 \09%r66, %r49, %r5;\0A\09mul.lo.s32 \09%r65, %r47, %r53;\0A\09mul.lo.s32 \09%r56, %r38, %r47;\0A\09shl.b32 \09%r15, %r56, 3;\0A\09mul.lo.s32 \09%r64, %r47, %r5;\0A\09mov.b32 \09%r70, 0;\0A\09bra.uni \09$L__BB0_1;\0A$L__BB0_5:\0A\09add.s32 \09%r70, %r70, %r38;\0A\09add.s32 \09%r69, %r69, %r7;\0A\09add.s32 \09%r68, %r68, %r7;\0A\09add.s32 \09%r67, %r67, %r12;\0A\09add.s32 \09%r66, %r66, %r12;\0A\09add.s32 \09%r65, %r65, %r15;\0A\09add.s32 \09%r64, %r64, %r15;\0A$L__BB0_1:\0A\09setp.ge.s32 \09%p1, %r70, %r3;\0A\09@%p1 bra \09$L__BB0_6;\0A\09mad.lo.s32 \09%r24, %r70, 8, %r5;\0A\09add.s32 \09%r25, %r24, 4;\0A\09mov.b32 \09%r72, 0;\0A\09setp.lt.s32 \09%p9, %r25, %r37;\0A\09setp.lt.s32 \09%p10, %r24, %r37;\0A\09mov.u32 \09%r71, %r8;\0A$L__BB0_3:\0A\09setp.ge.s32 \09%p2, %r72, %r4;\0A\09@%p2 bra \09$L__BB0_5;\0A\09setp.lt.s32 \09%p11, %r71, %r37;\0A\09and.pred  \09%p3, %p11, %p10;\0A\09and.pred  \09%p4, %p11, %p9;\0A\09add.s32 \09%r58, %r64, %r71;\0A\09add.s32 \09%r59, %r65, %r71;\0A\09mul.wide.s32 \09%rd16, %r58, 8;\0A\09add.s64 \09%rd5, %rd1, %rd16;\0A\09mul.wide.s32 \09%rd17, %r59, 8;\0A\09add.s64 \09%rd7, %rd1, %rd17;\0A\09// begin inline asm\0A\09mov.u64 %rd4, 0x0;\0A\09@%p3 ld.global.b64 { %rd4 }, [ %rd5 + 0 ];\0A\09// end inline asm\0A\09mov.b64 \09%fd1, %rd4;\0A\09// begin inline asm\0A\09mov.u64 %rd6, 0x0;\0A\09@%p4 ld.global.b64 { %rd6 }, [ %rd7 + 0 ];\0A\09// end inline asm\0A\09mov.b64 \09%fd2, %rd6;\0A\09add.s32 \09%r60, %r66, %r71;\0A\09add.s32 \09%r61, %r67, %r71;\0A\09mul.wide.s32 \09%rd18, %r60, 8;\0A\09add.s64 \09%rd9, %rd2, %rd18;\0A\09mul.wide.s32 \09%rd19, %r61, 8;\0A\09add.s64 \09%rd11, %rd2, %rd19;\0A\09// begin inline asm\0A\09mov.u64 %rd8, 0x0;\0A\09@%p3 ld.global.b64 { %rd8 }, [ %rd9 + 0 ];\0A\09// end inline asm\0A\09mov.b64 \09%fd3, %rd8;\0A\09// begin inline asm\0A\09mov.u64 %rd10, 0x0;\0A\09@%p4 ld.global.b64 { %rd10 }, [ %rd11 + 0 ];\0A\09// end inline asm\0A\09mov.b64 \09%fd4, %rd10;\0A\09add.rn.f64 \09%fd5, %fd1, %fd3;\0A\09add.rn.f64 \09%fd6, %fd2, %fd4;\0A\09add.s32 \09%r62, %r68, %r71;\0A\09add.s32 \09%r63, %r69, %r71;\0A\09mul.wide.s32 \09%rd20, %r62, 8;\0A\09add.s64 \09%rd13, %rd3, %rd20;\0A\09mul.wide.s32 \09%rd21, %r63, 8;\0A\09add.s64 \09%rd15, %rd3, %rd21;\0A\09mov.b64 \09%rd12, %fd5;\0A\09// begin inline asm\0A\09@%p3 st.global.b64 [ %rd13 + 0 ], { %rd12 };\0A\09// end inline asm\0A\09mov.b64 \09%rd14, %fd6;\0A\09// begin inline asm\0A\09@%p4 st.global.b64 [ %rd15 + 0 ], { %rd14 };\0A\09// end inline asm\0A\09add.s32 \09%r72, %r72, %r39;\0A\09add.s32 \09%r71, %r71, %r9;\0A\09bra.uni \09$L__BB0_3;\0A$L__BB0_6:\0A\09ret;\0A\0A}\0A") {addr_space = 0 : i32, alignment = 32 : i64}
  func.func @main() {
    %c12 = arith.constant 12 : index
    %c7 = arith.constant 7 : index
    %c6 = arith.constant 6 : index
    %c5 = arith.constant 5 : index
    %c4 = arith.constant 4 : index
    %c3 = arith.constant 3 : index
    %c2 = arith.constant 2 : index
    %c0_i32 = arith.constant 0 : i32
    %c1048576 = arith.constant 1048576 : index
    %cst = arith.constant 2.200000e+00 : f64
    %cst_0 = arith.constant 3.400000e+00 : f64
    %cst_1 = arith.constant 0.000000e+00 : f64
    %c0 = arith.constant 0 : index
    %c1 = arith.constant 1 : index
    %c1024 = arith.constant 1024 : index
    %c8 = arith.constant 8 : index
    %c32 = arith.constant 32 : index
    %c128 = arith.constant 128 : index
    %0 = llvm.mlir.addressof @ptx : !llvm.ptr
    call @cudaSetModuleImage(%0) : (!llvm.ptr) -> ()
    %alloc = memref.alloc() {alignment = 32 : i64} : memref<1024x1024xf64>
    %collapse_shape = memref.collapse_shape %alloc [[0, 1]] : memref<1024x1024xf64> into memref<1048576xf64>
    %1 = call @cudaMallocF64(%c1048576) : (index) -> index
    %alloc_2 = memref.alloc() {alignment = 32 : i64} : memref<1024x1024xf64>
    %collapse_shape_3 = memref.collapse_shape %alloc_2 [[0, 1]] : memref<1024x1024xf64> into memref<1048576xf64>
    %2 = call @cudaMallocF64(%c1048576) : (index) -> index
    %alloc_4 = memref.alloc() {alignment = 32 : i64} : memref<1024x1024xf64>
    %collapse_shape_5 = memref.collapse_shape %alloc_4 [[0, 1]] : memref<1024x1024xf64> into memref<1048576xf64>
    %3 = call @cudaMallocF64(%c1048576) : (index) -> index
    scf.for %arg0 = %c0 to %c1024 step %c1 {
      scf.for %arg1 = %c0 to %c1024 step %c1 {
        %c1024_30 = arith.constant 1024 : index
        %6 = arith.muli %arg0, %c1024_30 : index
        %7 = arith.addi %6, %arg1 : index
        memref.store %cst, %collapse_shape[%7] : memref<1048576xf64>
      }
    }
    scf.for %arg0 = %c0 to %c1024 step %c1 {
      scf.for %arg1 = %c0 to %c1024 step %c1 {
        %c1024_30 = arith.constant 1024 : index
        %6 = arith.muli %arg0, %c1024_30 : index
        %7 = arith.addi %6, %arg1 : index
        memref.store %cst_0, %collapse_shape_3[%7] : memref<1048576xf64>
      }
    }
    scf.for %arg0 = %c0 to %c1024 step %c1 {
      scf.for %arg1 = %c0 to %c1024 step %c1 {
        %c1024_30 = arith.constant 1024 : index
        %6 = arith.muli %arg0, %c1024_30 : index
        %7 = arith.addi %6, %arg1 : index
        memref.store %cst_1, %collapse_shape_5[%7] : memref<1048576xf64>
      }
    }
    %cast = memref.cast %collapse_shape : memref<1048576xf64> to memref<?xf64>
    call @cudaMemcpyF64(%1, %cast, %c0) : (index, memref<?xf64>, index) -> ()
    %cast_6 = memref.cast %collapse_shape_3 : memref<1048576xf64> to memref<?xf64>
    call @cudaMemcpyF64(%2, %cast_6, %c0) : (index, memref<?xf64>, index) -> ()
    %cast_7 = memref.cast %collapse_shape_5 : memref<1048576xf64> to memref<?xf64>
    call @cudaMemcpyF64(%3, %cast_7, %c0) : (index, memref<?xf64>, index) -> ()
    %alloca = memref.alloca() : memref<1xindex>
    memref.store %c128, %alloca[%c0] : memref<1xindex>
    %intptr = memref.extract_aligned_pointer_as_index %alloca : memref<1xindex> -> index
    %alloca_8 = memref.alloca() : memref<1xindex>
    memref.store %c32, %alloca_8[%c0] : memref<1xindex>
    %intptr_9 = memref.extract_aligned_pointer_as_index %alloca_8 : memref<1xindex> -> index
    %alloca_10 = memref.alloca() : memref<1xindex>
    memref.store %c1024, %alloca_10[%c0] : memref<1xindex>
    %intptr_11 = memref.extract_aligned_pointer_as_index %alloca_10 : memref<1xindex> -> index
    %alloca_12 = memref.alloca() : memref<1xindex>
    memref.store %c1024, %alloca_12[%c0] : memref<1xindex>
    %intptr_13 = memref.extract_aligned_pointer_as_index %alloca_12 : memref<1xindex> -> index
    %alloca_14 = memref.alloca() : memref<1xindex>
    memref.store %1, %alloca_14[%c0] : memref<1xindex>
    %intptr_15 = memref.extract_aligned_pointer_as_index %alloca_14 : memref<1xindex> -> index
    %alloca_16 = memref.alloca() : memref<1xindex>
    memref.store %c1024, %alloca_16[%c0] : memref<1xindex>
    %intptr_17 = memref.extract_aligned_pointer_as_index %alloca_16 : memref<1xindex> -> index
    %alloca_18 = memref.alloca() : memref<1xindex>
    memref.store %2, %alloca_18[%c0] : memref<1xindex>
    %intptr_19 = memref.extract_aligned_pointer_as_index %alloca_18 : memref<1xindex> -> index
    %alloca_20 = memref.alloca() : memref<1xindex>
    memref.store %c1024, %alloca_20[%c0] : memref<1xindex>
    %intptr_21 = memref.extract_aligned_pointer_as_index %alloca_20 : memref<1xindex> -> index
    %alloca_22 = memref.alloca() : memref<1xindex>
    memref.store %3, %alloca_22[%c0] : memref<1xindex>
    %intptr_23 = memref.extract_aligned_pointer_as_index %alloca_22 : memref<1xindex> -> index
    %alloca_24 = memref.alloca() : memref<9xindex>
    %cast_25 = memref.cast %alloca_24 : memref<9xindex> to memref<?xindex>
    memref.store %intptr, %alloca_24[%c0] : memref<9xindex>
    memref.store %intptr_9, %alloca_24[%c1] : memref<9xindex>
    memref.store %intptr_11, %alloca_24[%c2] : memref<9xindex>
    memref.store %intptr_13, %alloca_24[%c3] : memref<9xindex>
    memref.store %intptr_15, %alloca_24[%c4] : memref<9xindex>
    memref.store %intptr_17, %alloca_24[%c5] : memref<9xindex>
    memref.store %intptr_19, %alloca_24[%c6] : memref<9xindex>
    memref.store %intptr_21, %alloca_24[%c7] : memref<9xindex>
    memref.store %intptr_23, %alloca_24[%c8] : memref<9xindex>
    %4 = llvm.mlir.addressof @main_kernel0_str : !llvm.ptr
    %5 = llvm.getelementptr %4[0, 0] : (!llvm.ptr) -> !llvm.ptr, !llvm.array<12 x i8>
    call @cudaLaunchKernel(%c32, %c128, %c1, %c32, %c8, %c1, %cast_25, %5, %c12, %c0_i32, %c4, %c32) : (index, index, index, index, index, index, memref<?xindex>, !llvm.ptr, index, i32, index, index) -> ()
    %cast_26 = memref.cast %collapse_shape_5 : memref<1048576xf64> to memref<?xf64>
    call @cudaMemcpyF64(%3, %cast_26, %c1) : (index, memref<?xf64>, index) -> ()
    %cast_27 = memref.cast %collapse_shape_3 : memref<1048576xf64> to memref<?xf64>
    call @cudaMemcpyF64(%2, %cast_27, %c1) : (index, memref<?xf64>, index) -> ()
    %cast_28 = memref.cast %collapse_shape : memref<1048576xf64> to memref<?xf64>
    call @cudaMemcpyF64(%1, %cast_28, %c1) : (index, memref<?xf64>, index) -> ()
    %cast_29 = memref.cast %alloc_4 : memref<1024x1024xf64> to memref<*xf64>
    call @comet_print_memref_f64(%cast_29) : (memref<*xf64>) -> ()
    call @cudaFree(%1) : (index) -> ()
    call @cudaFree(%2) : (index) -> ()
    call @cudaFree(%3) : (index) -> ()
    return
  }
  func.func private @comet_print_memref_f64(memref<*xf64>)
  func.func private @cudaMallocI32(index) -> index
  func.func private @cudaMallocI64(index) -> index
  func.func private @cudaMallocF32(index) -> index
  func.func private @cudaMallocF64(index) -> index
  func.func private @cudaMemcpyI32(index, memref<?xi32>, index)
  func.func private @cudaMemcpyI64(index, memref<?xi64>, index)
  func.func private @cudaMemcpyIndex(index, memref<?xindex>, index)
  func.func private @cudaMemcpyF32(index, memref<?xf32>, index)
  func.func private @cudaMemcpyF64(index, memref<?xf64>, index)
  func.func private @cudaLaunchKernel(index, index, index, index, index, index, memref<?xindex>, !llvm.ptr, index, i32, index, index)
  func.func private @cudaSetModuleImage(!llvm.ptr)
  func.func private @cudaFree(index)
}


// -----// IR Dump After ConvertSCFToOpenMPPass (convert-scf-to-openmp) //----- //
module attributes {gpu.container_module, "triton_gpu.compute-capability" = 70 : i32, "triton_gpu.num-ctas" = 1 : i32, "triton_gpu.num-warps" = 4 : i32, triton_gpu.shared = 0 : i32, "triton_gpu.threads-per-warp" = 32 : i32} {
  llvm.mlir.global private constant @main_kernel0_str("main_kernel0") {addr_space = 0 : i32}
  llvm.mlir.global internal @ptx("//\0A// Generated by LLVM NVPTX Back-End\0A//\0A\0A.version 6.0\0A.target sm_70\0A.address_size 64\0A\0A\09// .globl\09main_kernel0\0A.extern .shared .align 1 .b8 global_smem[];\0A\0A.visible .entry main_kernel0(\0A\09.param .u32 main_kernel0_param_0,\0A\09.param .u32 main_kernel0_param_1,\0A\09.param .u32 main_kernel0_param_2,\0A\09.param .u32 main_kernel0_param_3,\0A\09.param .u64 main_kernel0_param_4,\0A\09.param .u32 main_kernel0_param_5,\0A\09.param .u64 main_kernel0_param_6,\0A\09.param .u32 main_kernel0_param_7,\0A\09.param .u64 main_kernel0_param_8\0A)\0A.maxntid 128, 1, 1\0A{\0A\09.reg .pred \09%p<12>;\0A\09.reg .b32 \09%r<73>;\0A\09.reg .b64 \09%rd<22>;\0A\09.reg .f64 \09%fd<7>;\0A\0A\09ld.param.u64 \09%rd3, [main_kernel0_param_8];\0A\09ld.param.u64 \09%rd2, [main_kernel0_param_6];\0A\09ld.param.u64 \09%rd1, [main_kernel0_param_4];\0A\09ld.param.u32 \09%r37, [main_kernel0_param_2];\0A\09ld.param.u32 \09%r43, [main_kernel0_param_0];\0A\09ld.param.u32 \09%r44, [main_kernel0_param_1];\0A\09mov.u32 \09%r45, %tid.x;\0A\09and.b32  \09%r46, %r45, 31;\0A\09ld.param.u32 \09%r47, [main_kernel0_param_3];\0A\09bfe.u32 \09%r48, %r45, 5, 2;\0A\09// begin inline asm\0A\09mov.u32 %r38, %nctaid.y;\0A\09// end inline asm\0A\09ld.param.u32 \09%r49, [main_kernel0_param_5];\0A\09// begin inline asm\0A\09mov.u32 %r39, %nctaid.x;\0A\09// end inline asm\0A\09ld.param.u32 \09%r50, [main_kernel0_param_7];\0A\09// begin inline asm\0A\09mov.u32 %r40, %ctaid.y;\0A\09// end inline asm\0A\09// begin inline asm\0A\09mov.u32 %r41, %ctaid.x;\0A\09// end inline asm\0A\09sub.s32 \09%r3, %r43, %r40;\0A\09sub.s32 \09%r4, %r44, %r41;\0A\09shl.b32 \09%r51, %r41, 5;\0A\09shl.b32 \09%r52, %r40, 3;\0A\09or.b32  \09%r5, %r48, %r52;\0A\09or.b32  \09%r53, %r5, 4;\0A\09mul.lo.s32 \09%r69, %r50, %r53;\0A\09mul.lo.s32 \09%r54, %r38, %r50;\0A\09shl.b32 \09%r7, %r54, 3;\0A\09or.b32  \09%r8, %r51, %r46;\0A\09shl.b32 \09%r9, %r39, 5;\0A\09mul.lo.s32 \09%r68, %r50, %r5;\0A\09mul.lo.s32 \09%r67, %r49, %r53;\0A\09mul.lo.s32 \09%r55, %r38, %r49;\0A\09shl.b32 \09%r12, %r55, 3;\0A\09mul.lo.s32 \09%r66, %r49, %r5;\0A\09mul.lo.s32 \09%r65, %r47, %r53;\0A\09mul.lo.s32 \09%r56, %r38, %r47;\0A\09shl.b32 \09%r15, %r56, 3;\0A\09mul.lo.s32 \09%r64, %r47, %r5;\0A\09mov.b32 \09%r70, 0;\0A\09bra.uni \09$L__BB0_1;\0A$L__BB0_5:\0A\09add.s32 \09%r70, %r70, %r38;\0A\09add.s32 \09%r69, %r69, %r7;\0A\09add.s32 \09%r68, %r68, %r7;\0A\09add.s32 \09%r67, %r67, %r12;\0A\09add.s32 \09%r66, %r66, %r12;\0A\09add.s32 \09%r65, %r65, %r15;\0A\09add.s32 \09%r64, %r64, %r15;\0A$L__BB0_1:\0A\09setp.ge.s32 \09%p1, %r70, %r3;\0A\09@%p1 bra \09$L__BB0_6;\0A\09mad.lo.s32 \09%r24, %r70, 8, %r5;\0A\09add.s32 \09%r25, %r24, 4;\0A\09mov.b32 \09%r72, 0;\0A\09setp.lt.s32 \09%p9, %r25, %r37;\0A\09setp.lt.s32 \09%p10, %r24, %r37;\0A\09mov.u32 \09%r71, %r8;\0A$L__BB0_3:\0A\09setp.ge.s32 \09%p2, %r72, %r4;\0A\09@%p2 bra \09$L__BB0_5;\0A\09setp.lt.s32 \09%p11, %r71, %r37;\0A\09and.pred  \09%p3, %p11, %p10;\0A\09and.pred  \09%p4, %p11, %p9;\0A\09add.s32 \09%r58, %r64, %r71;\0A\09add.s32 \09%r59, %r65, %r71;\0A\09mul.wide.s32 \09%rd16, %r58, 8;\0A\09add.s64 \09%rd5, %rd1, %rd16;\0A\09mul.wide.s32 \09%rd17, %r59, 8;\0A\09add.s64 \09%rd7, %rd1, %rd17;\0A\09// begin inline asm\0A\09mov.u64 %rd4, 0x0;\0A\09@%p3 ld.global.b64 { %rd4 }, [ %rd5 + 0 ];\0A\09// end inline asm\0A\09mov.b64 \09%fd1, %rd4;\0A\09// begin inline asm\0A\09mov.u64 %rd6, 0x0;\0A\09@%p4 ld.global.b64 { %rd6 }, [ %rd7 + 0 ];\0A\09// end inline asm\0A\09mov.b64 \09%fd2, %rd6;\0A\09add.s32 \09%r60, %r66, %r71;\0A\09add.s32 \09%r61, %r67, %r71;\0A\09mul.wide.s32 \09%rd18, %r60, 8;\0A\09add.s64 \09%rd9, %rd2, %rd18;\0A\09mul.wide.s32 \09%rd19, %r61, 8;\0A\09add.s64 \09%rd11, %rd2, %rd19;\0A\09// begin inline asm\0A\09mov.u64 %rd8, 0x0;\0A\09@%p3 ld.global.b64 { %rd8 }, [ %rd9 + 0 ];\0A\09// end inline asm\0A\09mov.b64 \09%fd3, %rd8;\0A\09// begin inline asm\0A\09mov.u64 %rd10, 0x0;\0A\09@%p4 ld.global.b64 { %rd10 }, [ %rd11 + 0 ];\0A\09// end inline asm\0A\09mov.b64 \09%fd4, %rd10;\0A\09add.rn.f64 \09%fd5, %fd1, %fd3;\0A\09add.rn.f64 \09%fd6, %fd2, %fd4;\0A\09add.s32 \09%r62, %r68, %r71;\0A\09add.s32 \09%r63, %r69, %r71;\0A\09mul.wide.s32 \09%rd20, %r62, 8;\0A\09add.s64 \09%rd13, %rd3, %rd20;\0A\09mul.wide.s32 \09%rd21, %r63, 8;\0A\09add.s64 \09%rd15, %rd3, %rd21;\0A\09mov.b64 \09%rd12, %fd5;\0A\09// begin inline asm\0A\09@%p3 st.global.b64 [ %rd13 + 0 ], { %rd12 };\0A\09// end inline asm\0A\09mov.b64 \09%rd14, %fd6;\0A\09// begin inline asm\0A\09@%p4 st.global.b64 [ %rd15 + 0 ], { %rd14 };\0A\09// end inline asm\0A\09add.s32 \09%r72, %r72, %r39;\0A\09add.s32 \09%r71, %r71, %r9;\0A\09bra.uni \09$L__BB0_3;\0A$L__BB0_6:\0A\09ret;\0A\0A}\0A") {addr_space = 0 : i32, alignment = 32 : i64}
  func.func @main() {
    %c12 = arith.constant 12 : index
    %c7 = arith.constant 7 : index
    %c6 = arith.constant 6 : index
    %c5 = arith.constant 5 : index
    %c4 = arith.constant 4 : index
    %c3 = arith.constant 3 : index
    %c2 = arith.constant 2 : index
    %c0_i32 = arith.constant 0 : i32
    %c1048576 = arith.constant 1048576 : index
    %cst = arith.constant 2.200000e+00 : f64
    %cst_0 = arith.constant 3.400000e+00 : f64
    %cst_1 = arith.constant 0.000000e+00 : f64
    %c0 = arith.constant 0 : index
    %c1 = arith.constant 1 : index
    %c1024 = arith.constant 1024 : index
    %c8 = arith.constant 8 : index
    %c32 = arith.constant 32 : index
    %c128 = arith.constant 128 : index
    %0 = llvm.mlir.addressof @ptx : !llvm.ptr
    call @cudaSetModuleImage(%0) : (!llvm.ptr) -> ()
    %alloc = memref.alloc() {alignment = 32 : i64} : memref<1024x1024xf64>
    %collapse_shape = memref.collapse_shape %alloc [[0, 1]] : memref<1024x1024xf64> into memref<1048576xf64>
    %1 = call @cudaMallocF64(%c1048576) : (index) -> index
    %alloc_2 = memref.alloc() {alignment = 32 : i64} : memref<1024x1024xf64>
    %collapse_shape_3 = memref.collapse_shape %alloc_2 [[0, 1]] : memref<1024x1024xf64> into memref<1048576xf64>
    %2 = call @cudaMallocF64(%c1048576) : (index) -> index
    %alloc_4 = memref.alloc() {alignment = 32 : i64} : memref<1024x1024xf64>
    %collapse_shape_5 = memref.collapse_shape %alloc_4 [[0, 1]] : memref<1024x1024xf64> into memref<1048576xf64>
    %3 = call @cudaMallocF64(%c1048576) : (index) -> index
    scf.for %arg0 = %c0 to %c1024 step %c1 {
      scf.for %arg1 = %c0 to %c1024 step %c1 {
        %c1024_30 = arith.constant 1024 : index
        %6 = arith.muli %arg0, %c1024_30 : index
        %7 = arith.addi %6, %arg1 : index
        memref.store %cst, %collapse_shape[%7] : memref<1048576xf64>
      }
    }
    scf.for %arg0 = %c0 to %c1024 step %c1 {
      scf.for %arg1 = %c0 to %c1024 step %c1 {
        %c1024_30 = arith.constant 1024 : index
        %6 = arith.muli %arg0, %c1024_30 : index
        %7 = arith.addi %6, %arg1 : index
        memref.store %cst_0, %collapse_shape_3[%7] : memref<1048576xf64>
      }
    }
    scf.for %arg0 = %c0 to %c1024 step %c1 {
      scf.for %arg1 = %c0 to %c1024 step %c1 {
        %c1024_30 = arith.constant 1024 : index
        %6 = arith.muli %arg0, %c1024_30 : index
        %7 = arith.addi %6, %arg1 : index
        memref.store %cst_1, %collapse_shape_5[%7] : memref<1048576xf64>
      }
    }
    %cast = memref.cast %collapse_shape : memref<1048576xf64> to memref<?xf64>
    call @cudaMemcpyF64(%1, %cast, %c0) : (index, memref<?xf64>, index) -> ()
    %cast_6 = memref.cast %collapse_shape_3 : memref<1048576xf64> to memref<?xf64>
    call @cudaMemcpyF64(%2, %cast_6, %c0) : (index, memref<?xf64>, index) -> ()
    %cast_7 = memref.cast %collapse_shape_5 : memref<1048576xf64> to memref<?xf64>
    call @cudaMemcpyF64(%3, %cast_7, %c0) : (index, memref<?xf64>, index) -> ()
    %alloca = memref.alloca() : memref<1xindex>
    memref.store %c128, %alloca[%c0] : memref<1xindex>
    %intptr = memref.extract_aligned_pointer_as_index %alloca : memref<1xindex> -> index
    %alloca_8 = memref.alloca() : memref<1xindex>
    memref.store %c32, %alloca_8[%c0] : memref<1xindex>
    %intptr_9 = memref.extract_aligned_pointer_as_index %alloca_8 : memref<1xindex> -> index
    %alloca_10 = memref.alloca() : memref<1xindex>
    memref.store %c1024, %alloca_10[%c0] : memref<1xindex>
    %intptr_11 = memref.extract_aligned_pointer_as_index %alloca_10 : memref<1xindex> -> index
    %alloca_12 = memref.alloca() : memref<1xindex>
    memref.store %c1024, %alloca_12[%c0] : memref<1xindex>
    %intptr_13 = memref.extract_aligned_pointer_as_index %alloca_12 : memref<1xindex> -> index
    %alloca_14 = memref.alloca() : memref<1xindex>
    memref.store %1, %alloca_14[%c0] : memref<1xindex>
    %intptr_15 = memref.extract_aligned_pointer_as_index %alloca_14 : memref<1xindex> -> index
    %alloca_16 = memref.alloca() : memref<1xindex>
    memref.store %c1024, %alloca_16[%c0] : memref<1xindex>
    %intptr_17 = memref.extract_aligned_pointer_as_index %alloca_16 : memref<1xindex> -> index
    %alloca_18 = memref.alloca() : memref<1xindex>
    memref.store %2, %alloca_18[%c0] : memref<1xindex>
    %intptr_19 = memref.extract_aligned_pointer_as_index %alloca_18 : memref<1xindex> -> index
    %alloca_20 = memref.alloca() : memref<1xindex>
    memref.store %c1024, %alloca_20[%c0] : memref<1xindex>
    %intptr_21 = memref.extract_aligned_pointer_as_index %alloca_20 : memref<1xindex> -> index
    %alloca_22 = memref.alloca() : memref<1xindex>
    memref.store %3, %alloca_22[%c0] : memref<1xindex>
    %intptr_23 = memref.extract_aligned_pointer_as_index %alloca_22 : memref<1xindex> -> index
    %alloca_24 = memref.alloca() : memref<9xindex>
    %cast_25 = memref.cast %alloca_24 : memref<9xindex> to memref<?xindex>
    memref.store %intptr, %alloca_24[%c0] : memref<9xindex>
    memref.store %intptr_9, %alloca_24[%c1] : memref<9xindex>
    memref.store %intptr_11, %alloca_24[%c2] : memref<9xindex>
    memref.store %intptr_13, %alloca_24[%c3] : memref<9xindex>
    memref.store %intptr_15, %alloca_24[%c4] : memref<9xindex>
    memref.store %intptr_17, %alloca_24[%c5] : memref<9xindex>
    memref.store %intptr_19, %alloca_24[%c6] : memref<9xindex>
    memref.store %intptr_21, %alloca_24[%c7] : memref<9xindex>
    memref.store %intptr_23, %alloca_24[%c8] : memref<9xindex>
    %4 = llvm.mlir.addressof @main_kernel0_str : !llvm.ptr
    %5 = llvm.getelementptr %4[0, 0] : (!llvm.ptr) -> !llvm.ptr, !llvm.array<12 x i8>
    call @cudaLaunchKernel(%c32, %c128, %c1, %c32, %c8, %c1, %cast_25, %5, %c12, %c0_i32, %c4, %c32) : (index, index, index, index, index, index, memref<?xindex>, !llvm.ptr, index, i32, index, index) -> ()
    %cast_26 = memref.cast %collapse_shape_5 : memref<1048576xf64> to memref<?xf64>
    call @cudaMemcpyF64(%3, %cast_26, %c1) : (index, memref<?xf64>, index) -> ()
    %cast_27 = memref.cast %collapse_shape_3 : memref<1048576xf64> to memref<?xf64>
    call @cudaMemcpyF64(%2, %cast_27, %c1) : (index, memref<?xf64>, index) -> ()
    %cast_28 = memref.cast %collapse_shape : memref<1048576xf64> to memref<?xf64>
    call @cudaMemcpyF64(%1, %cast_28, %c1) : (index, memref<?xf64>, index) -> ()
    %cast_29 = memref.cast %alloc_4 : memref<1024x1024xf64> to memref<*xf64>
    call @comet_print_memref_f64(%cast_29) : (memref<*xf64>) -> ()
    call @cudaFree(%1) : (index) -> ()
    call @cudaFree(%2) : (index) -> ()
    call @cudaFree(%3) : (index) -> ()
    return
  }
  func.func private @comet_print_memref_f64(memref<*xf64>)
  func.func private @cudaMallocI32(index) -> index
  func.func private @cudaMallocI64(index) -> index
  func.func private @cudaMallocF32(index) -> index
  func.func private @cudaMallocF64(index) -> index
  func.func private @cudaMemcpyI32(index, memref<?xi32>, index)
  func.func private @cudaMemcpyI64(index, memref<?xi64>, index)
  func.func private @cudaMemcpyIndex(index, memref<?xindex>, index)
  func.func private @cudaMemcpyF32(index, memref<?xf32>, index)
  func.func private @cudaMemcpyF64(index, memref<?xf64>, index)
  func.func private @cudaLaunchKernel(index, index, index, index, index, index, memref<?xindex>, !llvm.ptr, index, i32, index, index)
  func.func private @cudaSetModuleImage(!llvm.ptr)
  func.func private @cudaFree(index)
}


// -----// IR Dump After FinalizeMemRefToLLVMConversionPass (finalize-memref-to-llvm) //----- //
module attributes {gpu.container_module, "triton_gpu.compute-capability" = 70 : i32, "triton_gpu.num-ctas" = 1 : i32, "triton_gpu.num-warps" = 4 : i32, triton_gpu.shared = 0 : i32, "triton_gpu.threads-per-warp" = 32 : i32} {
  llvm.func @malloc(i64) -> !llvm.ptr
  llvm.mlir.global private constant @main_kernel0_str("main_kernel0") {addr_space = 0 : i32}
  llvm.mlir.global internal @ptx("//\0A// Generated by LLVM NVPTX Back-End\0A//\0A\0A.version 6.0\0A.target sm_70\0A.address_size 64\0A\0A\09// .globl\09main_kernel0\0A.extern .shared .align 1 .b8 global_smem[];\0A\0A.visible .entry main_kernel0(\0A\09.param .u32 main_kernel0_param_0,\0A\09.param .u32 main_kernel0_param_1,\0A\09.param .u32 main_kernel0_param_2,\0A\09.param .u32 main_kernel0_param_3,\0A\09.param .u64 main_kernel0_param_4,\0A\09.param .u32 main_kernel0_param_5,\0A\09.param .u64 main_kernel0_param_6,\0A\09.param .u32 main_kernel0_param_7,\0A\09.param .u64 main_kernel0_param_8\0A)\0A.maxntid 128, 1, 1\0A{\0A\09.reg .pred \09%p<12>;\0A\09.reg .b32 \09%r<73>;\0A\09.reg .b64 \09%rd<22>;\0A\09.reg .f64 \09%fd<7>;\0A\0A\09ld.param.u64 \09%rd3, [main_kernel0_param_8];\0A\09ld.param.u64 \09%rd2, [main_kernel0_param_6];\0A\09ld.param.u64 \09%rd1, [main_kernel0_param_4];\0A\09ld.param.u32 \09%r37, [main_kernel0_param_2];\0A\09ld.param.u32 \09%r43, [main_kernel0_param_0];\0A\09ld.param.u32 \09%r44, [main_kernel0_param_1];\0A\09mov.u32 \09%r45, %tid.x;\0A\09and.b32  \09%r46, %r45, 31;\0A\09ld.param.u32 \09%r47, [main_kernel0_param_3];\0A\09bfe.u32 \09%r48, %r45, 5, 2;\0A\09// begin inline asm\0A\09mov.u32 %r38, %nctaid.y;\0A\09// end inline asm\0A\09ld.param.u32 \09%r49, [main_kernel0_param_5];\0A\09// begin inline asm\0A\09mov.u32 %r39, %nctaid.x;\0A\09// end inline asm\0A\09ld.param.u32 \09%r50, [main_kernel0_param_7];\0A\09// begin inline asm\0A\09mov.u32 %r40, %ctaid.y;\0A\09// end inline asm\0A\09// begin inline asm\0A\09mov.u32 %r41, %ctaid.x;\0A\09// end inline asm\0A\09sub.s32 \09%r3, %r43, %r40;\0A\09sub.s32 \09%r4, %r44, %r41;\0A\09shl.b32 \09%r51, %r41, 5;\0A\09shl.b32 \09%r52, %r40, 3;\0A\09or.b32  \09%r5, %r48, %r52;\0A\09or.b32  \09%r53, %r5, 4;\0A\09mul.lo.s32 \09%r69, %r50, %r53;\0A\09mul.lo.s32 \09%r54, %r38, %r50;\0A\09shl.b32 \09%r7, %r54, 3;\0A\09or.b32  \09%r8, %r51, %r46;\0A\09shl.b32 \09%r9, %r39, 5;\0A\09mul.lo.s32 \09%r68, %r50, %r5;\0A\09mul.lo.s32 \09%r67, %r49, %r53;\0A\09mul.lo.s32 \09%r55, %r38, %r49;\0A\09shl.b32 \09%r12, %r55, 3;\0A\09mul.lo.s32 \09%r66, %r49, %r5;\0A\09mul.lo.s32 \09%r65, %r47, %r53;\0A\09mul.lo.s32 \09%r56, %r38, %r47;\0A\09shl.b32 \09%r15, %r56, 3;\0A\09mul.lo.s32 \09%r64, %r47, %r5;\0A\09mov.b32 \09%r70, 0;\0A\09bra.uni \09$L__BB0_1;\0A$L__BB0_5:\0A\09add.s32 \09%r70, %r70, %r38;\0A\09add.s32 \09%r69, %r69, %r7;\0A\09add.s32 \09%r68, %r68, %r7;\0A\09add.s32 \09%r67, %r67, %r12;\0A\09add.s32 \09%r66, %r66, %r12;\0A\09add.s32 \09%r65, %r65, %r15;\0A\09add.s32 \09%r64, %r64, %r15;\0A$L__BB0_1:\0A\09setp.ge.s32 \09%p1, %r70, %r3;\0A\09@%p1 bra \09$L__BB0_6;\0A\09mad.lo.s32 \09%r24, %r70, 8, %r5;\0A\09add.s32 \09%r25, %r24, 4;\0A\09mov.b32 \09%r72, 0;\0A\09setp.lt.s32 \09%p9, %r25, %r37;\0A\09setp.lt.s32 \09%p10, %r24, %r37;\0A\09mov.u32 \09%r71, %r8;\0A$L__BB0_3:\0A\09setp.ge.s32 \09%p2, %r72, %r4;\0A\09@%p2 bra \09$L__BB0_5;\0A\09setp.lt.s32 \09%p11, %r71, %r37;\0A\09and.pred  \09%p3, %p11, %p10;\0A\09and.pred  \09%p4, %p11, %p9;\0A\09add.s32 \09%r58, %r64, %r71;\0A\09add.s32 \09%r59, %r65, %r71;\0A\09mul.wide.s32 \09%rd16, %r58, 8;\0A\09add.s64 \09%rd5, %rd1, %rd16;\0A\09mul.wide.s32 \09%rd17, %r59, 8;\0A\09add.s64 \09%rd7, %rd1, %rd17;\0A\09// begin inline asm\0A\09mov.u64 %rd4, 0x0;\0A\09@%p3 ld.global.b64 { %rd4 }, [ %rd5 + 0 ];\0A\09// end inline asm\0A\09mov.b64 \09%fd1, %rd4;\0A\09// begin inline asm\0A\09mov.u64 %rd6, 0x0;\0A\09@%p4 ld.global.b64 { %rd6 }, [ %rd7 + 0 ];\0A\09// end inline asm\0A\09mov.b64 \09%fd2, %rd6;\0A\09add.s32 \09%r60, %r66, %r71;\0A\09add.s32 \09%r61, %r67, %r71;\0A\09mul.wide.s32 \09%rd18, %r60, 8;\0A\09add.s64 \09%rd9, %rd2, %rd18;\0A\09mul.wide.s32 \09%rd19, %r61, 8;\0A\09add.s64 \09%rd11, %rd2, %rd19;\0A\09// begin inline asm\0A\09mov.u64 %rd8, 0x0;\0A\09@%p3 ld.global.b64 { %rd8 }, [ %rd9 + 0 ];\0A\09// end inline asm\0A\09mov.b64 \09%fd3, %rd8;\0A\09// begin inline asm\0A\09mov.u64 %rd10, 0x0;\0A\09@%p4 ld.global.b64 { %rd10 }, [ %rd11 + 0 ];\0A\09// end inline asm\0A\09mov.b64 \09%fd4, %rd10;\0A\09add.rn.f64 \09%fd5, %fd1, %fd3;\0A\09add.rn.f64 \09%fd6, %fd2, %fd4;\0A\09add.s32 \09%r62, %r68, %r71;\0A\09add.s32 \09%r63, %r69, %r71;\0A\09mul.wide.s32 \09%rd20, %r62, 8;\0A\09add.s64 \09%rd13, %rd3, %rd20;\0A\09mul.wide.s32 \09%rd21, %r63, 8;\0A\09add.s64 \09%rd15, %rd3, %rd21;\0A\09mov.b64 \09%rd12, %fd5;\0A\09// begin inline asm\0A\09@%p3 st.global.b64 [ %rd13 + 0 ], { %rd12 };\0A\09// end inline asm\0A\09mov.b64 \09%rd14, %fd6;\0A\09// begin inline asm\0A\09@%p4 st.global.b64 [ %rd15 + 0 ], { %rd14 };\0A\09// end inline asm\0A\09add.s32 \09%r72, %r72, %r39;\0A\09add.s32 \09%r71, %r71, %r9;\0A\09bra.uni \09$L__BB0_3;\0A$L__BB0_6:\0A\09ret;\0A\0A}\0A") {addr_space = 0 : i32, alignment = 32 : i64}
  func.func @main() {
    %c12 = arith.constant 12 : index
    %c7 = arith.constant 7 : index
    %0 = builtin.unrealized_conversion_cast %c7 : index to i64
    %c6 = arith.constant 6 : index
    %1 = builtin.unrealized_conversion_cast %c6 : index to i64
    %c5 = arith.constant 5 : index
    %2 = builtin.unrealized_conversion_cast %c5 : index to i64
    %c4 = arith.constant 4 : index
    %3 = builtin.unrealized_conversion_cast %c4 : index to i64
    %c3 = arith.constant 3 : index
    %4 = builtin.unrealized_conversion_cast %c3 : index to i64
    %c2 = arith.constant 2 : index
    %5 = builtin.unrealized_conversion_cast %c2 : index to i64
    %c0_i32 = arith.constant 0 : i32
    %c1048576 = arith.constant 1048576 : index
    %cst = arith.constant 2.200000e+00 : f64
    %cst_0 = arith.constant 3.400000e+00 : f64
    %cst_1 = arith.constant 0.000000e+00 : f64
    %c0 = arith.constant 0 : index
    %6 = builtin.unrealized_conversion_cast %c0 : index to i64
    %c1 = arith.constant 1 : index
    %7 = builtin.unrealized_conversion_cast %c1 : index to i64
    %c1024 = arith.constant 1024 : index
    %8 = builtin.unrealized_conversion_cast %c1024 : index to i64
    %c8 = arith.constant 8 : index
    %9 = builtin.unrealized_conversion_cast %c8 : index to i64
    %c32 = arith.constant 32 : index
    %10 = builtin.unrealized_conversion_cast %c32 : index to i64
    %c128 = arith.constant 128 : index
    %11 = builtin.unrealized_conversion_cast %c128 : index to i64
    %12 = llvm.mlir.addressof @ptx : !llvm.ptr
    call @cudaSetModuleImage(%12) : (!llvm.ptr) -> ()
    %13 = llvm.mlir.constant(1024 : index) : i64
    %14 = llvm.mlir.constant(1024 : index) : i64
    %15 = llvm.mlir.constant(1 : index) : i64
    %16 = llvm.mlir.constant(1048576 : index) : i64
    %17 = llvm.mlir.zero : !llvm.ptr
    %18 = llvm.getelementptr %17[%16] : (!llvm.ptr, i64) -> !llvm.ptr, f64
    %19 = llvm.ptrtoint %18 : !llvm.ptr to i64
    %20 = llvm.mlir.constant(32 : index) : i64
    %21 = llvm.add %19, %20  : i64
    %22 = llvm.call @malloc(%21) : (i64) -> !llvm.ptr
    %23 = llvm.ptrtoint %22 : !llvm.ptr to i64
    %24 = llvm.mlir.constant(1 : index) : i64
    %25 = llvm.sub %20, %24  : i64
    %26 = llvm.add %23, %25  : i64
    %27 = llvm.urem %26, %20  : i64
    %28 = llvm.sub %26, %27  : i64
    %29 = llvm.inttoptr %28 : i64 to !llvm.ptr
    %30 = llvm.mlir.undef : !llvm.struct<(ptr, ptr, i64, array<2 x i64>, array<2 x i64>)>
    %31 = llvm.insertvalue %22, %30[0] : !llvm.struct<(ptr, ptr, i64, array<2 x i64>, array<2 x i64>)> 
    %32 = llvm.insertvalue %29, %31[1] : !llvm.struct<(ptr, ptr, i64, array<2 x i64>, array<2 x i64>)> 
    %33 = llvm.mlir.constant(0 : index) : i64
    %34 = llvm.insertvalue %33, %32[2] : !llvm.struct<(ptr, ptr, i64, array<2 x i64>, array<2 x i64>)> 
    %35 = llvm.insertvalue %13, %34[3, 0] : !llvm.struct<(ptr, ptr, i64, array<2 x i64>, array<2 x i64>)> 
    %36 = llvm.insertvalue %14, %35[3, 1] : !llvm.struct<(ptr, ptr, i64, array<2 x i64>, array<2 x i64>)> 
    %37 = llvm.insertvalue %14, %36[4, 0] : !llvm.struct<(ptr, ptr, i64, array<2 x i64>, array<2 x i64>)> 
    %38 = llvm.insertvalue %15, %37[4, 1] : !llvm.struct<(ptr, ptr, i64, array<2 x i64>, array<2 x i64>)> 
    %39 = builtin.unrealized_conversion_cast %38 : !llvm.struct<(ptr, ptr, i64, array<2 x i64>, array<2 x i64>)> to memref<1024x1024xf64>
    %collapse_shape = memref.collapse_shape %39 [[0, 1]] : memref<1024x1024xf64> into memref<1048576xf64>
    %40 = builtin.unrealized_conversion_cast %collapse_shape : memref<1048576xf64> to !llvm.struct<(ptr, ptr, i64, array<1 x i64>, array<1 x i64>)>
    %41 = call @cudaMallocF64(%c1048576) : (index) -> index
    %42 = builtin.unrealized_conversion_cast %41 : index to i64
    %43 = llvm.mlir.constant(1024 : index) : i64
    %44 = llvm.mlir.constant(1024 : index) : i64
    %45 = llvm.mlir.constant(1 : index) : i64
    %46 = llvm.mlir.constant(1048576 : index) : i64
    %47 = llvm.mlir.zero : !llvm.ptr
    %48 = llvm.getelementptr %47[%46] : (!llvm.ptr, i64) -> !llvm.ptr, f64
    %49 = llvm.ptrtoint %48 : !llvm.ptr to i64
    %50 = llvm.mlir.constant(32 : index) : i64
    %51 = llvm.add %49, %50  : i64
    %52 = llvm.call @malloc(%51) : (i64) -> !llvm.ptr
    %53 = llvm.ptrtoint %52 : !llvm.ptr to i64
    %54 = llvm.mlir.constant(1 : index) : i64
    %55 = llvm.sub %50, %54  : i64
    %56 = llvm.add %53, %55  : i64
    %57 = llvm.urem %56, %50  : i64
    %58 = llvm.sub %56, %57  : i64
    %59 = llvm.inttoptr %58 : i64 to !llvm.ptr
    %60 = llvm.mlir.undef : !llvm.struct<(ptr, ptr, i64, array<2 x i64>, array<2 x i64>)>
    %61 = llvm.insertvalue %52, %60[0] : !llvm.struct<(ptr, ptr, i64, array<2 x i64>, array<2 x i64>)> 
    %62 = llvm.insertvalue %59, %61[1] : !llvm.struct<(ptr, ptr, i64, array<2 x i64>, array<2 x i64>)> 
    %63 = llvm.mlir.constant(0 : index) : i64
    %64 = llvm.insertvalue %63, %62[2] : !llvm.struct<(ptr, ptr, i64, array<2 x i64>, array<2 x i64>)> 
    %65 = llvm.insertvalue %43, %64[3, 0] : !llvm.struct<(ptr, ptr, i64, array<2 x i64>, array<2 x i64>)> 
    %66 = llvm.insertvalue %44, %65[3, 1] : !llvm.struct<(ptr, ptr, i64, array<2 x i64>, array<2 x i64>)> 
    %67 = llvm.insertvalue %44, %66[4, 0] : !llvm.struct<(ptr, ptr, i64, array<2 x i64>, array<2 x i64>)> 
    %68 = llvm.insertvalue %45, %67[4, 1] : !llvm.struct<(ptr, ptr, i64, array<2 x i64>, array<2 x i64>)> 
    %69 = builtin.unrealized_conversion_cast %68 : !llvm.struct<(ptr, ptr, i64, array<2 x i64>, array<2 x i64>)> to memref<1024x1024xf64>
    %collapse_shape_2 = memref.collapse_shape %69 [[0, 1]] : memref<1024x1024xf64> into memref<1048576xf64>
    %70 = builtin.unrealized_conversion_cast %collapse_shape_2 : memref<1048576xf64> to !llvm.struct<(ptr, ptr, i64, array<1 x i64>, array<1 x i64>)>
    %71 = call @cudaMallocF64(%c1048576) : (index) -> index
    %72 = builtin.unrealized_conversion_cast %71 : index to i64
    %73 = llvm.mlir.constant(1024 : index) : i64
    %74 = llvm.mlir.constant(1024 : index) : i64
    %75 = llvm.mlir.constant(1 : index) : i64
    %76 = llvm.mlir.constant(1048576 : index) : i64
    %77 = llvm.mlir.zero : !llvm.ptr
    %78 = llvm.getelementptr %77[%76] : (!llvm.ptr, i64) -> !llvm.ptr, f64
    %79 = llvm.ptrtoint %78 : !llvm.ptr to i64
    %80 = llvm.mlir.constant(32 : index) : i64
    %81 = llvm.add %79, %80  : i64
    %82 = llvm.call @malloc(%81) : (i64) -> !llvm.ptr
    %83 = llvm.ptrtoint %82 : !llvm.ptr to i64
    %84 = llvm.mlir.constant(1 : index) : i64
    %85 = llvm.sub %80, %84  : i64
    %86 = llvm.add %83, %85  : i64
    %87 = llvm.urem %86, %80  : i64
    %88 = llvm.sub %86, %87  : i64
    %89 = llvm.inttoptr %88 : i64 to !llvm.ptr
    %90 = llvm.mlir.undef : !llvm.struct<(ptr, ptr, i64, array<2 x i64>, array<2 x i64>)>
    %91 = llvm.insertvalue %82, %90[0] : !llvm.struct<(ptr, ptr, i64, array<2 x i64>, array<2 x i64>)> 
    %92 = llvm.insertvalue %89, %91[1] : !llvm.struct<(ptr, ptr, i64, array<2 x i64>, array<2 x i64>)> 
    %93 = llvm.mlir.constant(0 : index) : i64
    %94 = llvm.insertvalue %93, %92[2] : !llvm.struct<(ptr, ptr, i64, array<2 x i64>, array<2 x i64>)> 
    %95 = llvm.insertvalue %73, %94[3, 0] : !llvm.struct<(ptr, ptr, i64, array<2 x i64>, array<2 x i64>)> 
    %96 = llvm.insertvalue %74, %95[3, 1] : !llvm.struct<(ptr, ptr, i64, array<2 x i64>, array<2 x i64>)> 
    %97 = llvm.insertvalue %74, %96[4, 0] : !llvm.struct<(ptr, ptr, i64, array<2 x i64>, array<2 x i64>)> 
    %98 = llvm.insertvalue %75, %97[4, 1] : !llvm.struct<(ptr, ptr, i64, array<2 x i64>, array<2 x i64>)> 
    %99 = builtin.unrealized_conversion_cast %98 : !llvm.struct<(ptr, ptr, i64, array<2 x i64>, array<2 x i64>)> to memref<1024x1024xf64>
    %collapse_shape_3 = memref.collapse_shape %99 [[0, 1]] : memref<1024x1024xf64> into memref<1048576xf64>
    %100 = builtin.unrealized_conversion_cast %collapse_shape_3 : memref<1048576xf64> to !llvm.struct<(ptr, ptr, i64, array<1 x i64>, array<1 x i64>)>
    %101 = call @cudaMallocF64(%c1048576) : (index) -> index
    %102 = builtin.unrealized_conversion_cast %101 : index to i64
    scf.for %arg0 = %c0 to %c1024 step %c1 {
      scf.for %arg1 = %c0 to %c1024 step %c1 {
        %c1024_4 = arith.constant 1024 : index
        %273 = arith.muli %arg0, %c1024_4 : index
        %274 = arith.addi %273, %arg1 : index
        %275 = builtin.unrealized_conversion_cast %274 : index to i64
        %276 = llvm.extractvalue %40[1] : !llvm.struct<(ptr, ptr, i64, array<1 x i64>, array<1 x i64>)> 
        %277 = llvm.getelementptr %276[%275] : (!llvm.ptr, i64) -> !llvm.ptr, f64
        llvm.store %cst, %277 : f64, !llvm.ptr
      }
    }
    scf.for %arg0 = %c0 to %c1024 step %c1 {
      scf.for %arg1 = %c0 to %c1024 step %c1 {
        %c1024_4 = arith.constant 1024 : index
        %273 = arith.muli %arg0, %c1024_4 : index
        %274 = arith.addi %273, %arg1 : index
        %275 = builtin.unrealized_conversion_cast %274 : index to i64
        %276 = llvm.extractvalue %70[1] : !llvm.struct<(ptr, ptr, i64, array<1 x i64>, array<1 x i64>)> 
        %277 = llvm.getelementptr %276[%275] : (!llvm.ptr, i64) -> !llvm.ptr, f64
        llvm.store %cst_0, %277 : f64, !llvm.ptr
      }
    }
    scf.for %arg0 = %c0 to %c1024 step %c1 {
      scf.for %arg1 = %c0 to %c1024 step %c1 {
        %c1024_4 = arith.constant 1024 : index
        %273 = arith.muli %arg0, %c1024_4 : index
        %274 = arith.addi %273, %arg1 : index
        %275 = builtin.unrealized_conversion_cast %274 : index to i64
        %276 = llvm.extractvalue %100[1] : !llvm.struct<(ptr, ptr, i64, array<1 x i64>, array<1 x i64>)> 
        %277 = llvm.getelementptr %276[%275] : (!llvm.ptr, i64) -> !llvm.ptr, f64
…
    llvm.store %7, %144 : i64, !llvm.ptr
    %145 = llvm.ptrtoint %144 : !llvm.ptr to i64
    %146 = llvm.alloca %4 x i64 : (i64) -> !llvm.ptr
    llvm.store %9, %146 : i64, !llvm.ptr
    %147 = llvm.ptrtoint %146 : !llvm.ptr to i64
    %148 = llvm.alloca %4 x i64 : (i64) -> !llvm.ptr
    llvm.store %9, %148 : i64, !llvm.ptr
    %149 = llvm.ptrtoint %148 : !llvm.ptr to i64
    %150 = llvm.alloca %4 x i64 : (i64) -> !llvm.ptr
    llvm.store %58, %150 : i64, !llvm.ptr
    %151 = llvm.ptrtoint %150 : !llvm.ptr to i64
    %152 = llvm.alloca %4 x i64 : (i64) -> !llvm.ptr
    llvm.store %9, %152 : i64, !llvm.ptr
    %153 = llvm.ptrtoint %152 : !llvm.ptr to i64
    %154 = llvm.alloca %4 x i64 : (i64) -> !llvm.ptr
    llvm.store %86, %154 : i64, !llvm.ptr
    %155 = llvm.ptrtoint %154 : !llvm.ptr to i64
    %156 = llvm.alloca %4 x i64 : (i64) -> !llvm.ptr
    llvm.store %9, %156 : i64, !llvm.ptr
    %157 = llvm.ptrtoint %156 : !llvm.ptr to i64
    %158 = llvm.alloca %4 x i64 : (i64) -> !llvm.ptr
    llvm.store %114, %158 : i64, !llvm.ptr
    %159 = llvm.ptrtoint %158 : !llvm.ptr to i64
    %160 = llvm.alloca %1 x i64 : (i64) -> !llvm.ptr
    %161 = llvm.mlir.undef : !llvm.struct<(ptr, ptr, i64, array<1 x i64>, array<1 x i64>)>
    %162 = llvm.insertvalue %160, %161[0] : !llvm.struct<(ptr, ptr, i64, array<1 x i64>, array<1 x i64>)> 
    %163 = llvm.insertvalue %160, %162[1] : !llvm.struct<(ptr, ptr, i64, array<1 x i64>, array<1 x i64>)> 
    %164 = llvm.insertvalue %2, %163[2] : !llvm.struct<(ptr, ptr, i64, array<1 x i64>, array<1 x i64>)> 
    %165 = llvm.insertvalue %1, %164[3, 0] : !llvm.struct<(ptr, ptr, i64, array<1 x i64>, array<1 x i64>)> 
    %166 = llvm.insertvalue %4, %165[4, 0] : !llvm.struct<(ptr, ptr, i64, array<1 x i64>, array<1 x i64>)> 
    llvm.store %143, %160 : i64, !llvm.ptr
    %167 = llvm.getelementptr %160[1] : (!llvm.ptr) -> !llvm.ptr, i64
    llvm.store %145, %167 : i64, !llvm.ptr
    %168 = llvm.getelementptr %160[2] : (!llvm.ptr) -> !llvm.ptr, i64
    llvm.store %147, %168 : i64, !llvm.ptr
    %169 = llvm.getelementptr %160[3] : (!llvm.ptr) -> !llvm.ptr, i64
    llvm.store %149, %169 : i64, !llvm.ptr
    %170 = llvm.getelementptr %160[4] : (!llvm.ptr) -> !llvm.ptr, i64
    llvm.store %151, %170 : i64, !llvm.ptr
    %171 = llvm.getelementptr %160[5] : (!llvm.ptr) -> !llvm.ptr, i64
    llvm.store %153, %171 : i64, !llvm.ptr
    %172 = llvm.getelementptr %160[6] : (!llvm.ptr) -> !llvm.ptr, i64
    llvm.store %155, %172 : i64, !llvm.ptr
    %173 = llvm.getelementptr %160[7] : (!llvm.ptr) -> !llvm.ptr, i64
    llvm.store %157, %173 : i64, !llvm.ptr
    %174 = llvm.getelementptr %160[8] : (!llvm.ptr) -> !llvm.ptr, i64
    llvm.store %159, %174 : i64, !llvm.ptr
    %175 = llvm.mlir.addressof @main_kernel0_str : !llvm.ptr
    %176 = llvm.getelementptr %175[0, 0] : (!llvm.ptr) -> !llvm.ptr, !llvm.array<12 x i8>
    llvm.call @cudaLaunchKernel(%7, %6, %10, %7, %8, %10, %160, %160, %2, %1, %4, %176, %22, %16, %19, %7) : (i64, i64, i64, i64, i64, i64, !llvm.ptr, !llvm.ptr, i64, i64, i64, !llvm.ptr, i64, i32, i64, i64) -> ()
    llvm.call @cudaMemcpyF64(%114, %87, %92, %108, %110, %112, %10) : (i64, !llvm.ptr, !llvm.ptr, i64, i64, i64, i64) -> ()
    llvm.call @cudaMemcpyF64(%86, %59, %64, %80, %82, %84, %10) : (i64, !llvm.ptr, !llvm.ptr, i64, i64, i64, i64) -> ()
    llvm.call @cudaMemcpyF64(%58, %29, %35, %52, %54, %56, %10) : (i64, !llvm.ptr, !llvm.ptr, i64, i64, i64, i64) -> ()
    %177 = llvm.alloca %4 x !llvm.struct<(ptr, ptr, i64, array<2 x i64>, array<2 x i64>)> : (i64) -> !llvm.ptr
    llvm.store %99, %177 : !llvm.struct<(ptr, ptr, i64, array<2 x i64>, array<2 x i64>)>, !llvm.ptr
    %178 = llvm.mlir.undef : !llvm.struct<(i64, ptr)>
    %179 = llvm.insertvalue %0, %178[0] : !llvm.struct<(i64, ptr)> 
    %180 = llvm.insertvalue %177, %179[1] : !llvm.struct<(i64, ptr)> 
    llvm.call @comet_print_memref_f64(%0, %177) : (i64, !llvm.ptr) -> ()
    llvm.call @cudaFree(%58) : (i64) -> ()
    llvm.call @cudaFree(%86) : (i64) -> ()
    llvm.call @cudaFree(%114) : (i64) -> ()
    llvm.return
  }
  llvm.func @comet_print_memref_f64(i64, !llvm.ptr) attributes {sym_visibility = "private"}
  llvm.func @cudaMallocI32(i64) -> i64 attributes {sym_visibility = "private"}
  llvm.func @cudaMallocI64(i64) -> i64 attributes {sym_visibility = "private"}
  llvm.func @cudaMallocF32(i64) -> i64 attributes {sym_visibility = "private"}
  llvm.func @cudaMallocF64(i64) -> i64 attributes {sym_visibility = "private"}
  llvm.func @cudaMemcpyI32(i64, !llvm.ptr, !llvm.ptr, i64, i64, i64, i64) attributes {sym_visibility = "private"}
  llvm.func @cudaMemcpyI64(i64, !llvm.ptr, !llvm.ptr, i64, i64, i64, i64) attributes {sym_visibility = "private"}
  llvm.func @cudaMemcpyIndex(i64, !llvm.ptr, !llvm.ptr, i64, i64, i64, i64) attributes {sym_visibility = "private"}
  llvm.func @cudaMemcpyF32(i64, !llvm.ptr, !llvm.ptr, i64, i64, i64, i64) attributes {sym_visibility = "private"}
  llvm.func @cudaMemcpyF64(i64, !llvm.ptr, !llvm.ptr, i64, i64, i64, i64) attributes {sym_visibility = "private"}
  llvm.func @cudaLaunchKernel(i64, i64, i64, i64, i64, i64, !llvm.ptr, !llvm.ptr, i64, i64, i64, !llvm.ptr, i64, i32, i64, i64) attributes {sym_visibility = "private"}
  llvm.func @cudaSetModuleImage(!llvm.ptr) attributes {sym_visibility = "private"}
  llvm.func @cudaFree(i64) attributes {sym_visibility = "private"}
}


// -----// IR Dump After Canonicalizer (canonicalize) //----- //
module attributes {gpu.container_module, "triton_gpu.compute-capability" = 70 : i32, "triton_gpu.num-ctas" = 1 : i32, "triton_gpu.num-warps" = 4 : i32, triton_gpu.shared = 0 : i32, "triton_gpu.threads-per-warp" = 32 : i32} {
  llvm.func @malloc(i64) -> !llvm.ptr
  llvm.mlir.global private constant @main_kernel0_str("main_kernel0") {addr_space = 0 : i32}
  llvm.mlir.global internal @ptx("//\0A// Generated by LLVM NVPTX Back-End\0A//\0A\0A.version 6.0\0A.target sm_70\0A.address_size 64\0A\0A\09// .globl\09main_kernel0\0A.extern .shared .align 1 .b8 global_smem[];\0A\0A.visible .entry main_kernel0(\0A\09.param .u32 main_kernel0_param_0,\0A\09.param .u32 main_kernel0_param_1,\0A\09.param .u32 main_kernel0_param_2,\0A\09.param .u32 main_kernel0_param_3,\0A\09.param .u64 main_kernel0_param_4,\0A\09.param .u32 main_kernel0_param_5,\0A\09.param .u64 main_kernel0_param_6,\0A\09.param .u32 main_kernel0_param_7,\0A\09.param .u64 main_kernel0_param_8\0A)\0A.maxntid 128, 1, 1\0A{\0A\09.reg .pred \09%p<12>;\0A\09.reg .b32 \09%r<73>;\0A\09.reg .b64 \09%rd<22>;\0A\09.reg .f64 \09%fd<7>;\0A\0A\09ld.param.u64 \09%rd3, [main_kernel0_param_8];\0A\09ld.param.u64 \09%rd2, [main_kernel0_param_6];\0A\09ld.param.u64 \09%rd1, [main_kernel0_param_4];\0A\09ld.param.u32 \09%r37, [main_kernel0_param_2];\0A\09ld.param.u32 \09%r43, [main_kernel0_param_0];\0A\09ld.param.u32 \09%r44, [main_kernel0_param_1];\0A\09mov.u32 \09%r45, %tid.x;\0A\09and.b32  \09%r46, %r45, 31;\0A\09ld.param.u32 \09%r47, [main_kernel0_param_3];\0A\09bfe.u32 \09%r48, %r45, 5, 2;\0A\09// begin inline asm\0A\09mov.u32 %r38, %nctaid.y;\0A\09// end inline asm\0A\09ld.param.u32 \09%r49, [main_kernel0_param_5];\0A\09// begin inline asm\0A\09mov.u32 %r39, %nctaid.x;\0A\09// end inline asm\0A\09ld.param.u32 \09%r50, [main_kernel0_param_7];\0A\09// begin inline asm\0A\09mov.u32 %r40, %ctaid.y;\0A\09// end inline asm\0A\09// begin inline asm\0A\09mov.u32 %r41, %ctaid.x;\0A\09// end inline asm\0A\09sub.s32 \09%r3, %r43, %r40;\0A\09sub.s32 \09%r4, %r44, %r41;\0A\09shl.b32 \09%r51, %r41, 5;\0A\09shl.b32 \09%r52, %r40, 3;\0A\09or.b32  \09%r5, %r48, %r52;\0A\09or.b32  \09%r53, %r5, 4;\0A\09mul.lo.s32 \09%r69, %r50, %r53;\0A\09mul.lo.s32 \09%r54, %r38, %r50;\0A\09shl.b32 \09%r7, %r54, 3;\0A\09or.b32  \09%r8, %r51, %r46;\0A\09shl.b32 \09%r9, %r39, 5;\0A\09mul.lo.s32 \09%r68, %r50, %r5;\0A\09mul.lo.s32 \09%r67, %r49, %r53;\0A\09mul.lo.s32 \09%r55, %r38, %r49;\0A\09shl.b32 \09%r12, %r55, 3;\0A\09mul.lo.s32 \09%r66, %r49, %r5;\0A\09mul.lo.s32 \09%r65, %r47, %r53;\0A\09mul.lo.s32 \09%r56, %r38, %r47;\0A\09shl.b32 \09%r15, %r56, 3;\0A\09mul.lo.s32 \09%r64, %r47, %r5;\0A\09mov.b32 \09%r70, 0;\0A\09bra.uni \09$L__BB0_1;\0A$L__BB0_5:\0A\09add.s32 \09%r70, %r70, %r38;\0A\09add.s32 \09%r69, %r69, %r7;\0A\09add.s32 \09%r68, %r68, %r7;\0A\09add.s32 \09%r67, %r67, %r12;\0A\09add.s32 \09%r66, %r66, %r12;\0A\09add.s32 \09%r65, %r65, %r15;\0A\09add.s32 \09%r64, %r64, %r15;\0A$L__BB0_1:\0A\09setp.ge.s32 \09%p1, %r70, %r3;\0A\09@%p1 bra \09$L__BB0_6;\0A\09mad.lo.s32 \09%r24, %r70, 8, %r5;\0A\09add.s32 \09%r25, %r24, 4;\0A\09mov.b32 \09%r72, 0;\0A\09setp.lt.s32 \09%p9, %r25, %r37;\0A\09setp.lt.s32 \09%p10, %r24, %r37;\0A\09mov.u32 \09%r71, %r8;\0A$L__BB0_3:\0A\09setp.ge.s32 \09%p2, %r72, %r4;\0A\09@%p2 bra \09$L__BB0_5;\0A\09setp.lt.s32 \09%p11, %r71, %r37;\0A\09and.pred  \09%p3, %p11, %p10;\0A\09and.pred  \09%p4, %p11, %p9;\0A\09add.s32 \09%r58, %r64, %r71;\0A\09add.s32 \09%r59, %r65, %r71;\0A\09mul.wide.s32 \09%rd16, %r58, 8;\0A\09add.s64 \09%rd5, %rd1, %rd16;\0A\09mul.wide.s32 \09%rd17, %r59, 8;\0A\09add.s64 \09%rd7, %rd1, %rd17;\0A\09// begin inline asm\0A\09mov.u64 %rd4, 0x0;\0A\09@%p3 ld.global.b64 { %rd4 }, [ %rd5 + 0 ];\0A\09// end inline asm\0A\09mov.b64 \09%fd1, %rd4;\0A\09// begin inline asm\0A\09mov.u64 %rd6, 0x0;\0A\09@%p4 ld.global.b64 { %rd6 }, [ %rd7 + 0 ];\0A\09// end inline asm\0A\09mov.b64 \09%fd2, %rd6;\0A\09add.s32 \09%r60, %r66, %r71;\0A\09add.s32 \09%r61, %r67, %r71;\0A\09mul.wide.s32 \09%rd18, %r60, 8;\0A\09add.s64 \09%rd9, %rd2, %rd18;\0A\09mul.wide.s32 \09%rd19, %r61, 8;\0A\09add.s64 \09%rd11, %rd2, %rd19;\0A\09// begin inline asm\0A\09mov.u64 %rd8, 0x0;\0A\09@%p3 ld.global.b64 { %rd8 }, [ %rd9 + 0 ];\0A\09// end inline asm\0A\09mov.b64 \09%fd3, %rd8;\0A\09// begin inline asm\0A\09mov.u64 %rd10, 0x0;\0A\09@%p4 ld.global.b64 { %rd10 }, [ %rd11 + 0 ];\0A\09// end inline asm\0A\09mov.b64 \09%fd4, %rd10;\0A\09add.rn.f64 \09%fd5, %fd1, %fd3;\0A\09add.rn.f64 \09%fd6, %fd2, %fd4;\0A\09add.s32 \09%r62, %r68, %r71;\0A\09add.s32 \09%r63, %r69, %r71;\0A\09mul.wide.s32 \09%rd20, %r62, 8;\0A\09add.s64 \09%rd13, %rd3, %rd20;\0A\09mul.wide.s32 \09%rd21, %r63, 8;\0A\09add.s64 \09%rd15, %rd3, %rd21;\0A\09mov.b64 \09%rd12, %fd5;\0A\09// begin inline asm\0A\09@%p3 st.global.b64 [ %rd13 + 0 ], { %rd12 };\0A\09// end inline asm\0A\09mov.b64 \09%rd14, %fd6;\0A\09// begin inline asm\0A\09@%p4 st.global.b64 [ %rd15 + 0 ], { %rd14 };\0A\09// end inline asm\0A\09add.s32 \09%r72, %r72, %r39;\0A\09add.s32 \09%r71, %r71, %r9;\0A\09bra.uni \09$L__BB0_3;\0A$L__BB0_6:\0A\09ret;\0A\0A}\0A") {addr_space = 0 : i32, alignment = 32 : i64}
  llvm.func @main() {
    %0 = llvm.mlir.constant(2 : index) : i64
    %1 = llvm.mlir.constant(9 : index) : i64
    %2 = llvm.mlir.constant(0 : index) : i64
    %3 = llvm.mlir.constant(32 : index) : i64
    %4 = llvm.mlir.constant(1 : index) : i64
    %5 = llvm.mlir.constant(1024 : index) : i64
    %6 = llvm.mlir.constant(128 : index) : i64
    %7 = llvm.mlir.constant(8 : index) : i64
    %8 = llvm.mlir.constant(0.000000e+00 : f64) : f64
    %9 = llvm.mlir.constant(3.400000e+00 : f64) : f64
    %10 = llvm.mlir.constant(2.200000e+00 : f64) : f64
    %11 = llvm.mlir.constant(1048576 : index) : i64
    %12 = llvm.mlir.constant(0 : i32) : i32
    %13 = llvm.mlir.constant(4 : index) : i64
    %14 = llvm.mlir.constant(12 : index) : i64
    %15 = llvm.mlir.addressof @ptx : !llvm.ptr
    llvm.call @cudaSetModuleImage(%15) : (!llvm.ptr) -> ()
    %16 = llvm.mlir.zero : !llvm.ptr
    %17 = llvm.getelementptr %16[1048576] : (!llvm.ptr) -> !llvm.ptr, f64
    %18 = llvm.ptrtoint %17 : !llvm.ptr to i64
    %19 = llvm.add %18, %3  : i64
    %20 = llvm.call @malloc(%19) : (i64) -> !llvm.ptr
    %21 = llvm.ptrtoint %20 : !llvm.ptr to i64
    %22 = llvm.sub %3, %4  : i64
    %23 = llvm.add %21, %22  : i64
    %24 = llvm.urem %23, %3  : i64
    %25 = llvm.sub %23, %24  : i64
    %26 = llvm.inttoptr %25 : i64 to !llvm.ptr
    %27 = llvm.mlir.undef : !llvm.struct<(ptr, ptr, i64, array<2 x i64>, array<2 x i64>)>
    %28 = llvm.call @cudaMallocF64(%11) : (i64) -> i64
    %29 = llvm.call @malloc(%19) : (i64) -> !llvm.ptr
    %30 = llvm.ptrtoint %29 : !llvm.ptr to i64
    %31 = llvm.add %30, %22  : i64
    %32 = llvm.urem %31, %3  : i64
    %33 = llvm.sub %31, %32  : i64
    %34 = llvm.inttoptr %33 : i64 to !llvm.ptr
    %35 = llvm.call @cudaMallocF64(%11) : (i64) -> i64
    %36 = llvm.call @malloc(%19) : (i64) -> !llvm.ptr
    %37 = llvm.ptrtoint %36 : !llvm.ptr to i64
    %38 = llvm.add %37, %22  : i64
    %39 = llvm.urem %38, %3  : i64
    %40 = llvm.sub %38, %39  : i64
    %41 = llvm.inttoptr %40 : i64 to !llvm.ptr
    %42 = llvm.insertvalue %36, %27[0] : !llvm.struct<(ptr, ptr, i64, array<2 x i64>, array<2 x i64>)> 
    %43 = llvm.insertvalue %41, %42[1] : !llvm.struct<(ptr, ptr, i64, array<2 x i64>, array<2 x i64>)> 
    %44 = llvm.insertvalue %2, %43[2] : !llvm.struct<(ptr, ptr, i64, array<2 x i64>, array<2 x i64>)> 
    %45 = llvm.insertvalue %5, %44[3, 0] : !llvm.struct<(ptr, ptr, i64, array<2 x i64>, array<2 x i64>)> 
    %46 = llvm.insertvalue %5, %45[3, 1] : !llvm.struct<(ptr, ptr, i64, array<2 x i64>, array<2 x i64>)> 
    %47 = llvm.insertvalue %5, %46[4, 0] : !llvm.struct<(ptr, ptr, i64, array<2 x i64>, array<2 x i64>)> 
    %48 = llvm.insertvalue %4, %47[4, 1] : !llvm.struct<(ptr, ptr, i64, array<2 x i64>, array<2 x i64>)> 
    %49 = llvm.call @cudaMallocF64(%11) : (i64) -> i64
    llvm.br ^bb1(%2 : i64)
  ^bb1(%50: i64):  // 2 preds: ^bb0, ^bb4
    %51 = llvm.icmp "slt" %50, %5 : i64
    llvm.cond_br %51, ^bb2(%2 : i64), ^bb5(%2 : i64)
  ^bb2(%52: i64):  // 2 preds: ^bb1, ^bb3
    %53 = llvm.icmp "slt" %52, %5 : i64
    llvm.cond_br %53, ^bb3, ^bb4
  ^bb3:  // pred: ^bb2
    %54 = llvm.mul %50, %5  : i64
    %55 = llvm.add %54, %52  : i64
    %56 = llvm.getelementptr %26[%55] : (!llvm.ptr, i64) -> !llvm.ptr, f64
    llvm.store %10, %56 : f64, !llvm.ptr
    %57 = llvm.add %52, %4  : i64
    llvm.br ^bb2(%57 : i64)
  ^bb4:  // pred: ^bb2
    %58 = llvm.add %50, %4  : i64
    llvm.br ^bb1(%58 : i64)
  ^bb5(%59: i64):  // 2 preds: ^bb1, ^bb8
    %60 = llvm.icmp "slt" %59, %5 : i64
    llvm.cond_br %60, ^bb6(%2 : i64), ^bb9(%2 : i64)
  ^bb6(%61: i64):  // 2 preds: ^bb5, ^bb7
    %62 = llvm.icmp "slt" %61, %5 : i64
    llvm.cond_br %62, ^bb7, ^bb8
  ^bb7:  // pred: ^bb6
    %63 = llvm.mul %59, %5  : i64
    %64 = llvm.add %63, %61  : i64
    %65 = llvm.getelementptr %34[%64] : (!llvm.ptr, i64) -> !llvm.ptr, f64
    llvm.store %9, %65 : f64, !llvm.ptr
    %66 = llvm.add %61, %4  : i64
    llvm.br ^bb6(%66 : i64)
  ^bb8:  // pred: ^bb6
    %67 = llvm.add %59, %4  : i64
    llvm.br ^bb5(%67 : i64)
  ^bb9(%68: i64):  // 2 preds: ^bb5, ^bb12
    %69 = llvm.icmp "slt" %68, %5 : i64
    llvm.cond_br %69, ^bb10(%2 : i64), ^bb13
  ^bb10(%70: i64):  // 2 preds: ^bb9, ^bb11
    %71 = llvm.icmp "slt" %70, %5 : i64
    llvm.cond_br %71, ^bb11, ^bb12
  ^bb11:  // pred: ^bb10
    %72 = llvm.mul %68, %5  : i64
    %73 = llvm.add %72, %70  : i64
    %74 = llvm.getelementptr %41[%73] : (!llvm.ptr, i64) -> !llvm.ptr, f64
    llvm.store %8, %74 : f64, !llvm.ptr
    %75 = llvm.add %70, %4  : i64
    llvm.br ^bb10(%75 : i64)
  ^bb12:  // pred: ^bb10
    %76 = llvm.add %68, %4  : i64
    llvm.br ^bb9(%76 : i64)
  ^bb13:  // pred: ^bb9
    llvm.call @cudaMemcpyF64(%28, %20, %26, %2, %11, %4, %2) : (i64, !llvm.ptr, !llvm.ptr, i64, i64, i64, i64) -> ()
    llvm.call @cudaMemcpyF64(%35, %29, %34, %2, %11, %4, %2) : (i64, !llvm.ptr, !llvm.ptr, i64, i64, i64, i64) -> ()
    llvm.call @cudaMemcpyF64(%49, %36, %41, %2, %11, %4, %2) : (i64, !llvm.ptr, !llvm.ptr, i64, i64, i64, i64) -> ()
    %77 = llvm.alloca %4 x i64 : (i64) -> !llvm.ptr
    llvm.store %6, %77 : i64, !llvm.ptr
    %78 = llvm.ptrtoint %77 : !llvm.ptr to i64
    %79 = llvm.alloca %4 x i64 : (i64) -> !llvm.ptr
    llvm.store %3, %79 : i64, !llvm.ptr
    %80 = llvm.ptrtoint %79 : !llvm.ptr to i64
    %81 = llvm.alloca %4 x i64 : (i64) -> !llvm.ptr
    llvm.store %5, %81 : i64, !llvm.ptr
    %82 = llvm.ptrtoint %81 : !llvm.ptr to i64
    %83 = llvm.alloca %4 x i64 : (i64) -> !llvm.ptr
    llvm.store %5, %83 : i64, !llvm.ptr
    %84 = llvm.ptrtoint %83 : !llvm.ptr to i64
    %85 = llvm.alloca %4 x i64 : (i64) -> !llvm.ptr
    llvm.store %28, %85 : i64, !llvm.ptr
    %86 = llvm.ptrtoint %85 : !llvm.ptr to i64
    %87 = llvm.alloca %4 x i64 : (i64) -> !llvm.ptr
    llvm.store %5, %87 : i64, !llvm.ptr
    %88 = llvm.ptrtoint %87 : !llvm.ptr to i64
    %89 = llvm.alloca %4 x i64 : (i64) -> !llvm.ptr
    llvm.store %35, %89 : i64, !llvm.ptr
    %90 = llvm.ptrtoint %89 : !llvm.ptr to i64
    %91 = llvm.alloca %4 x i64 : (i64) -> !llvm.ptr
    llvm.store %5, %91 : i64, !llvm.ptr
    %92 = llvm.ptrtoint %91 : !llvm.ptr to i64
    %93 = llvm.alloca %4 x i64 : (i64) -> !llvm.ptr
    llvm.store %49, %93 : i64, !llvm.ptr
    %94 = llvm.ptrtoint %93 : !llvm.ptr to i64
    %95 = llvm.alloca %1 x i64 : (i64) -> !llvm.ptr
    llvm.store %78, %95 : i64, !llvm.ptr
    %96 = llvm.getelementptr %95[1] : (!llvm.ptr) -> !llvm.ptr, i64
    llvm.store %80, %96 : i64, !llvm.ptr
    %97 = llvm.getelementptr %95[2] : (!llvm.ptr) -> !llvm.ptr, i64
    llvm.store %82, %97 : i64, !llvm.ptr
    %98 = llvm.getelementptr %95[3] : (!llvm.ptr) -> !llvm.ptr, i64
    llvm.store %84, %98 : i64, !llvm.ptr
    %99 = llvm.getelementptr %95[4] : (!llvm.ptr) -> !llvm.ptr, i64
    llvm.store %86, %99 : i64, !llvm.ptr
    %100 = llvm.getelementptr %95[5] : (!llvm.ptr) -> !llvm.ptr, i64
    llvm.store %88, %100 : i64, !llvm.ptr
    %101 = llvm.getelementptr %95[6] : (!llvm.ptr) -> !llvm.ptr, i64
    llvm.store %90, %101 : i64, !llvm.ptr
    %102 = llvm.getelementptr %95[7] : (!llvm.ptr) -> !llvm.ptr, i64
    llvm.store %92, %102 : i64, !llvm.ptr
    %103 = llvm.getelementptr %95[8] : (!llvm.ptr) -> !llvm.ptr, i64
    llvm.store %94, %103 : i64, !llvm.ptr
    %104 = llvm.mlir.addressof @main_kernel0_str : !llvm.ptr
    %105 = llvm.getelementptr %104[0, 0] : (!llvm.ptr) -> !llvm.ptr, !llvm.array<12 x i8>
    llvm.call @cudaLaunchKernel(%3, %6, %4, %3, %7, %4, %95, %95, %2, %1, %4, %105, %14, %12, %13, %3) : (i64, i64, i64, i64, i64, i64, !llvm.ptr, !llvm.ptr, i64, i64, i64, !llvm.ptr, i64, i32, i64, i64) -> ()
    llvm.call @cudaMemcpyF64(%49, %36, %41, %2, %11, %4, %4) : (i64, !llvm.ptr, !llvm.ptr, i64, i64, i64, i64) -> ()
    llvm.call @cudaMemcpyF64(%35, %29, %34, %2, %11, %4, %4) : (i64, !llvm.ptr, !llvm.ptr, i64, i64, i64, i64) -> ()
    llvm.call @cudaMemcpyF64(%28, %20, %26, %2, %11, %4, %4) : (i64, !llvm.ptr, !llvm.ptr, i64, i64, i64, i64) -> ()
    %106 = llvm.alloca %4 x !llvm.struct<(ptr, ptr, i64, array<2 x i64>, array<2 x i64>)> : (i64) -> !llvm.ptr
    llvm.store %48, %106 : !llvm.struct<(ptr, ptr, i64, array<2 x i64>, array<2 x i64>)>, !llvm.ptr
    llvm.call @comet_print_memref_f64(%0, %106) : (i64, !llvm.ptr) -> ()
    llvm.call @cudaFree(%28) : (i64) -> ()
    llvm.call @cudaFree(%35) : (i64) -> ()
    llvm.call @cudaFree(%49) : (i64) -> ()
    llvm.return
  }
  llvm.func @comet_print_memref_f64(i64, !llvm.ptr) attributes {sym_visibility = "private"}
  llvm.func @cudaMallocI32(i64) -> i64 attributes {sym_visibility = "private"}
  llvm.func @cudaMallocI64(i64) -> i64 attributes {sym_visibility = "private"}
  llvm.func @cudaMallocF32(i64) -> i64 attributes {sym_visibility = "private"}
  llvm.func @cudaMallocF64(i64) -> i64 attributes {sym_visibility = "private"}
  llvm.func @cudaMemcpyI32(i64, !llvm.ptr, !llvm.ptr, i64, i64, i64, i64) attributes {sym_visibility = "private"}
  llvm.func @cudaMemcpyI64(i64, !llvm.ptr, !llvm.ptr, i64, i64, i64, i64) attributes {sym_visibility = "private"}
  llvm.func @cudaMemcpyIndex(i64, !llvm.ptr, !llvm.ptr, i64, i64, i64, i64) attributes {sym_visibility = "private"}
  llvm.func @cudaMemcpyF32(i64, !llvm.ptr, !llvm.ptr, i64, i64, i64, i64) attributes {sym_visibility = "private"}
  llvm.func @cudaMemcpyF64(i64, !llvm.ptr, !llvm.ptr, i64, i64, i64, i64) attributes {sym_visibility = "private"}
  llvm.func @cudaLaunchKernel(i64, i64, i64, i64, i64, i64, !llvm.ptr, !llvm.ptr, i64, i64, i64, !llvm.ptr, i64, i32, i64, i64) attributes {sym_visibility = "private"}
  llvm.func @cudaSetModuleImage(!llvm.ptr) attributes {sym_visibility = "private"}
  llvm.func @cudaFree(i64) attributes {sym_visibility = "private"}
}


// -----// IR Dump After CSE (cse) //----- //
module attributes {gpu.container_module, "triton_gpu.compute-capability" = 70 : i32, "triton_gpu.num-ctas" = 1 : i32, "triton_gpu.num-warps" = 4 : i32, triton_gpu.shared = 0 : i32, "triton_gpu.threads-per-warp" = 32 : i32} {
  llvm.func @malloc(i64) -> !llvm.ptr
  llvm.mlir.global private constant @main_kernel0_str("main_kernel0") {addr_space = 0 : i32}
  llvm.mlir.global internal @ptx("//\0A// Generated by LLVM NVPTX Back-End\0A//\0A\0A.version 6.0\0A.target sm_70\0A.address_size 64\0A\0A\09// .globl\09main_kernel0\0A.extern .shared .align 1 .b8 global_smem[];\0A\0A.visible .entry main_kernel0(\0A\09.param .u32 main_kernel0_param_0,\0A\09.param .u32 main_kernel0_param_1,\0A\09.param .u32 main_kernel0_param_2,\0A\09.param .u32 main_kernel0_param_3,\0A\09.param .u64 main_kernel0_param_4,\0A\09.param .u32 main_kernel0_param_5,\0A\09.param .u64 main_kernel0_param_6,\0A\09.param .u32 main_kernel0_param_7,\0A\09.param .u64 main_kernel0_param_8\0A)\0A.maxntid 128, 1, 1\0A{\0A\09.reg .pred \09%p<12>;\0A\09.reg .b32 \09%r<73>;\0A\09.reg .b64 \09%rd<22>;\0A\09.reg .f64 \09%fd<7>;\0A\0A\09ld.param.u64 \09%rd3, [main_kernel0_param_8];\0A\09ld.param.u64 \09%rd2, [main_kernel0_param_6];\0A\09ld.param.u64 \09%rd1, [main_kernel0_param_4];\0A\09ld.param.u32 \09%r37, [main_kernel0_param_2];\0A\09ld.param.u32 \09%r43, [main_kernel0_param_0];\0A\09ld.param.u32 \09%r44, [main_kernel0_param_1];\0A\09mov.u32 \09%r45, %tid.x;\0A\09and.b32  \09%r46, %r45, 31;\0A\09ld.param.u32 \09%r47, [main_kernel0_param_3];\0A\09bfe.u32 \09%r48, %r45, 5, 2;\0A\09// begin inline asm\0A\09mov.u32 %r38, %nctaid.y;\0A\09// end inline asm\0A\09ld.param.u32 \09%r49, [main_kernel0_param_5];\0A\09// begin inline asm\0A\09mov.u32 %r39, %nctaid.x;\0A\09// end inline asm\0A\09ld.param.u32 \09%r50, [main_kernel0_param_7];\0A\09// begin inline asm\0A\09mov.u32 %r40, %ctaid.y;\0A\09// end inline asm\0A\09// begin inline asm\0A\09mov.u32 %r41, %ctaid.x;\0A\09// end inline asm\0A\09sub.s32 \09%r3, %r43, %r40;\0A\09sub.s32 \09%r4, %r44, %r41;\0A\09shl.b32 \09%r51, %r41, 5;\0A\09shl.b32 \09%r52, %r40, 3;\0A\09or.b32  \09%r5, %r48, %r52;\0A\09or.b32  \09%r53, %r5, 4;\0A\09mul.lo.s32 \09%r69, %r50, %r53;\0A\09mul.lo.s32 \09%r54, %r38, %r50;\0A\09shl.b32 \09%r7, %r54, 3;\0A\09or.b32  \09%r8, %r51, %r46;\0A\09shl.b32 \09%r9, %r39, 5;\0A\09mul.lo.s32 \09%r68, %r50, %r5;\0A\09mul.lo.s32 \09%r67, %r49, %r53;\0A\09mul.lo.s32 \09%r55, %r38, %r49;\0A\09shl.b32 \09%r12, %r55, 3;\0A\09mul.lo.s32 \09%r66, %r49, %r5;\0A\09mul.lo.s32 \09%r65, %r47, %r53;\0A\09mul.lo.s32 \09%r56, %r38, %r47;\0A\09shl.b32 \09%r15, %r56, 3;\0A\09mul.lo.s32 \09%r64, %r47, %r5;\0A\09mov.b32 \09%r70, 0;\0A\09bra.uni \09$L__BB0_1;\0A$L__BB0_5:\0A\09add.s32 \09%r70, %r70, %r38;\0A\09add.s32 \09%r69, %r69, %r7;\0A\09add.s32 \09%r68, %r68, %r7;\0A\09add.s32 \09%r67, %r67, %r12;\0A\09add.s32 \09%r66, %r66, %r12;\0A\09add.s32 \09%r65, %r65, %r15;\0A\09add.s32 \09%r64, %r64, %r15;\0A$L__BB0_1:\0A\09setp.ge.s32 \09%p1, %r70, %r3;\0A\09@%p1 bra \09$L__BB0_6;\0A\09mad.lo.s32 \09%r24, %r70, 8, %r5;\0A\09add.s32 \09%r25, %r24, 4;\0A\09mov.b32 \09%r72, 0;\0A\09setp.lt.s32 \09%p9, %r25, %r37;\0A\09setp.lt.s32 \09%p10, %r24, %r37;\0A\09mov.u32 \09%r71, %r8;\0A$L__BB0_3:\0A\09setp.ge.s32 \09%p2, %r72, %r4;\0A\09@%p2 bra \09$L__BB0_5;\0A\09setp.lt.s32 \09%p11, %r71, %r37;\0A\09and.pred  \09%p3, %p11, %p10;\0A\09and.pred  \09%p4, %p11, %p9;\0A\09add.s32 \09%r58, %r64, %r71;\0A\09add.s32 \09%r59, %r65, %r71;\0A\09mul.wide.s32 \09%rd16, %r58, 8;\0A\09add.s64 \09%rd5, %rd1, %rd16;\0A\09mul.wide.s32 \09%rd17, %r59, 8;\0A\09add.s64 \09%rd7, %rd1, %rd17;\0A\09// begin inline asm\0A\09mov.u64 %rd4, 0x0;\0A\09@%p3 ld.global.b64 { %rd4 }, [ %rd5 + 0 ];\0A\09// end inline asm\0A\09mov.b64 \09%fd1, %rd4;\0A\09// begin inline asm\0A\09mov.u64 %rd6, 0x0;\0A\09@%p4 ld.global.b64 { %rd6 }, [ %rd7 + 0 ];\0A\09// end inline asm\0A\09mov.b64 \09%fd2, %rd6;\0A\09add.s32 \09%r60, %r66, %r71;\0A\09add.s32 \09%r61, %r67, %r71;\0A\09mul.wide.s32 \09%rd18, %r60, 8;\0A\09add.s64 \09%rd9, %rd2, %rd18;\0A\09mul.wide.s32 \09%rd19, %r61, 8;\0A\09add.s64 \09%rd11, %rd2, %rd19;\0A\09// begin inline asm\0A\09mov.u64 %rd8, 0x0;\0A\09@%p3 ld.global.b64 { %rd8 }, [ %rd9 + 0 ];\0A\09// end inline asm\0A\09mov.b64 \09%fd3, %rd8;\0A\09// begin inline asm\0A\09mov.u64 %rd10, 0x0;\0A\09@%p4 ld.global.b64 { %rd10 }, [ %rd11 + 0 ];\0A\09// end inline asm\0A\09mov.b64 \09%fd4, %rd10;\0A\09add.rn.f64 \09%fd5, %fd1, %fd3;\0A\09add.rn.f64 \09%fd6, %fd2, %fd4;\0A\09add.s32 \09%r62, %r68, %r71;\0A\09add.s32 \09%r63, %r69, %r71;\0A\09mul.wide.s32 \09%rd20, %r62, 8;\0A\09add.s64 \09%rd13, %rd3, %rd20;\0A\09mul.wide.s32 \09%rd21, %r63, 8;\0A\09add.s64 \09%rd15, %rd3, %rd21;\0A\09mov.b64 \09%rd12, %fd5;\0A\09// begin inline asm\0A\09@%p3 st.global.b64 [ %rd13 + 0 ], { %rd12 };\0A\09// end inline asm\0A\09mov.b64 \09%rd14, %fd6;\0A\09// begin inline asm\0A\09@%p4 st.global.b64 [ %rd15 + 0 ], { %rd14 };\0A\09// end inline asm\0A\09add.s32 \09%r72, %r72, %r39;\0A\09add.s32 \09%r71, %r71, %r9;\0A\09bra.uni \09$L__BB0_3;\0A$L__BB0_6:\0A\09ret;\0A\0A}\0A") {addr_space = 0 : i32, alignment = 32 : i64}
  llvm.func @main() {
    %0 = llvm.mlir.constant(2 : index) : i64
    %1 = llvm.mlir.constant(9 : index) : i64
    %2 = llvm.mlir.constant(0 : index) : i64
    %3 = llvm.mlir.constant(32 : index) : i64
    %4 = llvm.mlir.constant(1 : index) : i64
    %5 = llvm.mlir.constant(1024 : index) : i64
    %6 = llvm.mlir.constant(128 : index) : i64
    %7 = llvm.mlir.constant(8 : index) : i64
    %8 = llvm.mlir.constant(0.000000e+00 : f64) : f64
    %9 = llvm.mlir.constant(3.400000e+00 : f64) : f64
    %10 = llvm.mlir.constant(2.200000e+00 : f64) : f64
    %11 = llvm.mlir.constant(1048576 : index) : i64
    %12 = llvm.mlir.constant(0 : i32) : i32
    %13 = llvm.mlir.constant(4 : index) : i64
    %14 = llvm.mlir.constant(12 : index) : i64
    %15 = llvm.mlir.addressof @ptx : !llvm.ptr
    llvm.call @cudaSetModuleImage(%15) : (!llvm.ptr) -> ()
    %16 = llvm.mlir.zero : !llvm.ptr
    %17 = llvm.getelementptr %16[1048576] : (!llvm.ptr) -> !llvm.ptr, f64
    %18 = llvm.ptrtoint %17 : !llvm.ptr to i64
    %19 = llvm.add %18, %3  : i64
    %20 = llvm.call @malloc(%19) : (i64) -> !llvm.ptr
    %21 = llvm.ptrtoint %20 : !llvm.ptr to i64
    %22 = llvm.sub %3, %4  : i64
    %23 = llvm.add %21, %22  : i64
    %24 = llvm.urem %23, %3  : i64
    %25 = llvm.sub %23, %24  : i64
    %26 = llvm.inttoptr %25 : i64 to !llvm.ptr
    %27 = llvm.mlir.undef : !llvm.struct<(ptr, ptr, i64, array<2 x i64>, array<2 x i64>)>
    %28 = llvm.call @cudaMallocF64(%11) : (i64) -> i64
    %29 = llvm.call @malloc(%19) : (i64) -> !llvm.ptr
    %30 = llvm.ptrtoint %29 : !llvm.ptr to i64
    %31 = llvm.add %30, %22  : i64
    %32 = llvm.urem %31, %3  : i64
    %33 = llvm.sub %31, %32  : i64
    %34 = llvm.inttoptr %33 : i64 to !llvm.ptr
    %35 = llvm.call @cudaMallocF64(%11) : (i64) -> i64
    %36 = llvm.call @malloc(%19) : (i64) -> !llvm.ptr
    %37 = llvm.ptrtoint %36 : !llvm.ptr to i64
    %38 = llvm.add %37, %22  : i64
    %39 = llvm.urem %38, %3  : i64
    %40 = llvm.sub %38, %39  : i64
    %41 = llvm.inttoptr %40 : i64 to !llvm.ptr
    %42 = llvm.insertvalue %36, %27[0] : !llvm.struct<(ptr, ptr, i64, array<2 x i64>, array<2 x i64>)> 
    %43 = llvm.insertvalue %41, %42[1] : !llvm.struct<(ptr, ptr, i64, array<2 x i64>, array<2 x i64>)> 
    %44 = llvm.insertvalue %2, %43[2] : !llvm.struct<(ptr, ptr, i64, array<2 x i64>, array<2 x i64>)> 
    %45 = llvm.insertvalue %5, %44[3, 0] : !llvm.struct<(ptr, ptr, i64, array<2 x i64>, array<2 x i64>)> 
    %46 = llvm.insertvalue %5, %45[3, 1] : !llvm.struct<(ptr, ptr, i64, array<2 x i64>, array<2 x i64>)> 
    %47 = llvm.insertvalue %5, %46[4, 0] : !llvm.struct<(ptr, ptr, i64, array<2 x i64>, array<2 x i64>)> 
    %48 = llvm.insertvalue %4, %47[4, 1] : !llvm.struct<(ptr, ptr, i64, array<2 x i64>, array<2 x i64>)> 
    %49 = llvm.call @cudaMallocF64(%11) : (i64) -> i64
    llvm.br ^bb1(%2 : i64)
  ^bb1(%50: i64):  // 2 preds: ^bb0, ^bb4
    %51 = llvm.icmp "slt" %50, %5 : i64
    llvm.cond_br %51, ^bb2(%2 : i64), ^bb5(%2 : i64)
  ^bb2(%52: i64):  // 2 preds: ^bb1, ^bb3
    %53 = llvm.icmp "slt" %52, %5 : i64
    llvm.cond_br %53, ^bb3, ^bb4
  ^bb3:  // pred: ^bb2
    %54 = llvm.mul %50, %5  : i64
    %55 = llvm.add %54, %52  : i64
    %56 = llvm.getelementptr %26[%55] : (!llvm.ptr, i64) -> !llvm.ptr, f64
    llvm.store %10, %56 : f64, !llvm.ptr
    %57 = llvm.add %52, %4  : i64
    llvm.br ^bb2(%57 : i64)
  ^bb4:  // pred: ^bb2
    %58 = llvm.add %50, %4  : i64
    llvm.br ^bb1(%58 : i64)
  ^bb5(%59: i64):  // 2 preds: ^bb1, ^bb8
    %60 = llvm.icmp "slt" %59, %5 : i64
    llvm.cond_br %60, ^bb6(%2 : i64), ^bb9(%2 : i64)
  ^bb6(%61: i64):  // 2 preds: ^bb5, ^bb7
    %62 = llvm.icmp "slt" %61, %5 : i64
    llvm.cond_br %62, ^bb7, ^bb8
  ^bb7:  // pred: ^bb6
    %63 = llvm.mul %59, %5  : i64
    %64 = llvm.add %63, %61  : i64
    %65 = llvm.getelementptr %34[%64] : (!llvm.ptr, i64) -> !llvm.ptr, f64
    llvm.store %9, %65 : f64, !llvm.ptr
    %66 = llvm.add %61, %4  : i64
    llvm.br ^bb6(%66 : i64)
  ^bb8:  // pred: ^bb6
    %67 = llvm.add %59, %4  : i64
    llvm.br ^bb5(%67 : i64)
  ^bb9(%68: i64):  // 2 preds: ^bb5, ^bb12
    %69 = llvm.icmp "slt" %68, %5 : i64
    llvm.cond_br %69, ^bb10(%2 : i64), ^bb13
  ^bb10(%70: i64):  // 2 preds: ^bb9, ^bb11
    %71 = llvm.icmp "slt" %70, %5 : i64
    llvm.cond_br %71, ^bb11, ^bb12
  ^bb11:  // pred: ^bb10
    %72 = llvm.mul %68, %5  : i64
    %73 = llvm.add %72, %70  : i64
    %74 = llvm.getelementptr %41[%73] : (!llvm.ptr, i64) -> !llvm.ptr, f64
    llvm.store %8, %74 : f64, !llvm.ptr
    %75 = llvm.add %70, %4  : i64
    llvm.br ^bb10(%75 : i64)
  ^bb12:  // pred: ^bb10
    %76 = llvm.add %68, %4  : i64
    llvm.br ^bb9(%76 : i64)
  ^bb13:  // pred: ^bb9
    llvm.call @cudaMemcpyF64(%28, %20, %26, %2, %11, %4, %2) : (i64, !llvm.ptr, !llvm.ptr, i64, i64, i64, i64) -> ()
    llvm.call @cudaMemcpyF64(%35, %29, %34, %2, %11, %4, %2) : (i64, !llvm.ptr, !llvm.ptr, i64, i64, i64, i64) -> ()
    llvm.call @cudaMemcpyF64(%49, %36, %41, %2, %11, %4, %2) : (i64, !llvm.ptr, !llvm.ptr, i64, i64, i64, i64) -> ()
    %77 = llvm.alloca %4 x i64 : (i64) -> !llvm.ptr
    llvm.store %6, %77 : i64, !llvm.ptr
    %78 = llvm.ptrtoint %77 : !llvm.ptr to i64
    %79 = llvm.alloca %4 x i64 : (i64) -> !llvm.ptr
    llvm.store %3, %79 : i64, !llvm.ptr
    %80 = llvm.ptrtoint %79 : !llvm.ptr to i64
    %81 = llvm.alloca %4 x i64 : (i64) -> !llvm.ptr
    llvm.store %5, %81 : i64, !llvm.ptr
    %82 = llvm.ptrtoint %81 : !llvm.ptr to i64
    %83 = llvm.alloca %4 x i64 : (i64) -> !llvm.ptr
    llvm.store %5, %83 : i64, !llvm.ptr
    %84 = llvm.ptrtoint %83 : !llvm.ptr to i64
    %85 = llvm.alloca %4 x i64 : (i64) -> !llvm.ptr
    llvm.store %28, %85 : i64, !llvm.ptr
    %86 = llvm.ptrtoint %85 : !llvm.ptr to i64
    %87 = llvm.alloca %4 x i64 : (i64) -> !llvm.ptr
    llvm.store %5, %87 : i64, !llvm.ptr
    %88 = llvm.ptrtoint %87 : !llvm.ptr to i64
    %89 = llvm.alloca %4 x i64 : (i64) -> !llvm.ptr
    llvm.store %35, %89 : i64, !llvm.ptr
    %90 = llvm.ptrtoint %89 : !llvm.ptr to i64
    %91 = llvm.alloca %4 x i64 : (i64) -> !llvm.ptr
    llvm.store %5, %91 : i64, !llvm.ptr
    %92 = llvm.ptrtoint %91 : !llvm.ptr to i64
    %93 = llvm.alloca %4 x i64 : (i64) -> !llvm.ptr
    llvm.store %49, %93 : i64, !llvm.ptr
    %94 = llvm.ptrtoint %93 : !llvm.ptr to i64
    %95 = llvm.alloca %1 x i64 : (i64) -> !llvm.ptr
    llvm.store %78, %95 : i64, !llvm.ptr
    %96 = llvm.getelementptr %95[1] : (!llvm.ptr) -> !llvm.ptr, i64
    llvm.store %80, %96 : i64, !llvm.ptr
    %97 = llvm.getelementptr %95[2] : (!llvm.ptr) -> !llvm.ptr, i64
    llvm.store %82, %97 : i64, !llvm.ptr
    %98 = llvm.getelementptr %95[3] : (!llvm.ptr) -> !llvm.ptr, i64
    llvm.store %84, %98 : i64, !llvm.ptr
    %99 = llvm.getelementptr %95[4] : (!llvm.ptr) -> !llvm.ptr, i64
    llvm.store %86, %99 : i64, !llvm.ptr
    %100 = llvm.getelementptr %95[5] : (!llvm.ptr) -> !llvm.ptr, i64
    llvm.store %88, %100 : i64, !llvm.ptr
    %101 = llvm.getelementptr %95[6] : (!llvm.ptr) -> !llvm.ptr, i64
    llvm.store %90, %101 : i64, !llvm.ptr
    %102 = llvm.getelementptr %95[7] : (!llvm.ptr) -> !llvm.ptr, i64
    llvm.store %92, %102 : i64, !llvm.ptr
    %103 = llvm.getelementptr %95[8] : (!llvm.ptr) -> !llvm.ptr, i64
    llvm.store %94, %103 : i64, !llvm.ptr
    %104 = llvm.mlir.addressof @main_kernel0_str : !llvm.ptr
    %105 = llvm.getelementptr %104[0, 0] : (!llvm.ptr) -> !llvm.ptr, !llvm.array<12 x i8>
    llvm.call @cudaLaunchKernel(%3, %6, %4, %3, %7, %4, %95, %95, %2, %1, %4, %105, %14, %12, %13, %3) : (i64, i64, i64, i64, i64, i64, !llvm.ptr, !llvm.ptr, i64, i64, i64, !llvm.ptr, i64, i32, i64, i64) -> ()
    llvm.call @cudaMemcpyF64(%49, %36, %41, %2, %11, %4, %4) : (i64, !llvm.ptr, !llvm.ptr, i64, i64, i64, i64) -> ()
    llvm.call @cudaMemcpyF64(%35, %29, %34, %2, %11, %4, %4) : (i64, !llvm.ptr, !llvm.ptr, i64, i64, i64, i64) -> ()
    llvm.call @cudaMemcpyF64(%28, %20, %26, %2, %11, %4, %4) : (i64, !llvm.ptr, !llvm.ptr, i64, i64, i64, i64) -> ()
    %106 = llvm.alloca %4 x !llvm.struct<(ptr, ptr, i64, array<2 x i64>, array<2 x i64>)> : (i64) -> !llvm.ptr
    llvm.store %48, %106 : !llvm.struct<(ptr, ptr, i64, array<2 x i64>, array<2 x i64>)>, !llvm.ptr
    llvm.call @comet_print_memref_f64(%0, %106) : (i64, !llvm.ptr) -> ()
    llvm.call @cudaFree(%28) : (i64) -> ()
    llvm.call @cudaFree(%35) : (i64) -> ()
    llvm.call @cudaFree(%49) : (i64) -> ()
    llvm.return
  }
  llvm.func @comet_print_memref_f64(i64, !llvm.ptr) attributes {sym_visibility = "private"}
  llvm.func @cudaMallocI32(i64) -> i64 attributes {sym_visibility = "private"}
  llvm.func @cudaMallocI64(i64) -> i64 attributes {sym_visibility = "private"}
  llvm.func @cudaMallocF32(i64) -> i64 attributes {sym_visibility = "private"}
  llvm.func @cudaMallocF64(i64) -> i64 attributes {sym_visibility = "private"}
  llvm.func @cudaMemcpyI32(i64, !llvm.ptr, !llvm.ptr, i64, i64, i64, i64) attributes {sym_visibility = "private"}
  llvm.func @cudaMemcpyI64(i64, !llvm.ptr, !llvm.ptr, i64, i64, i64, i64) attributes {sym_visibility = "private"}
  llvm.func @cudaMemcpyIndex(i64, !llvm.ptr, !llvm.ptr, i64, i64, i64, i64) attributes {sym_visibility = "private"}
  llvm.func @cudaMemcpyF32(i64, !llvm.ptr, !llvm.ptr, i64, i64, i64, i64) attributes {sym_visibility = "private"}
  llvm.func @cudaMemcpyF64(i64, !llvm.ptr, !llvm.ptr, i64, i64, i64, i64) attributes {sym_visibility = "private"}
  llvm.func @cudaLaunchKernel(i64, i64, i64, i64, i64, i64, !llvm.ptr, !llvm.ptr, i64, i64, i64, !llvm.ptr, i64, i32, i64, i64) attributes {sym_visibility = "private"}
  llvm.func @cudaSetModuleImage(!llvm.ptr) attributes {sym_visibility = "private"}
  llvm.func @cudaFree(i64) attributes {sym_visibility = "private"}
}


module attributes {gpu.container_module, "triton_gpu.compute-capability" = 70 : i32, "triton_gpu.num-ctas" = 1 : i32, "triton_gpu.num-warps" = 4 : i32, triton_gpu.shared = 0 : i32, "triton_gpu.threads-per-warp" = 32 : i32} {
  llvm.func @malloc(i64) -> !llvm.ptr
  llvm.mlir.global private constant @main_kernel0_str("main_kernel0") {addr_space = 0 : i32}
  llvm.mlir.global internal @ptx("//\0A// Generated by LLVM NVPTX Back-End\0A//\0A\0A.version 6.0\0A.target sm_70\0A.address_size 64\0A\0A\09// .globl\09main_kernel0\0A.extern .shared .align 1 .b8 global_smem[];\0A\0A.visible .entry main_kernel0(\0A\09.param .u32 main_kernel0_param_0,\0A\09.param .u32 main_kernel0_param_1,\0A\09.param .u32 main_kernel0_param_2,\0A\09.param .u32 main_kernel0_param_3,\0A\09.param .u64 main_kernel0_param_4,\0A\09.param .u32 main_kernel0_param_5,\0A\09.param .u64 main_kernel0_param_6,\0A\09.param .u32 main_kernel0_param_7,\0A\09.param .u64 main_kernel0_param_8\0A)\0A.maxntid 128, 1, 1\0A{\0A\09.reg .pred \09%p<12>;\0A\09.reg .b32 \09%r<73>;\0A\09.reg .b64 \09%rd<22>;\0A\09.reg .f64 \09%fd<7>;\0A\0A\09ld.param.u64 \09%rd3, [main_kernel0_param_8];\0A\09ld.param.u64 \09%rd2, [main_kernel0_param_6];\0A\09ld.param.u64 \09%rd1, [main_kernel0_param_4];\0A\09ld.param.u32 \09%r37, [main_kernel0_param_2];\0A\09ld.param.u32 \09%r43, [main_kernel0_param_0];\0A\09ld.param.u32 \09%r44, [main_kernel0_param_1];\0A\09mov.u32 \09%r45, %tid.x;\0A\09and.b32  \09%r46, %r45, 31;\0A\09ld.param.u32 \09%r47, [main_kernel0_param_3];\0A\09bfe.u32 \09%r48, %r45, 5, 2;\0A\09// begin inline asm\0A\09mov.u32 %r38, %nctaid.y;\0A\09// end inline asm\0A\09ld.param.u32 \09%r49, [main_kernel0_param_5];\0A\09// begin inline asm\0A\09mov.u32 %r39, %nctaid.x;\0A\09// end inline asm\0A\09ld.param.u32 \09%r50, [main_kernel0_param_7];\0A\09// begin inline asm\0A\09mov.u32 %r40, %ctaid.y;\0A\09// end inline asm\0A\09// begin inline asm\0A\09mov.u32 %r41, %ctaid.x;\0A\09// end inline asm\0A\09sub.s32 \09%r3, %r43, %r40;\0A\09sub.s32 \09%r4, %r44, %r41;\0A\09shl.b32 \09%r51, %r41, 5;\0A\09shl.b32 \09%r52, %r40, 3;\0A\09or.b32  \09%r5, %r48, %r52;\0A\09or.b32  \09%r53, %r5, 4;\0A\09mul.lo.s32 \09%r69, %r50, %r53;\0A\09mul.lo.s32 \09%r54, %r38, %r50;\0A\09shl.b32 \09%r7, %r54, 3;\0A\09or.b32  \09%r8, %r51, %r46;\0A\09shl.b32 \09%r9, %r39, 5;\0A\09mul.lo.s32 \09%r68, %r50, %r5;\0A\09mul.lo.s32 \09%r67, %r49, %r53;\0A\09mul.lo.s32 \09%r55, %r38, %r49;\0A\09shl.b32 \09%r12, %r55, 3;\0A\09mul.lo.s32 \09%r66, %r49, %r5;\0A\09mul.lo.s32 \09%r65, %r47, %r53;\0A\09mul.lo.s32 \09%r56, %r38, %r47;\0A\09shl.b32 \09%r15, %r56, 3;\0A\09mul.lo.s32 \09%r64, %r47, %r5;\0A\09mov.b32 \09%r70, 0;\0A\09bra.uni \09$L__BB0_1;\0A$L__BB0_5:\0A\09add.s32 \09%r70, %r70, %r38;\0A\09add.s32 \09%r69, %r69, %r7;\0A\09add.s32 \09%r68, %r68, %r7;\0A\09add.s32 \09%r67, %r67, %r12;\0A\09add.s32 \09%r66, %r66, %r12;\0A\09add.s32 \09%r65, %r65, %r15;\0A\09add.s32 \09%r64, %r64, %r15;\0A$L__BB0_1:\0A\09setp.ge.s32 \09%p1, %r70, %r3;\0A\09@%p1 bra \09$L__BB0_6;\0A\09mad.lo.s32 \09%r24, %r70, 8, %r5;\0A\09add.s32 \09%r25, %r24, 4;\0A\09mov.b32 \09%r72, 0;\0A\09setp.lt.s32 \09%p9, %r25, %r37;\0A\09setp.lt.s32 \09%p10, %r24, %r37;\0A\09mov.u32 \09%r71, %r8;\0A$L__BB0_3:\0A\09setp.ge.s32 \09%p2, %r72, %r4;\0A\09@%p2 bra \09$L__BB0_5;\0A\09setp.lt.s32 \09%p11, %r71, %r37;\0A\09and.pred  \09%p3, %p11, %p10;\0A\09and.pred  \09%p4, %p11, %p9;\0A\09add.s32 \09%r58, %r64, %r71;\0A\09add.s32 \09%r59, %r65, %r71;\0A\09mul.wide.s32 \09%rd16, %r58, 8;\0A\09add.s64 \09%rd5, %rd1, %rd16;\0A\09mul.wide.s32 \09%rd17, %r59, 8;\0A\09add.s64 \09%rd7, %rd1, %rd17;\0A\09// begin inline asm\0A\09mov.u64 %rd4, 0x0;\0A\09@%p3 ld.global.b64 { %rd4 }, [ %rd5 + 0 ];\0A\09// end inline asm\0A\09mov.b64 \09%fd1, %rd4;\0A\09// begin inline asm\0A\09mov.u64 %rd6, 0x0;\0A\09@%p4 ld.global.b64 { %rd6 }, [ %rd7 + 0 ];\0A\09// end inline asm\0A\09mov.b64 \09%fd2, %rd6;\0A\09add.s32 \09%r60, %r66, %r71;\0A\09add.s32 \09%r61, %r67, %r71;\0A\09mul.wide.s32 \09%rd18, %r60, 8;\0A\09add.s64 \09%rd9, %rd2, %rd18;\0A\09mul.wide.s32 \09%rd19, %r61, 8;\0A\09add.s64 \09%rd11, %rd2, %rd19;\0A\09// begin inline asm\0A\09mov.u64 %rd8, 0x0;\0A\09@%p3 ld.global.b64 { %rd8 }, [ %rd9 + 0 ];\0A\09// end inline asm\0A\09mov.b64 \09%fd3, %rd8;\0A\09// begin inline asm\0A\09mov.u64 %rd10, 0x0;\0A\09@%p4 ld.global.b64 { %rd10 }, [ %rd11 + 0 ];\0A\09// end inline asm\0A\09mov.b64 \09%fd4, %rd10;\0A\09add.rn.f64 \09%fd5, %fd1, %fd3;\0A\09add.rn.f64 \09%fd6, %fd2, %fd4;\0A\09add.s32 \09%r62, %r68, %r71;\0A\09add.s32 \09%r63, %r69, %r71;\0A\09mul.wide.s32 \09%rd20, %r62, 8;\0A\09add.s64 \09%rd13, %rd3, %rd20;\0A\09mul.wide.s32 \09%rd21, %r63, 8;\0A\09add.s64 \09%rd15, %rd3, %rd21;\0A\09mov.b64 \09%rd12, %fd5;\0A\09// begin inline asm\0A\09@%p3 st.global.b64 [ %rd13 + 0 ], { %rd12 };\0A\09// end inline asm\0A\09mov.b64 \09%rd14, %fd6;\0A\09// begin inline asm\0A\09@%p4 st.global.b64 [ %rd15 + 0 ], { %rd14 };\0A\09// end inline asm\0A\09add.s32 \09%r72, %r72, %r39;\0A\09add.s32 \09%r71, %r71, %r9;\0A\09bra.uni \09$L__BB0_3;\0A$L__BB0_6:\0A\09ret;\0A\0A}\0A") {addr_space = 0 : i32, alignment = 32 : i64}
  llvm.func @main() {
    %0 = llvm.mlir.constant(2 : index) : i64
    %1 = llvm.mlir.constant(9 : index) : i64
    %2 = llvm.mlir.constant(0 : index) : i64
    %3 = llvm.mlir.constant(32 : index) : i64
    %4 = llvm.mlir.constant(1 : index) : i64
    %5 = llvm.mlir.constant(1024 : index) : i64
    %6 = llvm.mlir.constant(128 : index) : i64
    %7 = llvm.mlir.constant(8 : index) : i64
    %8 = llvm.mlir.constant(0.000000e+00 : f64) : f64
    %9 = llvm.mlir.constant(3.400000e+00 : f64) : f64
    %10 = llvm.mlir.constant(2.200000e+00 : f64) : f64
    %11 = llvm.mlir.constant(1048576 : index) : i64
    %12 = llvm.mlir.constant(0 : i32) : i32
    %13 = llvm.mlir.constant(4 : index) : i64
    %14 = llvm.mlir.constant(12 : index) : i64
    %15 = llvm.mlir.addressof @ptx : !llvm.ptr
    llvm.call @cudaSetModuleImage(%15) : (!llvm.ptr) -> ()
    %16 = llvm.mlir.zero : !llvm.ptr
    %17 = llvm.getelementptr %16[1048576] : (!llvm.ptr) -> !llvm.ptr, f64
    %18 = llvm.ptrtoint %17 : !llvm.ptr to i64
    %19 = llvm.add %18, %3  : i64
    %20 = llvm.call @malloc(%19) : (i64) -> !llvm.ptr
    %21 = llvm.ptrtoint %20 : !llvm.ptr to i64
    %22 = llvm.sub %3, %4  : i64
    %23 = llvm.add %21, %22  : i64
    %24 = llvm.urem %23, %3  : i64
    %25 = llvm.sub %23, %24  : i64
    %26 = llvm.inttoptr %25 : i64 to !llvm.ptr
    %27 = llvm.mlir.undef : !llvm.struct<(ptr, ptr, i64, array<2 x i64>, array<2 x i64>)>
    %28 = llvm.call @cudaMallocF64(%11) : (i64) -> i64
    %29 = llvm.call @malloc(%19) : (i64) -> !llvm.ptr
    %30 = llvm.ptrtoint %29 : !llvm.ptr to i64
    %31 = llvm.add %30, %22  : i64
    %32 = llvm.urem %31, %3  : i64
    %33 = llvm.sub %31, %32  : i64
    %34 = llvm.inttoptr %33 : i64 to !llvm.ptr
    %35 = llvm.call @cudaMallocF64(%11) : (i64) -> i64
    %36 = llvm.call @malloc(%19) : (i64) -> !llvm.ptr
    %37 = llvm.ptrtoint %36 : !llvm.ptr to i64
    %38 = llvm.add %37, %22  : i64
    %39 = llvm.urem %38, %3  : i64
    %40 = llvm.sub %38, %39  : i64
    %41 = llvm.inttoptr %40 : i64 to !llvm.ptr
    %42 = llvm.insertvalue %36, %27[0] : !llvm.struct<(ptr, ptr, i64, array<2 x i64>, array<2 x i64>)> 
    %43 = llvm.insertvalue %41, %42[1] : !llvm.struct<(ptr, ptr, i64, array<2 x i64>, array<2 x i64>)> 
    %44 = llvm.insertvalue %2, %43[2] : !llvm.struct<(ptr, ptr, i64, array<2 x i64>, array<2 x i64>)> 
    %45 = llvm.insertvalue %5, %44[3, 0] : !llvm.struct<(ptr, ptr, i64, array<2 x i64>, array<2 x i64>)> 
    %46 = llvm.insertvalue %5, %45[3, 1] : !llvm.struct<(ptr, ptr, i64, array<2 x i64>, array<2 x i64>)> 
    %47 = llvm.insertvalue %5, %46[4, 0] : !llvm.struct<(ptr, ptr, i64, array<2 x i64>, array<2 x i64>)> 
    %48 = llvm.insertvalue %4, %47[4, 1] : !llvm.struct<(ptr, ptr, i64, array<2 x i64>, array<2 x i64>)> 
    %49 = llvm.call @cudaMallocF64(%11) : (i64) -> i64
    llvm.br ^bb1(%2 : i64)
  ^bb1(%50: i64):  // 2 preds: ^bb0, ^bb4
    %51 = llvm.icmp "slt" %50, %5 : i64
    llvm.cond_br %51, ^bb2(%2 : i64), ^bb5(%2 : i64)
  ^bb2(%52: i64):  // 2 preds: ^bb1, ^bb3
    %53 = llvm.icmp "slt" %52, %5 : i64
    llvm.cond_br %53, ^bb3, ^bb4
  ^bb3:  // pred: ^bb2
    %54 = llvm.mul %50, %5  : i64
    %55 = llvm.add %54, %52  : i64
    %56 = llvm.getelementptr %26[%55] : (!llvm.ptr, i64) -> !llvm.ptr, f64
    llvm.store %10, %56 : f64, !llvm.ptr
    %57 = llvm.add %52, %4  : i64
    llvm.br ^bb2(%57 : i64)
  ^bb4:  // pred: ^bb2
    %58 = llvm.add %50, %4  : i64
    llvm.br ^bb1(%58 : i64)
  ^bb5(%59: i64):  // 2 preds: ^bb1, ^bb8
    %60 = llvm.icmp "slt" %59, %5 : i64
    llvm.cond_br %60, ^bb6(%2 : i64), ^bb9(%2 : i64)
  ^bb6(%61: i64):  // 2 preds: ^bb5, ^bb7
    %62 = llvm.icmp "slt" %61, %5 : i64
    llvm.cond_br %62, ^bb7, ^bb8
  ^bb7:  // pred: ^bb6
    %63 = llvm.mul %59, %5  : i64
    %64 = llvm.add %63, %61  : i64
    %65 = llvm.getelementptr %34[%64] : (!llvm.ptr, i64) -> !llvm.ptr, f64
    llvm.store %9, %65 : f64, !llvm.ptr
    %66 = llvm.add %61, %4  : i64
    llvm.br ^bb6(%66 : i64)
  ^bb8:  // pred: ^bb6
    %67 = llvm.add %59, %4  : i64
    llvm.br ^bb5(%67 : i64)
  ^bb9(%68: i64):  // 2 preds: ^bb5, ^bb12
    %69 = llvm.icmp "slt" %68, %5 : i64
    llvm.cond_br %69, ^bb10(%2 : i64), ^bb13
  ^bb10(%70: i64):  // 2 preds: ^bb9, ^bb11
    %71 = llvm.icmp "slt" %70, %5 : i64
    llvm.cond_br %71, ^bb11, ^bb12
  ^bb11:  // pred: ^bb10
    %72 = llvm.mul %68, %5  : i64
    %73 = llvm.add %72, %70  : i64
    %74 = llvm.getelementptr %41[%73] : (!llvm.ptr, i64) -> !llvm.ptr, f64
    llvm.store %8, %74 : f64, !llvm.ptr
    %75 = llvm.add %70, %4  : i64
    llvm.br ^bb10(%75 : i64)
  ^bb12:  // pred: ^bb10
    %76 = llvm.add %68, %4  : i64
    llvm.br ^bb9(%76 : i64)
  ^bb13:  // pred: ^bb9
    llvm.call @cudaMemcpyF64(%28, %20, %26, %2, %11, %4, %2) : (i64, !llvm.ptr, !llvm.ptr, i64, i64, i64, i64) -> ()
    llvm.call @cudaMemcpyF64(%35, %29, %34, %2, %11, %4, %2) : (i64, !llvm.ptr, !llvm.ptr, i64, i64, i64, i64) -> ()
    llvm.call @cudaMemcpyF64(%49, %36, %41, %2, %11, %4, %2) : (i64, !llvm.ptr, !llvm.ptr, i64, i64, i64, i64) -> ()
    %77 = llvm.alloca %4 x i64 : (i64) -> !llvm.ptr
    llvm.store %6, %77 : i64, !llvm.ptr
    %78 = llvm.ptrtoint %77 : !llvm.ptr to i64
    %79 = llvm.alloca %4 x i64 : (i64) -> !llvm.ptr
    llvm.store %3, %79 : i64, !llvm.ptr
    %80 = llvm.ptrtoint %79 : !llvm.ptr to i64
    %81 = llvm.alloca %4 x i64 : (i64) -> !llvm.ptr
    llvm.store %5, %81 : i64, !llvm.ptr
    %82 = llvm.ptrtoint %81 : !llvm.ptr to i64
    %83 = llvm.alloca %4 x i64 : (i64) -> !llvm.ptr
    llvm.store %5, %83 : i64, !llvm.ptr
    %84 = llvm.ptrtoint %83 : !llvm.ptr to i64
    %85 = llvm.alloca %4 x i64 : (i64) -> !llvm.ptr
    llvm.store %28, %85 : i64, !llvm.ptr
    %86 = llvm.ptrtoint %85 : !llvm.ptr to i64
    %87 = llvm.alloca %4 x i64 : (i64) -> !llvm.ptr
    llvm.store %5, %87 : i64, !llvm.ptr
    %88 = llvm.ptrtoint %87 : !llvm.ptr to i64
    %89 = llvm.alloca %4 x i64 : (i64) -> !llvm.ptr
    llvm.store %35, %89 : i64, !llvm.ptr
    %90 = llvm.ptrtoint %89 : !llvm.ptr to i64
    %91 = llvm.alloca %4 x i64 : (i64) -> !llvm.ptr
    llvm.store %5, %91 : i64, !llvm.ptr
    %92 = llvm.ptrtoint %91 : !llvm.ptr to i64
    %93 = llvm.alloca %4 x i64 : (i64) -> !llvm.ptr
    llvm.store %49, %93 : i64, !llvm.ptr
    %94 = llvm.ptrtoint %93 : !llvm.ptr to i64
    %95 = llvm.alloca %1 x i64 : (i64) -> !llvm.ptr
    llvm.store %78, %95 : i64, !llvm.ptr
    %96 = llvm.getelementptr %95[1] : (!llvm.ptr) -> !llvm.ptr, i64
    llvm.store %80, %96 : i64, !llvm.ptr
    %97 = llvm.getelementptr %95[2] : (!llvm.ptr) -> !llvm.ptr, i64
    llvm.store %82, %97 : i64, !llvm.ptr
    %98 = llvm.getelementptr %95[3] : (!llvm.ptr) -> !llvm.ptr, i64
    llvm.store %84, %98 : i64, !llvm.ptr
    %99 = llvm.getelementptr %95[4] : (!llvm.ptr) -> !llvm.ptr, i64
    llvm.store %86, %99 : i64, !llvm.ptr
    %100 = llvm.getelementptr %95[5] : (!llvm.ptr) -> !llvm.ptr, i64
    llvm.store %88, %100 : i64, !llvm.ptr
    %101 = llvm.getelementptr %95[6] : (!llvm.ptr) -> !llvm.ptr, i64
    llvm.store %90, %101 : i64, !llvm.ptr
    %102 = llvm.getelementptr %95[7] : (!llvm.ptr) -> !llvm.ptr, i64
    llvm.store %92, %102 : i64, !llvm.ptr
    %103 = llvm.getelementptr %95[8] : (!llvm.ptr) -> !llvm.ptr, i64
    llvm.store %94, %103 : i64, !llvm.ptr
    %104 = llvm.mlir.addressof @main_kernel0_str : !llvm.ptr
    %105 = llvm.getelementptr %104[0, 0] : (!llvm.ptr) -> !llvm.ptr, !llvm.array<12 x i8>
    llvm.call @cudaLaunchKernel(%3, %6, %4, %3, %7, %4, %95, %95, %2, %1, %4, %105, %14, %12, %13, %3) : (i64, i64, i64, i64, i64, i64, !llvm.ptr, !llvm.ptr, i64, i64, i64, !llvm.ptr, i64, i32, i64, i64) -> ()
    llvm.call @cudaMemcpyF64(%49, %36, %41, %2, %11, %4, %4) : (i64, !llvm.ptr, !llvm.ptr, i64, i64, i64, i64) -> ()
    llvm.call @cudaMemcpyF64(%35, %29, %34, %2, %11, %4, %4) : (i64, !llvm.ptr, !llvm.ptr, i64, i64, i64, i64) -> ()
    llvm.call @cudaMemcpyF64(%28, %20, %26, %2, %11, %4, %4) : (i64, !llvm.ptr, !llvm.ptr, i64, i64, i64, i64) -> ()
    %106 = llvm.alloca %4 x !llvm.struct<(ptr, ptr, i64, array<2 x i64>, array<2 x i64>)> : (i64) -> !llvm.ptr
    llvm.store %48, %106 : !llvm.struct<(ptr, ptr, i64, array<2 x i64>, array<2 x i64>)>, !llvm.ptr
    llvm.call @comet_print_memref_f64(%0, %106) : (i64, !llvm.ptr) -> ()
    llvm.call @cudaFree(%28) : (i64) -> ()
    llvm.call @cudaFree(%35) : (i64) -> ()
    llvm.call @cudaFree(%49) : (i64) -> ()
    llvm.return
  }
  llvm.func @comet_print_memref_f64(i64, !llvm.ptr) attributes {sym_visibility = "private"}
  llvm.func @cudaMallocI32(i64) -> i64 attributes {sym_visibility = "private"}
  llvm.func @cudaMallocI64(i64) -> i64 attributes {sym_visibility = "private"}
  llvm.func @cudaMallocF32(i64) -> i64 attributes {sym_visibility = "private"}
  llvm.func @cudaMallocF64(i64) -> i64 attributes {sym_visibility = "private"}
  llvm.func @cudaMemcpyI32(i64, !llvm.ptr, !llvm.ptr, i64, i64, i64, i64) attributes {sym_visibility = "private"}
  llvm.func @cudaMemcpyI64(i64, !llvm.ptr, !llvm.ptr, i64, i64, i64, i64) attributes {sym_visibility = "private"}
  llvm.func @cudaMemcpyIndex(i64, !llvm.ptr, !llvm.ptr, i64, i64, i64, i64) attributes {sym_visibility = "private"}
  llvm.func @cudaMemcpyF32(i64, !llvm.ptr, !llvm.ptr, i64, i64, i64, i64) attributes {sym_visibility = "private"}
  llvm.func @cudaMemcpyF64(i64, !llvm.ptr, !llvm.ptr, i64, i64, i64, i64) attributes {sym_visibility = "private"}
  llvm.func @cudaLaunchKernel(i64, i64, i64, i64, i64, i64, !llvm.ptr, !llvm.ptr, i64, i64, i64, !llvm.ptr, i64, i32, i64, i64) attributes {sym_visibility = "private"}
  llvm.func @cudaSetModuleImage(!llvm.ptr) attributes {sym_visibility = "private"}
  llvm.func @cudaFree(i64) attributes {sym_visibility = "private"}
}
